AI/static-gesture/app/models/static_gesture_conv1d_v1_model.tflite (tflite, 176632 bytes, 8 tensors)

arith.constant f4 [128]
0.015380914 -0.007888527 -0.013528363 -0.02851346 -0.038074274 -0.02965893 0.011752815 0.23500401
0.051406726 -0.11540739 0.053603873 -0.0070286603 0.15096995 0.014190149 0.034115694 0.04512956
0.061632037 -0.13815548 0.122873284 0.2766496 -0.08769724 -0.030120896 0.2101593 0.14086354
-0.5192021 -0.118321456 -0.0237377 -0.031580575 -0.08917952 0.19881672 -0.07885617 -0.01315065
-0.041608937 -0.046373576 -0.72523224 0.10189366 -0.01052899 -0.02421072 -0.046537302 -0.014820879
0.0003085336 0.028651923 -0.061061386 -0.10294317 -0.0092940815 -0.019283306 0.21056598 -0.026262
-0.019598607 0.02182099 0.00022709859 -0.35813805 -0.012880287 0.1314631 -0.1055624 -0.6823984
0.07094156 -0.05105896 0.1537255 -0.011821247 0.26503158 -0.0066537806 0.0021652335 -0.12400246
0.15734228 -0.03460319 0.022175267 0.18029734 -0.023718547 -0.06283743 -0.06701051 -0.023879306
-0.14918022 -0.038621716 0.03384407 -0.03006319 -0.010413679 0.031483483 0.09894855 -0.2674277
0.17448434 -0.065097496 -0.017217709 -0.060919866 0.005286359 -0.10141047 0.033238124 -0.054718286
-0.07048445 -0.060916446 -0.046215054 -0.053607088 -0.010273742 0.0020180722 0.19046384 -0.08052058
-0.28267732 -0.053703003 0.04393747 -0.07890853 -0.062417567 -0.016561612 -0.01663639 -0.09411293
0.015223372 -0.1919206 -0.05150895 0.19322939 -0.0074332138 0.12738055 -0.15321994 0.05102185
-0.096130334 -0.37501973 -0.027121725 -0.034503568 -0.31742766 0.08161471 0.09047314 0.19575422
-0.005891544 0.038924575 0.15465963 0.18254979 -0.054480877 0.11851806 -0.15147772 -0.095941
00000000: 3b00 7c3c e13e 01bc 11a6 5dbc 0f95 e9bc
00000010: c5f3 1bbd 49f7 f2bc e18e 403c e4a4 703e
00000020: dc8f 523d b65a ecbd bc8f 5b3d ad50 e6bb
00000030: de97 1a3e cc7d 683c e6bc 0b3d c6d9 383d
00000040: e071 7c3d a178 0dbe fda4 fb3d 04a5 8d3e
00000050: 9c9a b3bd 19c0 f6bc 0034 573e 883e 103e
00000060: 6eea 04bf 8552 f2bd 9175 c2bc a25a 01bd
00000070: c1a3 b6bd 9c96 4b3e 587f a1bd d375 57bc
00000080: 226e 2abd 38f2 3dbd d2a8 39bf a0ad d03d
00000090: c981 2cbc 8f55 c6bc e69d 3ebd 46d3 72bc
000000a0: aec2 a139 70b7 ea3c 811b 7abd ded3 d2bd
000000b0: 3446 18bc 06f8 9dbc 9c9e 573e 6823 d7bc
000000c0: 428d a0bc efc1 b23c 5021 6e39 df5d b7be
000000d0: d707 53bc 439e 063e 1931 d8bd a9b1 2ebf
000000e0: cf49 913d 3323 51bd 386a 1d3e e7ad 41bc
000000f0: 38b2 873e f507 dabb 97e6 0d3b 00f5 fdbd
00000100: 561e 213e 13bc 0dbd e8a8 b53c de9f 383e
00000110: 664d c2bc e9b0 80bd ce3c 89bd 899e c3bc
00000120: b3c2 18be ce31 1ebd 14a0 0a3d 1447 f6bc
00000130: 239e 2abc d3f4 003d 8aa5 ca3d 49ec 88be
00000140: 06ac 323e d651 85bd 270c 8dbc 1c87 79bd
00000150: 3239 ad3b 4bb0 cfbd b324 083d 4820 60bd
00000160: 275a 90bd 8683 79bd ff4b 3dbd 1b93 5bbd
00000170: 3253 28bc a241 043b f408 433e f9e7 a4bd
00000180: 15bb 90be aef7 5bbd c7f7 333d cc9a a1bd
00000190: 90a9 7fbd 38ac 87bc 0a49 88bc 48be c0bd
000001a0: 736b 793c d586 44be 0cfb 52bd eddd 453e
000001b0: 5192 f3bb 0c70 023e b0e5 1cbe 4afc 503d
000001c0: fbdf c4bd 9602 c0be 612e debc 9d53 0dbd
000001d0: e185 a2be 9d25 a73d fb49 b93d cb73 483e
000001e0: da0d c1bb 606f 1f3d 185f 1e3e 55ee 3a3e
000001f0: 5727 5fbd 99b9 f23d fa1c 1bbe b77c c4bd

arith.constant1 f4 [64]
0.1765619 -0.13163243 0.10010028 -0.056833882 0.14037867 -0.10622173 0.2719647 0.32343018
0.10167867 0.12666479 -0.14948474 -0.15481089 -0.11775936 -0.037008077 -0.05222809 0.34181058
0.09774761 0.34995914 -0.007336598 0.11974155 0.07220179 0.05245204 -0.0010914096 0.13226698
-0.19361344 0.037263654 -0.04080729 0.13336346 0.34938496 -0.002146184 0.07028475 -0.042552125
0.0855941 -0.106105015 -0.07646946 0.119982824 0.008261111 0.157396 0.14415823 0.03054238
-0.16294636 0.054680664 0.16838658 -0.08168286 -0.028598702 0.111704886 0.3449255 0.102947176
0.15138975 0.05610948 -0.061287828 0.13302109 -0.027951268 -0.05857212 0.21518013 0.080865964
-0.027674366 -0.0010706473 -0.19518037 -0.16292012 -0.107244514 0.14116356 0.15731296 -0.14852762
00000000: a5cc 343e a7ca 06be 6001 cd3d a5ca 68bd
00000010: 6dbf 0f3e c78a d9bd f53e 8b3e a498 a53e
00000020: e83c d03d 6ab4 013e 8712 19be bf86 1ebe
00000030: d22b f1bd c895 17bd 1fed 55bd cc01 af3e
00000040: e62f c83d d82d b33e d867 f0bb 0f3b f53d
00000050: 88de 933d f3d7 563d a10d 8fba ff70 073e
00000060: 9a42 46be c6a1 183d 8b25 27bd 6e90 083e
00000070: 96e2 b23e fea6 0cbb 73f1 8f3d 234b 2ebd
00000080: f64b af3d 964d d9bd 059c 9cbd 8eb9 f53d
00000090: 9c59 073c 6b2c 213e 379e 133e 0334 fa3c
000000a0: 69db 26be d5f8 5f3d 886d 2c3e 5849 a7bd
000000b0: d347 eabc 88c5 e43d 139a b03e f8d5 d23d
000000c0: ea05 1b3e 0ed3 653d f208 7bbd ae36 083e
000000d0: 0ffa e4bc 52e9 6fbd 2e58 5c3e 0e9d a53d
000000e0: 5ab5 e2bc f654 8cba 5ddd 47be 88d4 26be
000000f0: 03a3 dbbd 2e8d 103e a616 213e a017 18be

arith.constant4 f4 [128, 1, 3, 64]
0.0015862051 -0.26766816 -0.27437347 -0.6903082 0.05251561 -1.1761336 -0.01863474 0.16204488
-0.36512047 0.26211277 -0.57883346 -0.5570562 -0.6362829 -0.38922283 -1.3325994 0.18066055
0.3627334 0.32814792 -0.25904825 0.22170752 -0.060145047 0.1754408 -0.16923684 0.26826552
-0.45227417 -0.00017435825 -0.19430459 0.23938005 0.108164564 -0.19879347 -0.59539443 -0.9725224
-0.7280448 -0.5773406 -0.6087915 -0.049043525 -0.67099726 0.24994403 -0.03628103 -0.31130072
-0.32366946 0.07750457 0.16480994 -0.65681595 -0.7182004 0.1827691 0.25977263 -0.48417345
0.0092006875 -0.12779213 -0.32334137 0.33736196 -0.6134876 -0.4276568 0.20565829 0.34244767
-0.5720906 -0.17183468 -0.27813062 -0.94160205 -0.37181333 0.2944648 0.19369571 -0.66745526
0.024999363 -0.07654135 0.19352894 -0.30054525 0.039719723 -0.49484065 0.14112465 0.17822148
0.15604426 0.27675226 -0.95373446 -0.783854 0.19837566 -0.2929376 -0.4535672 0.14111696
0.26748452 0.17079583 -0.49512908 0.3702014 -0.4523659 0.13884145 -0.5160712 0.32486624
-0.47820562 -0.04066492 0.007503126 0.23033644 0.050534863 -0.61178553 0.07233465 -0.20235418
0.12402191 0.16660331 0.3021088 0.037744794 0.29576787 0.31218675 0.121411555 0.2053557
0.30767778 0.1430623 0.2570662 0.24204817 -0.25370932 0.30290875 0.19544771 0.1061399
0.20008048 -0.61688656 -0.69633555 0.20677358 -0.16693404 0.29335356 0.11214668 0.3173526
-0.2203157 -0.57841593 0.13562566 -1.7255441 -0.19169022 0.24042404 0.25299686 -0.8657691
0.2065412 0.12678804 0.21485189 -0.49545905 0.055128712 -1.3366845 0.010841071 0.08383592
0.048022155 -0.2394269 -0.7144496 -0.64517057 0.119222 -0.35909945 -0.23061308 -0.0019615013
-0.37779215 0.22623177 0.14751723 -0.011741468 0.21469216 -0.095811866 0.17422521 -0.15268722
-0.18551897 -0.17510058 -0.6383215 0.007639838 0.012660666 0.1356742 -0.007638774 -0.1273522
-0.0019361876 0.29967803 0.22852652 0.28092438 0.21452528 -0.08327224 0.09584853 0.20426448
0.25347176 -0.14113615 -0.06953631 0.24262571 -0.3177964 -0.18065202 0.233904 0.095292985
0.060664397 0.1514128 0.24359326 -0.051161952 -0.3788042 0.2171957 0.16605805 -0.4255995
-0.6004312 0.16381097 -0.25025064 -0.9466549 -0.08519059 -0.053224612 -0.21289703 -0.58196974
-0.08078203 -0.0059034703 -0.035998657 -0.09082047 0.02752309 0.051678292 0.005259449 -0.088841915
-0.09282501 -0.100594476 -0.027515884 -0.06643069 -0.052180156 0.018928718 0.03878389 -0.041382186
-0.049513567 -0.07834161 0.033822972 0.07927131 -0.07515536 -0.006696456 -0.040060733 -0.101734884
-0.031382464 -0.040452622 -0.101606086 0.07042654 0.038131405 0.014027298 -0.05242115 -0.10036055
-0.024975888 -0.096826434 0.07432239 0.05080755 0.010557992 -0.08314142 0.024463562 -0.013295921
-0.007115653 -0.0077155423 0.025125654 -0.0035595594 0.08583917 -0.017348299 0.070105664 0.02991361
-0.050800443 -0.05182421 -0.09811824 -0.07903999 0.0026435126 -0.09436516 -0.05009049 -0.09483588
-0.087215185 -0.044744577 -0.075993106 -0.062437218 -0.010808589 -0.03512652 -0.0319245 -0.083136216
00000000: 36e8 cf3a cd0b 89be ae7a 8cbe 0ab8 30bf
00000010: 9c1a 573d 8c8b 96bf e2a7 98bc 18ef 253e
00000020: 12f1 babe a533 863e 6e2e 14bf 3c9b 0ebf
00000030: 70e3 22bf 3748 c7be 9e92 aabf 14ff 383e
00000040: 31b8 b93e 0103 a83e f9a1 84be 4c07 633e
00000050: a75a 76bd c1a6 333e 6c4c 2dbe 195a 893e
00000060: 7b90 e7be f0d3 36b9 c8f7 46be 0b20 753e
00000070: 6285 dd3d 8490 4bbe c56b 18bf 3af7 78bf
00000080: 2561 3abf 98cc 13bf c2d9 1bbf dde1 48bd
00000090: 7ac6 2bbf 54f1 7f3e 6b9b 14bd cf62 9fbe
000000a0: 01b8 a5be b7ba 9e3d f0c3 283e 1725 28bf
000000b0: fbdb 37bf d327 3b3e eb00 853e 95e5 f7be
000000c0: 7bbe 163c f1db 02be 008d a5be b5ba ac3e
000000d0: 860d 1dbf d5f5 dabe 1698 523e 4d55 af3e
000000e0: 8874 12bf 6ef5 2fbe 2367 8ebe d50c 71bf
000000f0: 515e bebe 17c4 963e 2b58 463e 59de 2abf
00000100: 77cb cc3c b6c1 9cbd 732c 463e 11e1 99be
00000110: 26b1 223d c15b fdbe fb82 103e b17f 363e
00000120: 11ca 1f3e 79b2 8d3e f127 74bf a8aa 48bf
00000130: fd22 4b3e ebfb 95be f639 e8be f780 103e
00000140: bbf3 883e 1ae5 2e3e 8f81 fdbe 0a8b bd3e
00000150: 819c e7be 742c 0e3e 3e1d 04bf de54 a63e
00000160: 5ed7 f4be 4290 26bd c8dc f53b 51dd 6b3e
00000170: a5fd 4e3d fa9d 1cbf 3024 943d ef35 4fbe
00000180: 33ff fd3d 0f9a 2a3e 01ae 9a3e 499a 1a3d
00000190: e36e 973e f1d6 9f3e 9fa6 f83d c448 523e
000001a0: f187 9d3e ec7e 123e 2e9e 833e 7adb 773e
000001b0: 30e6 81be db16 9b3e 7223 483e e05f d93d
000001c0: e6e1 4c3e 47ec 1dbf 0c43 32bf 74bc 533e
000001d0: c2f0 2abe 7032 963e 29ad e53d 0a7c a23e
000001e0: 709a 61be 1113 14bf 74e1 0a3e a1de dcbf
000001f0: 714a 44be b831 763e ce88 813e 0ba3 5dbf
00000200: 897f 533e b9d4 013e 2202 5c3e cfac fdbe
00000210: a5ce 613d 7a18 abbf bf9e 313c 2bb2 ab3d
00000220: e1b2 443d 532c 75be 2be6 36bf e629 25bf
00000230: aa2a f43d e2db b7be d625 6cbe 888c 00bb
00000240: f96d c1be 4da9 673e c20e 173e 495f 40bc
00000250: 43d8 5b3e 0339 c4bd 1868 323e 0a5a 1cbe
00000260: aff8 3dbe 914d 33be 0a69 23bf 9b57 fa3b
00000270: af6e 4f3c 2dee 0a3e ae4e fabb 9d68 02be
00000280: adc7 fdba 666f 993e db02 6a3e 52d5 8f3e
00000290: 84ac 5b3e a38a aabd 3c4c c43d b52a 513e
000002a0: 0dc7 813e ff85 10be 0e69 8ebd e072 783e
000002b0: 36b6 a2be d8fc 38be 8884 6f3e f828 c33d
000002c0: 3b7b 783d f50b 1b3e 8370 793e 328f 51bd
000002d0: a0f2 c1be 8d68 5e3e 1f0b 2a3e 2de8 d9be
000002e0: dcb5 19bf 10be 273e da20 80be fa57 72bf
000002f0: 6778 aebd 0d02 5abd ae01 5abe f8fb 14bf
00000300: 0d71 a5bd e671 c1bb 5473 13bd 1500 babd
00000310: 1a78 e13c 9eac 533d 7557 ac3b c0f2 b5bd
00000320: 0a1b bebd 7a04 cebd fe68 e1bc d00c 88bd
00000330: dcba 55bd 6610 9b3c dbdb 1e3d 5e80 29bd
00000340: bdce 4abd 9171 a0bd f589 0a3d ff58 a23d
00000350: 0eeb 99bd f26d dbbb b916 24bd 615a d0bd
00000360: e68a 00bd a6b1 25bd da16 d0bd ca3b 903d
00000370: ad2f 1c3d c1d2 653c 8fb7 56bd d589 cdbd
00000380: 3c9a ccbc f04c c6bd 5636 983d 941b 503d
00000390: 6efb 2c3c 0c46 aabd cf67 c83c 22d7 59bc
000003a0: 6c2a e9bb a9d2 fcbb 51d4 cd3c 7f47 69bb
000003b0: 72cc af3d 051e 8ebc 8f93 8f3d 630d f53c
000003c0: 2014 50bd 9f45 54bd 37f2 c8bd b8df a1bd
000003d0: c83e 2d3b 8542 c1bd b02b 4dbd 5039 c2bd
000003e0: e09d b2bd 1746 37bd 46a2 9bbd 2bbe 7fbd
000003f0: 8216 31bc d3e0 0fbd 44c3 02bd 5243 aabd

arith.constant5 f4 [64, 1, 3, 1]
0.3383643 0.39974633 -0.13465294 0.097608015 1.0217682 -0.91588014 -1.0852461 1.186834
1.5757786 -0.6690176 -0.54304206 -0.5539786 0.16381525 0.4798946 0.12426381 -1.0555737
-0.8690633 -0.4617415 0.38474372 0.05511543 0.92216516 0.7033578 -0.06949396 0.58475673
-0.460841 0.9316568 -0.018920863 0.033204712 0.25104243 1.1228476 -0.6779798 -0.1489085
-1.2796526 -0.6944775 -0.15261409 -1.3538394 -0.24103832 1.4504989 -0.8139383 -0.6436768
-0.6290794 -0.40285134 -1.2627989 -0.5001094 -0.5232416 0.55181825 0.1010299 0.6537663
0.02463162 0.16788226 1.1528486 0.72497034 0.4229088 0.52000934 2.3398738 -0.5796977
0.12241659 0.2785238 0.6482739 1.2054832 1.7597667 -0.97442776 0.91659385 0.0893551
1.0963345 1.232974 2.2123876 -0.7851576 0.24349523 0.233899 0.28133538 1.3209671
-0.22805507 -1.7609621 -1.0516354 1.3580263 -1.0873938 2.0210922 -1.4158423 0.2029382
1.5067744 -0.013653278 0.29134163 1.1134595 0.52748775 -0.045790456 0.71495163 1.6950064
-0.71425766 1.4754124 -0.16557315 1.1539849 -1.0397953 -1.1525512 -0.4610034 -0.21690954
-0.42399043 0.9088561 -0.44708624 -0.21220554 1.4431454 -0.7362166 -0.095476516 1.2394646
-0.5600244 0.579162 1.1413172 -0.23094077 -0.14855498 1.731242 -0.33844337 0.48559493
0.3805624 1.301877 0.20358403 0.51238286 -0.027993547 -1.3349856 2.2644281 1.3831869
0.30108225 1.4393646 -0.6284912 0.044854186 1.0227541 1.3051401 0.1697804 0.459869
1.1374247 -0.09275565 1.2780161 -0.6060021 -1.1023096 -0.5448046 -0.17906679 0.19889848
0.60562927 1.2487384 0.57659066 0.56789476 0.50501525 -0.35123584 0.87804264 -0.08514259
0.01805916 0.23516674 1.0404003 2.0602722 -0.95219433 0.4562369 2.2045095 -0.5565956
0.27870008 0.008032844 0.28978842 1.1299833 -0.85444164 -0.4475412 -0.4193578 -0.3409269
2.116035 0.034136016 0.7256433 0.6910253 0.11849472 0.030462632 0.0918495 1.0795891
-0.9339558 -0.6152799 -0.24868926 2.2219882 -0.711966 0.17190349 0.25676432 -1.9857895
-0.88106966 -0.51753205 -0.80134934 -1.3951294 0.69227165 -1.6755301 -0.8128026 0.05153541
0.30345184 1.2119735 0.35517746 0.29091915 1.3916875 -0.6668788 -0.14611727 -1.3072522
00000000: 163e ad3e 8dab cc3e 76e2 09be b6e6 c73d
00000010: 4dc9 823f 1f77 6abf 58e9 8abf 2dea 973f
00000020: 1db3 c93f bd44 2bbf ce04 0bbf 8bd1 0dbf
00000030: 2fbf 273e bfb4 f53e 067e fe3d 0a1d 87bf
00000040: ef7a 5ebf 6269 ecbe 21fd c43e b8c0 613d
00000050: 0413 6c3f 420f 343f d952 8ebd 9eb2 153f
00000060: 5af3 ebbe 0f81 6e3f edff 9abc aa01 083d
00000070: a288 803e 78b9 8f3f 1690 2dbf 787b 18be
00000080: a8cb a3bf 47c9 31bf de46 1cbe 9c4a adbf
00000090: c0d2 76be f3a9 b93f 435e 50bf 01c8 24bf
000000a0: 590b 21bf 8842 cebe 65a3 a1bf 2b07 00bf
000000b0: 29f3 05bf f643 0d3f c4e8 ce3d 3a5d 273f
000000c0: 40c8 c93c 54e9 2b3e 8b90 933f a897 393f
000000d0: 8187 d83e 551f 053f 7ec0 1540 1267 14bf
000000e0: 8db5 fa3d ac9a 8e3e 47f5 253f 464d 9a3f
000000f0: 0940 e13f 1974 79bf e5a5 6a3f cfff b63d
00000100: b054 8c3f 18d2 9d3f c297 0d40 1700 49bf
00000110: d056 793e 3883 6f3e 310b 903e 7315 a93f
00000120: 4587 69be 3567 e1bf fd9b 86bf ced3 ad3f
00000130: b82f 8bbf 9359 0140 523a b5bf 08cf 4f3e
00000140: fcdd c03f 00b2 5fbc bb2a 953e d785 8e3f
00000150: 7009 073f c68e 3bbd 1207 373f f8f5 d83f
00000160: 97d9 36bf 50da bc3f 028c 29be c7b5 933f
00000170: 0318 85bf cc86 93bf a308 ecbe 891d 5ebe
00000180: 4615 d9be cbaa 683f 7de8 e4be 694c 59be
00000190: fdb8 b83f b178 3cbf 3189 c3bd c7a6 9e3f
000001a0: c25d 0fbf f643 143f af16 923f bd7b 6cbe
000001b0: cc1e 18be 5699 dd3f 7348 adbe e69f f83e
000001c0: 13d9 c23e e8a3 a63f 5578 503e 862b 033f
000001d0: b952 e5bc cfe0 aabf 64ec 1040 450c b13f
000001e0: 7427 9a3e 193d b83f cde4 20bf 06b9 373d
000001f0: 9be9 823f d50e a73f eada 2d3e f373 eb3e
00000200: 2297 913f adf6 bdbd 0896 a33f f422 1bbf
00000210: 7b18 8dbf 5078 0bbf 495d 37be 0bac 4b3e
00000220: 850a 1b3f a9d6 9f3f 729b 133f 8d61 113f
00000230: ae48 013f 2fd5 b3be 67c7 603f 3d5f aebd
00000240: cef0 933c 8dcf 703e d62b 853f 80db 0340
00000250: 02c3 73bf e297 e93e af16 0d40 0d7d 0ebf
00000260: c7b1 8e3e 319c 033c 265f 943e 4ba3 903f
00000270: b0bc 5abf 1f24 e5be 11b6 d6be f88d aebe
00000280: 1e6d 0740 35d2 0b3d c2c3 393f 09e7 303f
00000290: 5cad f23d c58c f93c 971b bc3d fa2f 8a3f
000002a0: ba17 6fbf fc82 1dbf 66a8 7ebe 0e35 0e40
000002b0: 6743 36bf 7807 303e 9d76 833e 5a2e febf
000002c0: c88d 61bf fb7c 04bf 3b25 4dbf 9a93 b2bf
000002d0: b738 313f c577 d6bf d513 50bf cb16 533d
000002e0: 0a5e 9b3e f321 9b3f d2d9 b53e 5bf3 943e
000002f0: d122 b23f 92b8 2abf c49f 15be 0a54 a7bf

arith.constant6 f4 [13, 128]
0.43463755 0.16497618 -0.10642806 -3.5366685 0.02089436 0.10890186 0.0480508 0.0902433
-0.03033087 0.36177918 -2.311321 -0.024167072 0.15727036 0.10813296 -3.1497474 0.23349032
-0.9537663 -0.41025236 -2.0090373 0.04684734 0.35212985 0.067806475 -0.84327465 0.030144589
0.18939239 0.4103629 -3.935331 -3.7306435 0.97408974 0.078836754 -0.8955303 0.06693082
-0.13135913 0.1840597 -0.14357209 0.61569387 0.10435287 -1.2090203 -0.23428881 -0.096012466
0.10562799 0.055483297 0.03418995 -0.089667276 -0.53322566 0.33009905 0.0677581 -2.2605817
-2.2159898 -3.393506 0.24590696 -0.02189079 -0.08824002 0.70676804 0.0037895318 0.025506157
-0.20019339 0.57555103 0.0770874 0.09466686 -0.08112575 -0.15281779 0.117345475 0.2969966
0.1284749 0.6335518 -0.17936249 0.16251619 -0.105273314 0.6701954 0.1422378 0.36174664
0.48818058 0.35944718 0.04615084 -0.21456055 -0.15210415 0.12722738 -0.053468645 0.40902528
0.6234764 -0.082400024 -0.18638158 -0.16674836 -0.014802004 -2.0673356 0.51271766 0.043728966
-0.048147496 0.6019285 0.43721753 -2.2821445 -1.0508144 -0.15735647 1.26141 -2.063785
-1.0906197 -0.15956883 -0.07231306 -0.09311787 0.45667276 0.090166055 -0.08830061 0.15201433
0.84519404 0.36733878 0.0913999 -0.015665129 -0.025065163 0.37151083 0.21423471 -0.12626223
-0.062880725 0.16683586 0.3627925 0.32476267 -2.9240165 0.013095536 -1.4162362 -2.302952
-1.1843913 0.28833917 0.5243004 -0.0961299 -0.3571527 0.16044246 -0.035991088 -0.019408511
-1.3880874 0.06791977 0.009701994 0.11848081 -0.14386757 0.008289183 0.060013313 0.12815525
-0.0939605 -2.8860965 0.49711376 0.17576101 0.06636801 -0.05515442 1.0237207 -2.2492723
0.9027975 -2.9250572 0.08454761 -0.055784702 -2.337859 0.19951697 1.3248526 -0.030524762
0.11982542 -2.869578 0.20618261 -0.8820737 1.0251482 0.110252395 0.23800382 -0.03613465
1.0583538 0.033029884 0.27901614 -2.7787354 0.16088232 0.5037558 -0.80609447 -0.15483242
0.03454181 -0.0029354885 -0.03501151 -0.072209716 -0.66983086 -2.651822 -0.017394535 -1.253134
0.5401231 0.4050712 0.7301883 -0.11321034 -0.022641763 0.3140609 0.09163497 0.17974307
0.09712332 -1.1194099 -0.042378988 0.068427995 -1.0840485 -0.2232578 0.097082146 -1.2811987
0.10829625 -0.9021992 -0.20810515 -0.9892479 -0.07284725 -1.0973996 -0.08847696 -2.074994
-1.5114502 -1.5297318 0.03965453 -0.0019190429 -0.06070942 -1.2568564 -0.028915463 -2.072209
0.12603597 0.1955631 -0.25758925 0.17927445 0.120400935 0.46176174 0.91615003 -0.006026166
-0.99137944 -0.5972296 -0.16204424 0.28783667 0.15279919 1.057053 1.1700194 0.28756186
0.14796102 -0.043246873 -0.17457177 -0.17753886 -0.3820752 0.14293006 0.0678783 0.15055355
-0.4254562 -0.08453638 -0.10732447 0.005214034 -0.15772153 0.33081234 -2.389696 0.25344223
0.05139018 0.14741832 0.9099682 -2.6773255 0.9801907 0.07314656 0.31475464 0.41364667
0.40480283 0.12906986 0.9556985 0.09344053 -0.71401536 0.15503457 0.14045021 0.08574188
00000000: d088 de3e 84ef 283e f4f6 d9bd c758 62c0
00000010: a62a ab3c f007 df3d ead0 443d 7bd1 b83d
00000020: 7278 f8bc 1f3b b93e afec 13c0 06fa c5bc
00000030: 7b0b 213e d074 dd3d 7695 49c0 1618 6f3e
00000040: 072a 74bf 990c d2be 1194 00c0 ffe2 3f3d
00000050: 5d4a b43e 1fde 8a3d d9e0 57bf c9f1 f63c
00000060: 14f0 413e 161b d23e 77dc 7bc0 ddc2 6ec0
00000070: f25d 793f 2a75 a13d 7941 65bf 0713 893d
00000080: 0283 06be 257a 3c3e 9004 13be 1d9e 1d3f
00000090: f5b6 d53d 2dc1 9abf 68e9 6fbe 2fa2 c4bd
000000a0: 7d53 d83d 7442 633d c30a 0c3d 7aa3 b7bd
000000b0: 7a81 08bf be02 a93e c2c4 8a3d 5fad 10c0
000000c0: c7d2 0dc0 342f 59c0 09cf 7b3e 5054 b3bc
000000d0: 2fb7 b4bd c0ee 343f cb59 783b 4af2 d03c
000000e0: 7fff 4cbe 5057 133f 00e0 9d3d b3e0 c13d
000000f0: 4225 a6bd 447c 1cbe d352 f03d f00f 983e
00000100: ed8e 033e 7330 223f cdaa 37be a56a 263e
00000110: 8999 d7bd ed91 2b3f c9a6 113e db36 b93e
00000120: cef2 f93e 7609 b83e aa08 3d3d c3b5 5bbe
00000130: 31c1 1bbe e547 023e f001 5bbd c36b d13e
00000140: 269c 1f3f 58c1 a8bd d0da 3ebe 15c0 2abe
00000150: 1b84 72bc 3a4f 04c0 7741 033f 251d 333d
00000160: 4f36 45bd fc17 1a3f fada df3e a80e 12c0
00000170: 1681 86bf 0e22 21be e275 a13f 0e15 04c0
00000180: 6d99 8bbf 0366 23be df18 94bd 95b4 bebd
00000190: 03d1 e93e fba8 b83d f3d6 b4bd a5a9 1b3e
000001a0: a35e 583f d413 bc3e df2f bb3d 2854 80bc
000001b0: 7555 cdbc ab36 be3e 5860 5b3e e34a 01be
000001c0: 9cc7 80bd 05d7 2a3e f0bf b93e 4b47 a63e
000001d0: 1623 3bc0 a98e 563c 3a47 b5bf 9163 13c0
000001e0: 229a 97bf 31a1 933e 8d38 063f c1df c4bd
000001f0: b8dc b6be 074b 243e 646b 13bd 99fe 9ebc
00000200: d9ac b1bf 8519 8b3d 1df5 1e3c 11a6 f23d
00000210: 0552 13be 5acf 073c 85d0 753d 213b 033e
00000220: 5d6e c0bd ceb5 38c0 b285 fe3e b2fa 333e
00000230: f4eb 873d 9ae9 61bd 4809 833f 14f4 0fc0
00000240: bd1d 673f 2334 3bc0 4c27 ad3d 807e 64bd
00000250: 7b9f 15c0 2d4e 4c3e c594 a93f 110f fabc
00000260: 0867 f53d 2aa7 37c0 8921 533e 95cf 61bf
00000270: 0e38 833f 02cc e13d 46b7 733e ed01 14bd
00000280: 2378 873f 584a 073d 34db 8e3e cdd6 31c0
00000290: 56be 243e 24f6 003f 355c 4ebf 648c 1ebe
000002a0: b77b 0d3d 5361 40bb 3b68 0fbd b0e2 93bd
000002b0: 097a 2bbf 74b7 29c0 fc7e 8ebc b266 a0bf
000002c0: 8245 0a3f 7e65 cf3e 9fed 3a3f d3da e7bd
000002d0: 387b b9bc 97cc a03e 1dab bb3d 910e 383e
000002e0: 97e8 c63d d348 8fbf 9795 2dbd fa23 8c3d
000002f0: 1ac2 8abf b19d 64be 01d3 c63d 52fe a3bf
00000300: 6dca dd3d 87f6 66bf 8419 55be 5a3f 7dbf
00000310: f030 95bd 9777 8cbf 6933 b5bd b4cc 04c0
00000320: 3377 c1bf 40ce c3bf ca6c 223d 6588 fbba
00000330: 71aa 78bd ace0 a0bf 1fe0 ecbc 129f 04c0
00000340: 930f 013e b141 483e bde2 83be b993 373e
00000350: c494 f63d 096c ec3e cf88 6a3f 2577 c5bb
00000360: 0bcb 7dbf 0ae4 18bf edee 25be 545f 933e
00000370: 6477 1c3e 834d 873f 32c3 953f 4f3b 933e
00000380: 1883 173e a223 31bd f1c2 32be bfcc 35be
00000390: 5c9f c3be 425c 123e c703 8b3d b62a 1a3e
000003a0: 65d5 d9be 6921 adbd efcc dbbd 7dda aa3b
000003b0: c181 21be 3c60 a93e c7f0 18c0 2ec3 813e
000003c0: 827e 523d d4f4 163e adf3 683f 4d59 2bc0
000003d0: c7ed 7a3f ddcd 953d 8527 a13e 7fc9 d33e
000003e0: 5142 cf3e e42a 043e a8a8 743f c05d bf3d
000003f0: b6c9 36bf 62c1 1e3e 2ed2 0f3e 7099 af3d

arith.constant7 f4 [128, 128]
-0.13098685 0.10519689 -0.04914395 -0.14107823 -0.1124027 0.039938405 -0.11621604 0.100790344
0.2999316 -0.44075602 0.44342384 0.13830529 -0.08795912 0.23632072 0.18984054 0.056384075
0.27049226 -0.14194709 0.3207376 -0.1972291 -0.04473968 0.1556998 0.84295434 -0.103776924
0.031001091 0.7649006 -0.19522303 -0.12681587 -0.091428995 -0.41828114 -0.34824768 -0.058486592
-0.018211436 -0.12072307 0.41293654 -0.015910843 -0.040326823 0.01624521 0.86701685 -0.0037498092
-0.17368224 0.007407454 -0.053078532 -0.29566053 -0.09697402 0.020040706 0.24793178 -0.1522483
0.3835063 0.17799903 -0.26737267 0.5408521 0.058885805 0.6729778 -0.09146724 1.1683238
-0.4551008 -0.62551326 -0.30025405 -0.10894385 0.07195144 0.09279713 -0.24918228 -0.13550018
-0.62770987 -0.17076483 -0.12137511 -0.6295731 -0.3859896 -0.08277366 -0.1280084 -0.0071999957
0.44223386 -0.027692055 -0.29894772 0.15316921 0.011138278 0.92205894 0.3192591 -0.46318778
1.1512933 -0.15274708 -0.034960233 0.77102 0.3377152 -0.052311275 0.24553393 0.11268995
-0.16225623 0.9037904 0.33731556 -0.49505404 0.0068903523 -0.14507277 -0.6833491 0.020031525
-0.3951484 -0.16604137 0.27029398 0.2843131 -0.09320915 0.06981153 -0.081969336 -0.10803101
-0.045698192 0.12724364 -0.1213704 0.37455004 0.10329202 -0.044807296 -0.43487453 -0.21790758
-0.105457745 -0.37453428 0.0027694101 -0.007415693 -0.105952546 0.42317805 0.3368193 -1.8086932
0.14889412 -0.5900181 -0.33575872 1.359608 0.26920065 -0.098551765 -0.20003971 -0.037118677
0.028745415 -0.05129844 0.01753581 0.02226171 -0.060949747 -0.14932828 -0.07978816 -0.10931962
0.05315212 0.13575406 -0.12773675 -0.0824046 -0.110967435 0.04060074 -0.008368822 -0.0193335
0.03509117 0.09782617 0.047694005 -0.0050819363 0.055380855 -0.15783261 0.070275865 -0.042605203
0.020985188 -0.1803909 0.024965262 -0.08144822 -0.003075469 -0.19131194 0.021061087 0.0851429
0.033154007 -0.12257349 -0.17727607 0.047053702 0.025874317 0.09298975 0.10866076 0.053025607
-0.057437275 0.0063858326 0.04006465 0.09135789 0.10490053 -0.14660692 0.007001854 0.07635734
-0.16383065 -0.096962 0.07195134 -0.13543284 0.010952379 0.12856059 -0.15130074 -0.08926541
0.14135903 0.054445855 -0.07182362 -0.052109756 -0.011742912 -0.10363452 0.12842616 -0.10103212
-0.14858072 -0.19623488 -0.04405643 -0.10551255 0.05036357 -0.052791215 0.101686895 0.056240894
-0.013084349 0.008023746 0.12632239 -0.12395792 -0.10869965 0.11070815 -0.014515864 -0.0661479
0.12389665 0.045155697 0.13635956 -0.053338 -0.17926861 0.055821456 -0.106955245 0.108204305
0.07380996 0.043329503 -0.061364736 -0.10179319 -0.1400448 0.0239661 -0.070233226 -0.09346836
0.041305076 0.04051278 -0.1295296 -0.050935633 0.021942219 0.079458304 -0.108364016 -0.19384626
0.107385345 -0.058980692 0.12173629 -0.061579086 -0.14504121 -0.09101598 -0.15314917 -0.036148123
-0.028651442 -0.187723 -0.1863917 -0.1474479 -0.047813643 -0.01903922 -0.15089077 -0.0062255985
0.04153399 -0.0857421 0.087917425 0.1253371 -0.16200316 -0.13650844 -0.06677682 -0.03155399
00000000: 6b21 06be 7871 d73d 2b4b 49bd d076 10be
00000010: 6333 e6bd 7496 233d ad02 eebd 2b6b ce3d
00000020: a290 993e c6aa e1be 7308 e33e e79f 0d3e
00000030: e923 b4bd 0ffe 713e 8f65 423e fdf2 663d
00000040: f67d 8a3e 945a 11be b837 a43e 6df6 49be
00000050: f440 37bd c56f 1f3e dbcb 573f ff88 d4bd
00000060: 00f6 fd3c 87d0 433f 8ce8 47be 05dc 01be
00000070: 203f bbbd f228 d6be 854d b2be a38f 6fbd
00000080: 2630 95bc a83d f7bd 6b6c d33e 7557 82bc
00000090: bd2d 25bd ad14 853c d1f4 5d3f 5cbf 75bb
000000a0: c2d9 31be 3aba f23b e068 59bd d160 97be
000000b0: 519a c6bd 682c a43c d4e1 7d3e fae6 1bbe
000000c0: f05a c43e 6145 363e 12e5 88be 4975 0a3f
000000d0: 3e32 713d 4648 2c3f 2d53 bbbd a28b 953f
000000e0: f902 e9be a321 20bf e6ba 99be f41d dfbd
000000f0: 475b 933d 6c0c be3d a429 7fbe 8fc0 0abe
00000100: 98b1 20bf fadc 2ebe 8393 f8bd b42b 21bf
00000110: 6ea0 c5be 3d85 a9bd a214 03be f1ed ebbb
00000120: 7a6c e23e 73da e2bc ad0f 99be 64d8 1c3e
00000130: 537d 363c 0e0c 6c3f ee75 a33e f326 edbe
00000140: 945d 933f bb69 1cbe 7632 0fbd 9161 453f
00000150: 02e9 ac3e 5944 56bd 3f6d 7b3e fdc9 e63d
00000160: 7f26 26be cf5e 673f a0b4 ac3e b977 fdbe
00000170: 77c8 e13b f58d 14be f7ef 2ebf 2719 a43c
00000180: e450 cabe c006 2abe f963 8a3e 7d91 913e
00000190: 70e4 bebd 59f9 8e3d 8adf a7bd 5d3f ddbd
000001a0: 072e 3bbd 284c 023e 0b91 f8bd 06c5 bf3e
000001b0: c48a d33d db87 37bd e0a7 debe 2a23 5fbe
000001c0: 3bfa d7bd f5c2 bfbe fe7e 353b 57ff f2bb
000001d0: a6fd d8bd cbaa d83e 9473 ac3e 4283 e7bf
000001e0: b377 183e 6d0b 17bf 91e8 abbe a307 ae3f
000001f0: abd4 893e 82d5 c9bd 36d7 4cbe c109 18bd
00000200: 817b eb3c 501e 52bd 42a7 8f3c 315e b63c
00000210: 71a6 79bd 83e9 18be fa67 a3bd f7e2 dfbd
00000220: 0ab6 593d 1d03 0b3e 6ccd 02be bec3 a8bd
00000230: e542 e3bd f64c 263d 621d 09bc 4a61 9ebc
00000240: c2bb 0f3d 1659 c83d ca5a 433d 5f86 a6bb
00000250: 09d7 623d df9e 21be cbec 8f3d cb82 2ebd
00000260: 21e9 ab3c 64b8 38be f383 cc3c 53ce a6bd
00000270: cf8d 49bb 47e7 43be 4d88 ac3c 675f ae3d
00000280: 7fcc 073d cf07 fbbd dc87 35be 62bb 403d
00000290: 60f6 d33c 6971 be3d 8889 de3d 6131 593d
000002a0: 5943 6bbd 3f40 d13b d51a 243d d819 bb3d
000002b0: 17d6 d63d 2020 16be cf6f e53b 3d61 9c3d
000002c0: 39c3 27be 0394 c6bd 395b 933d e8ae 0abe
000002d0: 9b71 333c 63a5 033e 95ee 1abe c9d0 b6bd
000002e0: 6cc0 103e 9e02 5f3d 4318 93bd 0a71 55bd
000002f0: 5865 40bc 563e d4bd 2682 033e eee9 cebd
00000300: 8b25 18be ccf1 48be 8474 34bd f716 d8bd
00000310: 084a 4e3d 9a3b 58bd 3841 d03d da5c 663d
00000320: bd5f 56bc 0876 033c a85a 013e a6dd fdbd
00000330: ec9d debd f4ba e23d f2d3 6dbc 8d78 87bd
00000340: 87bd fd3d 2ef5 383d d7a1 0b3e f278 5abd
00000350: 3192 37be 0aa5 643d 5a0b dbbd 389a dd3d
00000360: ad29 973d 477a 313d 9759 7bbd f378 d0bd
00000370: e767 0fbe 8e54 c43c 70d6 8fbd 576c bfbd
00000380: 832f 293d bbf0 253d 68a3 04be e2a1 50bd
00000390: 2bc0 b33c 09bb a23d f4ed ddbd a27f 46be
000003a0: d9ec db3d bd95 71bd e050 f93d 5a3a 7cbd
000003b0: af85 14be 9666 babd 23d3 1cbe 0e10 14bd
000003c0: 6eb6 eabc 753a 40be 77dd 3ebe 95fc 16be
000003d0: 3dd8 43bd 23f8 9bbc 1c83 1abe 1b00 ccbb
000003e0: 8c1f 2a3d 8e99 afbd 0d0e b43d 5e58 003e
000003f0: 28e4 25be dec8 0bbe 49c2 88bd c23e 01bd

arith.constant8 f4 [128]
0.027062902 -0.019353481 -0.015820798 0.37722626 -0.019932594 -0.024594974 -0.023481706 -0.025524834
-0.03073319 -0.16629358 -0.14525566 -0.04623033 -0.031081848 -0.0051085106 -0.004217002 -0.104490064
-0.0004295884 -0.023114508 0.090956956 -0.022600688 -0.0064306734 -0.020579038 0.17042884 -0.050419576
-0.031962525 0.10811796 -0.28442836 -0.28273565 -0.016816968 -0.047222506 -0.020353325 -0.04759332
-0.14579335 -0.0069534257 0.06700053 0.13539255 -0.022204183 -0.10550857 0.51997924 -0.017715236
-0.015654322 -0.02213407 -0.007901556 -0.008115132 0.1382962 0.16855566 -0.05335668 0.036361806
-0.19615784 -0.048632868 0.100441314 -0.012661549 -0.031632297 0.12338682 -0.0060004084 -0.02704834
-0.02840677 -0.23715071 -0.062746495 -0.03499828 0.44332552 0.11924544 -0.025463108 -0.10698175
-0.015936429 -0.15694346 -0.007284983 0.6722209 -0.02786338 0.23716411 -0.03514143 -0.056661315
-0.049330674 0.10309401 -0.02019693 -0.014074914 -0.012074943 -0.12701125 -0.01691843 0.59803486
-0.025298497 -0.0066918405 -0.012982808 -0.046527237 -0.028558042 -0.090427406 0.19529797 -0.022133857
0.36701053 -0.09203095 -0.006016119 -0.046648555 -0.044812784 -0.10581159 0.017400265 -0.06519775
-0.17369923 -0.024287902 -0.033639766 -0.031207608 -0.0034449568 -0.009426461 -0.010266865 -0.034359094
-0.14210111 -0.015901724 -0.061310276 -0.010202857 -0.024606388 0.079242036 -0.18742858 -0.051411018
-0.0076875845 -0.018044535 -0.024096912 -0.01480931 0.109179035 -0.010600475 -0.04021007 -0.1556861
-0.16095267 0.042757668 0.19907862 -0.05203357 0.175838 -0.04463137 -0.0387504 -0.04243689
00000000: 05b3 dd3c 318b 9ebc 9e9a 81bc cd23 c13e
00000010: ae49 a3bc 667b c9bc b55c c0bc 7519 d1bc
00000020: 2cc4 fbbc dd48 2abe e6bd 14be 045c 3dbd
00000030: 5c9f febc 4b65 a7bb c72e 8abb e3fe d5bd
00000040: 613a e1b9 a35a bdbc a447 ba3d 1425 b9bc
00000050: 66b8 d2bb 5f95 a8bc e684 2e3e c284 4ebd
00000060: 23eb 02bd f36c dd3d 98a0 91be bac2 90be
00000070: bdc3 89bc 636c 41bd 04bc a6bc 37f1 42bd
00000080: da4a 15be 90d9 e3bb 9337 893d 58a4 0a3e
00000090: 8ce5 b5bc e114 d8bd 5c1d 053f 8b1f 91bc
000000a0: 7e3d 80bc 8252 b5bc 8775 01bc 55f5 04bc
000000b0: 859d 0d3e db99 2c3e 898c 5abd 1ef0 143d
000000c0: 9add 48be 4233 47bd 2db4 cd3d 6372 4fbc
000000d0: de90 01bd 3bb2 fc3d 139f c4bb 7b94 ddbc
000000e0: 51b5 e8bc a3d7 72be 3c81 80bd 5b5a 0fbd
000000f0: 90fb e23e f436 f43d 0298 d0bc 3f19 dbbd
00000100: 1d8d 82bc c9b5 20be deb6 eebb ab16 2c3f
00000110: be41 e4bc 26db 723e 76f0 0fbd b215 68bd
00000120: f60e 4abd f422 d33d 0874 a5bc 789a 66bc
00000130: fbd5 45bc 3d0f 02be 8598 8abc d018 193f
00000140: cb3e cfbc 3a47 dbbb d8b5 54bc 5893 3ebd
00000150: 8ef2 e9bc 0132 b9bd 31fc 473e 1052 b5bc
00000160: cee8 bb3e b97a bcbd dd22 c5bb 8e12 3fbd
00000170: 9c8d 37bd bfb3 d8bd 008b 8e3c 6686 85bd
00000180: 36de 31be 6cf7 c6bc dac9 09bd 19a7 ffbc
00000190: c9c4 61bb 7171 1abc 5a36 28bc 1fbc 0cbd
000001a0: f482 11be 5544 82bc 7c20 7bbd e229 27bc
000001b0: 5693 c9bc a649 a23d 47ed 3fbe 5c94 52bd
000001c0: 22e8 fbbb 22d2 93bc e366 c5bc c0a2 72bc
000001d0: 4299 df3d 9dad 2dbc 50b3 24bd 2d6c 1fbe
000001e0: c7d0 24be aa22 2f3d 44db 4b3e 2721 55bd
000001f0: e00e 343e 62cf 36bd bdb8 1ebd 4ed2 2dbd

arith.constant9 f4 [13]
-1.8500538 0.13687676 -0.032565862 1.0365095 0.59091085 1.0678681 0.20804767 0.4494387
0.4352317 -0.71528083 0.73566383 -0.74475646 -1.4055485
00000000: 90ce ecbf 6c29 0c3e c863 05bd 58ac 843f
00000010: ef45 173f e7af 883f 730a 553e d41c e63e
00000020: b0d6 de3e a51c 37bf 7754 3c3f 5ca8 3ebf
00000030: 03e9 b3bf
