AI/static-gesture/app/models/static_gesture_conv1d_v2_model.tflite (tflite, 177664 bytes, 8 tensors)

arith.constant f4 [128]
-0.039464038 -0.008519438 0.026680266 -0.032424767 -0.0032315687 -0.009997286 -0.17108163 -0.00064496533
0.20053059 -0.007664415 -0.011237044 -0.052230142 0.15190043 0.05059632 -0.10787343 -0.0070724525
0.049373835 -0.24732675 -0.15790766 0.042566076 -0.042865872 -0.08090255 -0.010201268 -0.00537291
0.14781463 0.045066394 -0.012559078 0.0051080445 -0.15233639 0.22836162 -0.05003783 -0.024698008
-0.11038412 0.019471303 -0.062992305 -0.013131024 -0.18381004 0.08370282 -0.037297823 -0.32740042
0.024350066 0.05251918 0.012200642 -0.10359262 -0.019670682 -0.06471198 -0.10182904 0.02001724
0.006661048 -0.0058442014 0.2665005 0.17104432 0.04307137 -0.01831166 0.06823423 -0.10675935
-0.058754157 -0.00989849 0.015290172 -0.121375404 -0.06581201 0.08687262 -0.081209764 -0.005689555
0.031567805 -0.2796914 0.050899412 -0.06147093 -0.0068735494 -0.06610754 0.03153789 0.056485415
-0.07543855 -0.14960827 -0.08076093 -0.6739249 -0.03212845 0.12051107 -0.046073806 -0.022639247
0.0028429893 -0.01675512 -0.13813622 -0.13967143 -0.014541582 -0.011690905 -0.10241773 0.032646902
-0.03069832 0.095314875 -0.007985884 -0.013227355 -0.1784623 -0.016671952 -0.058759306 0.0011425742
0.20698854 0.011699899 -0.08344728 -0.020465227 0.18449235 0.05137477 0.1126472 -0.008485523
-0.03346268 -0.3558297 -0.02424303 -0.011532336 0.0 0.04897232 0.0035655526 -0.02692078
-0.034318104 -0.015438049 0.13627845 -0.07084931 0.009188382 0.051114224 0.15403962 -0.09472074
-0.035080686 -0.07229438 -0.13931936 -0.0057902173 -0.006001039 0.2091831 0.0039726603 0.25505728
00000000: 0ba5 21bd 1d95 0bbc 9390 da3c d5cf 04bd
00000010: bac8 53bb a8cb 23bc 0630 2fbe e412 29ba
00000020: e457 4d3e c625 fbbb 941b 38bc 46ef 55bd
00000030: c98b 1b3e 163e 4f3d bfec dcbd 08c0 e7bb
00000040: 383c 4a3d 3943 7dbe 8cb2 21be c459 2e3d
00000050: 2094 2fbd 3cb0 a5bd 3823 27bc 3c0f b0bb
00000060: b85c 173e 8a97 383d 97c4 4dbc 6261 a73b
00000070: 12fe 1bbe a1d7 693e 78f4 4cbd 7a53 cabc
00000080: 1211 e2bd 4882 9f3c 1c02 81bd 8223 57bc
00000090: b338 3cbe 626c ab3d 9ac5 18bd 07a1 a7be
000000a0: ca79 c73c 5a1e 573d 34e5 473c 5e28 d4bd
000000b0: 6924 a1bc b787 84bd be8b d0bd 32fb a33c
000000c0: ec44 da3b b780 bfbb c172 883e 3e26 2f3e
000000d0: 9b6b 303d 5602 96bc 63be 8b3d a5a4 dabd
000000e0: 33a8 70bd 472d 22bc a183 7a3c ab93 f8bd
000000f0: 72c8 86bd 46ea b13d 4e51 a6bd 726f babb
00000100: 3e4d 013d b633 8fbe e77b 503d f1c8 7bbd
00000110: 833b e1bb 6463 87bd e02d 013d 405d 673d
00000120: 877f 9abd e932 19be fd65 a5bd 5886 2cbf
00000130: 1f99 03bd 82ce f63d e3b7 3cbd f175 b9bc
00000140: 7251 3a3b 0942 89bc 9573 0dbe 0706 0fbe
00000150: d13f 6ebc 368b 3fbc 63c0 d1bd c2b8 053d
00000160: 0b7b fbbc 7234 c33d 3ad7 02bc 8cb7 58bc
00000170: d2be 36be 9e93 88bc 99ad 70bd 6ec2 953a
00000180: cef4 533e efb0 3f3c 68e6 aabd b1a6 a7bc
00000190: 90eb 3c3e 5a6e 523d 93b3 e63d dd06 0bbc
000001a0: 2a10 09bd 4f2f b6be 5299 c6bc 1ff2 3cbc
000001b0: 0000 0000 3397 483d 0cac 693b f888 dcbc
000001c0: 2491 0cbd dfef 7cbc 948c 0b3e 7119 91bd
000001d0: de8a 163c 265d 513d 90bc 1d3e f3fc c1bd
000001e0: c4b0 0fbd 130f 94bd bca9 0ebe ddbb bdbb
000001f0: 5da4 c4bb 1834 563e 172d 823b de96 823e

arith.constant1 f4 [64]
0.36118364 0.13037756 0.13315718 -0.15614839 -0.07979091 -0.16156319 0.11126637 -0.061756305
-0.1427723 0.10010752 -0.010191485 0.3654311 0.13337539 -0.1550091 0.14967851 0.053481527
0.33833307 -0.20019814 0.1608737 0.14842899 -0.1441071 -0.12443631 0.37536094 0.1439133
0.17945206 0.051113453 0.36512437 0.00023346819 0.2619643 0.20302077 -0.02156754 0.38933522
-0.13950239 -0.054837577 0.16793947 0.17203346 -0.136627 0.03428792 -0.17072079 -0.07591612
0.012468853 0.017832132 0.36141145 0.2588 0.10588092 -0.15673353 0.12766086 -0.21842577
0.39233172 -0.09560521 -0.1346329 0.12749834 0.010191364 0.039616477 -0.18630745 -0.06409943
-0.16386597 0.051215746 0.30511665 0.16583847 -0.020184798 0.027595827 -0.027855458 -0.087522306
00000000: 10ed b83e b281 053e 5b5a 083e 5de5 1fbe
00000010: 6b69 a3bd d270 25be 9fdf e33d 2ef4 7cbd
00000020: e732 12be 2c05 cd3d 30fa 26bc c919 bb3e
00000030: 8f93 083e b5ba 1ebe 5345 193e 720f 5b3d
00000040: fe39 ad3e be00 4dbe 13bc 243e c5fd 173e
00000050: d090 13be 77d8 febd 4f2f c03e 025e 133e
00000060: 48c2 373e 575c 513d 95f1 ba3e 24cf 7439
00000070: 2f20 863e ade4 4f3e 69ae b0bc f256 c73e
00000080: b7d9 0ebe 5e9d 60bd 53f8 2b3e 8a29 303e
00000090: f3e7 0bbe 7d71 0c3d 6ed1 2ebe e979 9bbd
000000a0: 294a 4c3c b114 923c ec0a b93e 6f81 843e
000000b0: 19d8 d83d c17e 20be 87b9 023e 01ab 5fbe
000000c0: b4df c83e aacc c3bd 35dd 09be ed8e 023e
000000d0: aef9 263c e344 223d 61c7 3ebe 9046 83bd
000000e0: 7bcc 27be 9ac7 513d 4038 9c3e 8fd1 293e
000000f0: 975a a5bc a510 e23c 2131 e4bc e53e b3bd

arith.constant4 f4 [128, 1, 3, 64]
0.052465156 0.03485324 -0.05532169 -0.07938581 0.011501612 -0.029402088 -0.02802927 0.08950497
-0.0340708 -0.10143121 -0.03753761 0.0635441 0.0018865889 0.05203504 0.023264108 -0.006024483
-0.07919139 -0.094270505 -0.117579766 0.05818871 -0.04887215 -0.069510244 0.0014034599 -0.008776577
-0.067341454 -0.047925487 0.0648584 -0.08370503 0.043735996 0.026267717 0.047397405 0.023739036
-0.086260214 -0.006292558 -0.11828239 0.05961467 0.03118018 0.06757952 0.036885697 0.017901942
0.021875758 -0.10881928 -0.040636685 0.019024504 -0.083706886 -0.12316082 0.0034868761 -0.06771364
-0.11467367 0.09152117 -0.0016058678 0.018058449 0.07529303 -0.008118165 0.08102843 -0.019184183
-0.007820159 0.0031111944 0.009651892 -0.054227382 -0.032226592 -0.077050634 0.012011904 0.014096937
-0.06135968 0.041017916 -0.094113156 -0.022623919 0.0111316675 -0.016836217 -0.028585004 0.015733607
-0.048843723 -0.07602952 -0.086593136 0.05566558 -0.04411108 0.044558294 -0.075160064 -0.029434094
-0.114128724 0.045523785 -0.044651523 -0.088991925 -0.07432603 -0.034566533 -0.030072922 -0.027807232
-0.11657425 -0.019110303 -0.016502412 -0.06917904 -0.053396627 0.0048216674 -0.12716235 -0.092555895
-0.03545824 0.052788984 -0.020632762 0.00840235 0.027541354 -0.03601133 0.010110621 -0.04225523
-0.08693463 -0.10499945 -0.11383603 0.022850474 -0.009945769 -0.0787849 -0.004783924 0.06780631
0.052346498 0.038115818 -0.06651124 -0.10716517 -0.065804295 0.037690442 0.008164598 0.054605313
0.031962797 -0.030814543 0.03624334 -0.038966227 0.07086663 0.049538914 -0.052451283 -0.03034302
-0.07728234 -0.04636764 -0.12405614 0.06639064 -0.104783565 0.015655292 -0.06629778 0.07144543
-0.037369568 -0.104763515 0.0623102 -0.015422964 -0.006786005 -0.022624737 0.06539638 0.0033577175
-0.017321588 -0.001607581 -0.083613515 -0.09615705 0.03961848 -0.016729204 -0.08195087 -0.097664826
-0.0062019285 0.03738427 -0.042081088 -0.09472744 -0.024826208 -0.12425331 0.061464533 -0.0829876
-0.0012505361 -0.0053428174 -0.07531484 0.063086934 -0.10246565 -0.025024612 -0.006989336 -0.06300515
0.019446112 0.044279147 0.04322241 -0.08288494 -0.10639167 0.0040928824 0.053121515 -0.0008314463
-0.028577676 -0.107020624 0.08806394 0.022982916 -0.06981758 0.009712123 -0.08199935 -0.1063012
-0.06388668 -0.06987383 0.0065425816 -0.025076814 0.011689763 -0.0451436 -0.0045433547 -0.073725365
-0.015628956 0.024945222 0.076072074 0.0807983 -0.063243486 0.085519515 -0.0011527089 -0.06954826
0.026923638 0.03486782 -0.055654794 -0.02384852 -0.001117154 -0.00039140342 -0.02263844 0.017304614
0.055338196 -0.02821915 -0.044836167 -0.04434031 0.045078143 0.017702844 -0.033804957 -0.079564966
-0.006775316 0.07193558 0.051458262 -0.08948646 -0.10299792 0.0678529 -0.048484802 0.028763449
-0.08363184 -0.062707506 -0.102347255 -0.04208648 -0.07862471 0.044021998 0.050477747 -0.04682277
-0.03505091 -0.078524694 0.027272375 0.082281254 0.043259684 0.028911084 0.056526735 0.035602234
0.029615814 -0.08021428 -0.0349744 -0.07179987 0.003595073 -0.007583061 -0.028390188 0.020944221
0.059890117 -0.052660376 0.08785014 0.03966121 -0.023598636 0.08062932 0.0062524676 -0.064274885
00000000: b4e5 563d 45c2 0e3d ff98 62bd 0795 a2bd
00000010: 4271 3c3c a6dc f0bc a49d e5bc 624e b73d
00000020: d38d 0bbd 2bbb cfbd 09c1 19bd 6923 823d
00000030: 6b47 f73a b222 553d 5f94 be3c 0769 c5bb
00000040: 182f a2bd e510 c1bd a9cd f0bd 4957 6e3d
00000050: 2a2e 48bd 635b 8ebd 4df4 b73a a2cb 0fbc
00000060: 51ea 89bd 844d 44bd 7bd4 843d 8b6d abbd
00000070: 8424 333d 652f d73c c823 423d 5e78 c23c
00000080: 32a9 b0bd cd31 cebb 0a3e f2bd 832e 743d
00000090: 946d ff3c 2267 8a3d 7515 173d 18a7 923c
000000a0: ca34 b33c a5dc debd a772 26bd 47d9 9b3c
000000b0: 846e abbd bd3b fcbd 1384 643b 73ad 8abd
000000c0: 07da eabd 746f bb3d fb7b d2ba 50ef 933c
000000d0: 3b33 9a3d 0d02 05bc 3cf2 a53d 2628 9dbc
000000e0: 2020 00bc 2ee5 4b3b f822 1e3c 881d 5ebd
000000f0: 0800 04bd b9cc 9dbd 94cd 443c d7f6 663c
00000100: 4a54 7bbd 6702 283d 66be c0bd cc55 b9bc
00000110: 9961 363c 1bec 89bc 192b eabc c4e3 803c
00000120: 5b10 48bd 5db5 9bbd be57 b1bd 9701 643d
00000130: d2ad 34bd c282 363d 85ed 99bd c51f f1bc
00000140: 52bc e9bd 2677 3a3d 84e4 36bd 6641 b6bd
00000150: 3f38 98bd a395 0dbd 7d5b f6bc fecb e3bc
00000160: 7bbe eebd 368d 9cbc 1130 87bc bead 8dbd
00000170: 6cb6 5abd 14ff 9d3b d936 02be f28d bdbd
00000180: a93c 11bd 4339 583d 0a06 a9bc 03aa 093c
00000190: 689e e13c 9e80 13bd 05a7 253c d213 2dbd
000001a0: c90a b2bd f409 d7bd dd22 e9bd eb30 bb3c
000001b0: 94f3 22bc fa59 a1bd 77c2 9cbb 09de 8a3d
000001c0: 4869 563d 551f 1c3d 0c37 88bd 6a79 dbbd
000001d0: 67c4 86bd 4b61 1a3d cec4 053c d2a9 5f3d
000001e0: 6ceb 023d c86e fcbc e573 143d 0d9b 1fbd
000001f0: 8622 913d 51e9 4a3d 28d7 56bd ed91 f8bc
00000200: 3446 9ebd ffeb 3dbd 2511 febd d1f7 873d
00000210: c498 d6bd 873f 803c 21c7 87bd fb51 923d
00000220: d510 19bd 418e d6bd fb38 7f3d 99b0 7cbc
00000230: 235d debb 8357 b9bc 8aee 853d 270d 5c3b
00000240: 01e6 8dbc 78b5 d2ba 903d abbd fded c4bd
00000250: fd46 223d af0b 89bc dcd5 a7bd 7f04 c8bd
00000260: 8c39 cbbb 4020 193d 385d 2cbd 7600 c2bd
00000270: 5560 cbbc 8578 febd 3cc2 7b3d 67f5 a9bd
00000280: 07e9 a3ba cd12 afbb ab3e 9abd b933 813d
00000290: 83d9 d1bd 6a00 cdbc cd06 e5bb d808 81bd
000002a0: 744d 9f3c 0d5e 353d fb09 313d 94bf a9bd
000002b0: e0e3 d9bd 961d 863b f295 593d 6bf5 59ba
000002c0: bb1b eabc a12d dbbd de5a b43d ab46 bc3c
000002d0: 85fc 8ebd 991f 1f3c 46ef a7bd 72b4 d9bd
000002e0: 05d7 82bd 031a 8fbd 2763 d63b e46d cdbc
000002f0: 6b86 3f3c 7fe8 38bd 6ce0 94bb 53fd 96bd
00000300: 4c08 80bc ec59 cc3c adcb 9b3d 9479 a53d
00000310: cd85 81bd db24 af3d 7e16 97ba 516f 8ebd
00000320: f68e dc3c 8fd1 0e3d 48f6 63bd f95d c3bc
00000330: 786d 92ba 4735 cdb9 4074 b9bc 68c2 8d3c
00000340: 4eaa 623d d92b e7bc 21a6 37bd 2f9e 35bd
00000350: dca3 383d 8e05 913c 1177 0abd f5f2 a2bd
00000360: 7803 debb f652 933d e6c5 523d ad44 b7bd
00000370: 93f0 d2bd 76f6 8a3d 0098 46bd 53a1 eb3c
00000380: 2c47 abbd cb6c 80bd 709b d1bd df62 2cbd
00000390: fe05 a1bd 6950 343d c1c1 4e3d 3cc9 3fbd
000003a0: 8b91 0fbd 8ed1 a0bd 516a df3c 1383 a83d
000003b0: 1131 313d f0d6 ec3c 9488 673d a6d3 113d
000003c0: dd9c f23c 6247 a4bd 5141 0fbd cf0b 93bd
000003d0: 519b 6b3b 537b f8bb 8a92 e8bc 3793 ab3c
000003e0: 574f 753d 68b2 57bd c6ea b33d cb73 223d
000003f0: ed51 c1bc fc20 a53d 80e1 cc3b 8da2 83bd

arith.constant5 f4 [64, 1, 3, 1]
0.6055776 0.006251707 1.0546176 0.34088865 -0.12100003 1.5017968 1.0976278 1.0726197
-0.34168804 -0.53222895 -1.3565418 -0.90062666 -0.8565868 -0.48311582 -0.61766315 -1.4361081
0.009902752 -2.1246245 0.33246988 -0.19259928 1.5149462 -1.3826656 -0.33305305 1.158499
-1.7697804 -0.96213406 -0.1679161 1.048641 -0.023339413 -0.67546517 -1.4789599 0.7182629
1.3585491 0.44702795 -0.04735732 1.1337962 0.34410778 -0.088160664 1.456955 -0.4923626
0.38991016 1.8195745 2.0177627 -0.30145487 0.96186185 -0.37649006 0.95443004 -0.2934362
0.33587325 -0.03565963 1.3095902 -1.1331297 -2.2128558 -0.6906846 0.46097606 0.12750523
-0.27870086 0.17172158 0.43670413 0.022905374 -1.1541094 0.26080155 -2.1615875 -1.2869837
-0.39951625 -0.7261703 0.7735263 -0.07389236 1.0908886 0.37635365 -0.04810301 1.3835009
0.42896163 0.65810937 -0.3972765 0.07175066 1.1050009 1.4497157 0.5092683 0.052516963
1.1175585 2.365441 -0.6537277 0.0047538853 0.005375259 0.6616059 1.3207713 0.5538541
0.7392206 -0.28564805 -1.5213728 0.7010577 1.3692421 0.52702844 0.023576817 0.7987373
-0.9424296 1.9594152 -0.63054115 -0.6070029 -0.02297614 -0.6691654 1.9622844 -0.29019308
1.0401238 1.8761458 -0.2186935 1.0132449 -0.091832235 -2.0750253 -1.0873296 -0.0024222066
-0.5622362 -0.72913414 -1.933486 -0.6950435 0.15442857 -1.6765969 -0.24041091 -0.2741001
0.22219768 -0.57818085 1.6848303 -1.3732367 0.8185016 1.480975 0.7887934 -0.20008443
1.0054678 -0.18067205 0.7806807 1.4154577 1.8556547 -0.31819102 0.7741981 -0.7548748
-1.9232556 -1.1022314 0.86421853 1.3048248 -0.37750092 -0.4877522 -2.0317545 -0.96811575
0.6567732 0.04197244 1.1555879 -0.23933366 -0.30503035 -1.1658548 -0.49830797 0.835371
1.6720878 0.563932 1.4403532 -0.44774875 -0.25014699 1.3530961 1.2590523 -0.52359724
0.96050745 -0.45719048 -0.98964816 -1.9424579 -0.6505267 -0.20971149 1.6154186 1.3907598
0.4707004 -2.1680436 -1.1687864 -0.4432327 0.97701925 -0.49306563 0.7373626 0.396768
-0.15813848 1.2340653 0.08016667 0.99036705 -0.7088615 -0.66876245 -0.3586719 0.027470114
1.342429 1.5016167 2.9216464 -0.9914475 -0.8536473 -0.77841395 -0.42310432 -0.9233578
00000000: 2207 1b3f 1fdb cc3b b6fd 863f f588 ae3e
00000010: ddce f7bd e13a c03f 117f 8c3f 9a4b 893f
00000020: bcf1 aebe 2840 08bf 29a3 adbf 788f 66bf
00000030: 4649 5bbf f55a f7be 2c1f 1ebf 64d2 b7bf
00000040: 273f 223c d9f9 07c0 7e39 aa3e bf38 45be
00000050: c2e9 c13f 30fb b0bf ee85 aabe b249 943f
00000060: 2a88 e2bf 6b4e 76bf 33f2 2bbe de39 863f
00000070: 4c32 bfbc 49eb 2cbf 8f4e bdbf 14e0 373f
00000080: f0e4 ad3f d9e0 e43e c0f9 41bd 3c20 913f
00000090: e52e b03e 948d b4bd 807d ba3f f316 fcbe
000000a0: 4ea2 c73e d1e7 e83f 0623 0140 4b58 9abe
000000b0: 943c 763f 4ec3 c0be 8755 743f 453d 96be
000000c0: 94f7 ab3e d50f 12bd a7a0 a73f 650a 91bf
000000d0: 6e9f 0dc0 b5d0 30bf 0e05 ec3e bb90 023e
000000e0: e1b1 8ebe c8d7 2f3e af97 df3e 0da4 bb3c
000000f0: dbb9 93bf c887 853e 7357 0ac0 e2bb a4bf
00000100: 658d ccbe 4ce6 39bf d205 463f e154 97bd
00000110: 3da2 8b3f 6db1 c03e a907 45bd 8f16 b13f
00000120: dca0 db3e db79 283f d367 cbbe 03f2 923d
00000130: ab70 8d3f 4990 b93f 685f 023f 071c 573d
00000140: 280c 8f3f 6363 1740 b35a 27bf 7bc6 9b3b
00000150: f122 b03b 015f 293f 090f a93f 62c9 0d3f
00000160: 903d 3d3f 7640 92be 58bc c2bf 8478 333f
00000170: 5343 af3f 56eb 063f 2b24 c13c 0c7a 4c3f
00000180: 1143 71bf 1ece fa3f 256b 21bf 8b64 1bbf
00000190: 7538 bcbc 6c4e 2bbf 232c fb3f 3094 94be
000001a0: c722 853f 8c25 f03f 30f1 5fbe 02b2 813f
000001b0: 8a12 bcbd 37cd 04c0 9e2d 8bbf e2bd 1ebb
000001c0: b6ee 0fbf 89a8 3abf 787c f7bf 5fee 31bf
000001d0: 8622 1e3e ba9a d6bf 472e 76be d956 8cbe
000001e0: ca87 633e a903 14bf 85a8 d73f 38c6 afbf
000001f0: 5289 513f 9790 bd3f 5dee 493f efe2 4cbe
00000200: 2bb3 803f 1802 39be b1da 473f b82d b53f
00000210: 1886 ed3f efe9 a2be d931 463f 7a3f 41bf
00000220: 3d2d f6bf eb15 8dbf 6d3d 5d3f 8004 a73f
00000230: cd47 c1be a8ba f9be 4408 02c0 6fd6 77bf
00000240: 4a22 283f 4beb 2b3d 4eea 933f e213 75be
00000250: f02c 9cbe bb3a 95bf 3922 ffbe e0da 553f
00000260: f906 d63f d95d 103f 7e5d b83f 533f e5be
00000270: 4413 80be 4132 ad3f a028 a13f 780a 06bf
00000280: d1e3 753f df14 eabe 9559 7dbf 76a2 f8bf
00000290: eb88 26bf 9cbe 56be 09c6 ce3f 6b04 b23f
000002a0: a5ff f03e 3ac1 0ac0 cb9a 95bf 65ef e2be
000002b0: ef1d 7a3f 1973 fcbe ccc3 3c3f 2d25 cb3e
000002c0: 0eef 21be daf5 9d3f 6c2e a43d b288 7d3f
000002d0: f277 35bf 0434 2bbf d8a3 b7be 0109 e13c
000002e0: b7d4 ab3f fa34 c03f 41fc 3a40 81cf 7dbf
000002f0: a188 5abf 2346 47bf 21a1 d8be 2d61 6cbf

arith.constant6 f4 [15, 128]
-2.836652 0.01648563 0.08164472 0.23298411 -0.05226587 -2.0395596 0.15765299 -3.9202256
-0.108112685 -0.035597835 0.42307788 0.3744426 -0.21064076 -0.00071556633 -0.11747698 -0.18207173
-0.1433027 -0.09450075 0.024407774 0.33521196 0.16377935 0.2706154 0.15987231 -0.12654401
-0.6946234 0.4710064 0.014280245 0.11483872 -0.0013904732 0.32338792 -0.19017087 -3.5867805
-0.04513895 0.5118136 0.113896504 0.010950062 0.3328151 0.05232379 -0.18256478 0.023394065
-0.15865937 -0.77129793 -0.8065493 -1.7731981 0.45180595 -1.1458641 0.7485721 0.32560506
0.5056485 0.09787245 0.037267957 -1.2191123 0.0241336 0.25340238 0.12292939 0.32875276
0.4660858 -0.01850097 -0.66026103 0.12759095 0.10874711 0.014293597 0.4870076 0.44457772
-0.55087733 -4.1405888 -0.10973389 0.15699795 0.27049902 -0.16166891 0.35163233 -0.06283296
-0.8339052 0.014247457 0.014989338 -0.23843981 0.45169696 0.19981293 0.016224405 -0.19409887
-4.231047 0.017318148 -0.023648862 0.38734496 0.16013847 0.064131334 0.80385876 0.5563495
-0.40791988 0.26645768 0.1653285 0.0696339 -0.13695584 0.05343956 -0.20385125 0.010492377
-1.0256568 -0.5899708 -1.6942464 0.21124308 -3.0099869 -0.00175952 -0.036331236 -1.2438294
-0.1634612 0.14106604 1.0555801 0.17616156 -0.22059274 0.46301937 0.06644823 0.026371397
-0.17991151 -0.86112887 0.09428426 -1.3288586 -1.5104672 -0.37263915 -1.459148 0.06429713
0.118737295 0.1984788 0.5850009 -0.00397259 0.12653945 0.14333373 0.56758386 -2.2674234
-0.09982468 -0.065315865 -0.004404612 0.50558376 -0.21595393 -2.0208983 0.12551568 -3.6433907
-1.6516738 -0.11239967 0.23348768 0.2827304 0.10168112 -4.316446 -0.18758902 0.1252206
0.031163435 0.16717194 -0.080107965 -1.1490865 -1.6995354 0.26911017 -0.12341212 -0.10738707
0.44965535 -0.18291508 0.11998542 0.23318382 0.12242596 0.25261143 0.008641505 -1.2461816
-0.050618425 -0.9518016 0.092766665 0.07771385 0.54934174 -0.9631198 0.13336623 -0.18474661
0.19347037 0.3180802 0.61650115 0.085133515 -1.3926105 -0.5409077 -0.09355973 -1.9100146
0.32896942 -0.086018264 -0.010312525 0.17496096 0.16646469 -0.12861294 -0.026289746 0.13797456
-0.8135801 0.15355715 0.14151083 -0.18465689 -0.08724208 0.1274582 -1.1732879 -3.1649942
-1.8820652 -2.0874672 -0.18265752 0.025547506 -2.1152558 -0.21035874 0.2731276 -0.112029836
0.29278934 0.18454343 0.07523478 0.65881807 -0.8618299 -0.18076874 0.59266824 -0.11770368
-3.8002803 0.062408634 -0.12296575 -2.196852 0.11912657 0.1596425 -0.13905801 0.4319553
-0.8350827 -0.009123499 -0.12215113 -0.028782737 0.08336299 0.08794745 -0.03489661 0.09836643
0.07891972 0.9048986 0.5742194 0.27159873 -0.55151504 0.08956619 0.04360899 -1.4576867
0.01855812 0.0010594425 -2.3682175 -0.024029778 0.10736153 -0.28974465 0.011721001 -0.093787536
0.090600945 0.06158827 -0.12949954 0.2962174 -0.3423075 0.2136918 -0.42507726 -0.20154989
0.14883605 -0.16921122 -1.1437289 -0.15165173 0.08132966 -0.085828915 -1.029384 -0.32450715
00000000: b58b 35c0 df0c 873c 5935 a73d 6393 6e3e
00000010: bd14 56bd 2588 02c0 c96f 213e fae4 7ac0
00000020: 2f6a ddbd 09cf 11bd aa9d d83e f1b6 bf3e
00000030: 36b2 57be d894 3bba c597 f0bd 0371 3abe
00000040: f1bd 12be 9c89 c1bd d0f2 c73c e7a0 ab3e
00000050: c6b5 273e 1a8e 8a3e 91b5 233e c194 01be
00000060: d7d2 31bf c027 f13e b0f7 693c 9030 eb3d
00000070: 8a40 b6ba 1a93 a53e 27bc 42be d08d 65c0
00000080: 9fe3 38bd 3706 033f 9242 e93d e467 333c
00000090: be66 aa3e 7851 563d 43f2 3abe e9a4 bf3c
000000a0: 9a77 22be c873 45bf 047a 4ebf 28f8 e2bf
000000b0: 1c53 e73e adab 92bf 6ca2 3f3f b5b5 a63e
000000c0: 2e72 013f 5a71 c83d 49a6 183d df0b 9cbf
000000d0: d4b3 c53c f5bd 813e 67c2 fb3d 4852 a83e
000000e0: cca2 ee3e 598f 97bc de06 29bf 34a7 023e
000000f0: ceb6 de3d b12f 6a3c 0f59 f93e b19f e33e
00000100: 4c06 0dbf b47f 84c0 29bc e0bd 12c4 203e
00000110: d97e 8a3e 898c 25be 2709 b43e 91ae 80bd
00000120: d07a 55bf 2a6e 693c d795 753c 9129 74be
00000130: d344 e73e c39b 4c3e 0be9 843c dbc1 46be
00000140: bd64 87c0 cade 8d3c 42bb c1bc 1452 c63e
00000150: 57fb 233e 4a57 833d b0c9 4d3f ec6c 0e3f
00000160: e0da d0be 246d 883e e04b 293e 389c 8e3d
00000170: 273e 0cbe 71e3 5a3d 62be 50be 38e8 2b3c
00000180: b948 83bf 5408 17bf 11dd d8bf 1b50 583e
00000190: a0a3 40c0 b29f e6ba 10d0 14bd cd35 9fbf
000001a0: 5f62 27be 9e73 103e 401d 873f b263 343e
000001b0: 10e3 61be e010 ed3e 0216 883d d408 d83c
000001c0: b93a 38be f172 5cbf 1b18 c13d 0a18 aabf
000001d0: fd56 c1bf 8fca bebe 5dc5 babf 37ae 833d
000001e0: 8a2c f33d 073e 4b3e 9ec2 153f 802c 82bb
000001f0: 8f93 013e 14c6 123e 2d4d 113f 771d 11c0
00000200: e270 ccbd 53c4 85bd 9054 90bb f06d 013f
00000210: 0723 5dbe 6656 01c0 2f87 003e 502d 69c0
00000220: 0c6a d3bf cc31 e6bd 6517 6f3e 0ac2 903e
00000230: 313e d03d 5320 8ac0 5617 40be d439 003e
00000240: 764a ff3c 1f2f 2b3e a50f a4bd 4415 93bf
00000250: 608a d9bf cfc8 893e 7ebf fcbd c1ed dbbd
00000260: 3a39 e63e 174e 3bbe eaba f53d bdc7 6e3e
00000270: 76ba fa3d 4956 813e 1995 0d3c e182 9fbf
00000280: 4455 4fbd 45a9 73bf 73fc bd3d 7028 9f3d
00000290: a9a1 0c3f 058f 76bf 2891 083e 372e 3dbe
000002a0: 191d 463e 68db a23e 05d3 1d3f 7b5a ae3d
000002b0: 1041 b2bf ed78 0abf 3e9c bfbd 5c7b f4bf
000002c0: ae6e a83e 582a b0bd ddf5 28bc f728 333e
000002d0: b875 2a3e 1cb3 03be 985d d7bc 3449 0d3e
000002e0: c946 50bf 163e 1d3e 37e8 103e b216 3dbe
000002f0: faab b2bd 6784 023e 4c2e 96bf 448f 4ac0
00000300: 83e7 f0bf 1099 05c0 930a 3bbe 0149 d13c
00000310: 5a60 07c0 4868 57be 61d7 8b3e e66f e5bd
00000320: 7ce8 953e f4f8 3c3e b114 9a3d 4da8 283f
00000330: e2a0 5cbf 711b 39be 1bb9 173f a10e f1bd
00000340: cb37 73c0 32a0 7f3d 78d5 fbbd 3999 0cc0
00000350: a2f8 f33d 5379 233e 3965 0ebe 3f29 dd3e
00000360: fbc7 55bf ba7a 15bc 5f2a fabd c6c9 ebbc
00000370: 37ba aa3d cb1d b43d bfef 0ebd 5774 c93d
00000380: aaa0 a13d 6fa7 673f 0b00 133f fd0e 8b3e
00000390: 1730 0dbf 7b6e b73d 579f 323d 7a95 babf
000003a0: 3307 983c fedc 8a3a e090 17c0 19da c4bc
000003b0: 5de0 db3d 6959 94be 7109 403c ae13 c0bd
000003c0: fd8c b93d fb43 7c3d 879b 04be cfa9 973e
000003d0: ee42 afbe 06d2 5a3e baa3 d9be 1863 4ebe
000003e0: 7a68 183e b545 2dbe b565 92bf 974a 1bbe
000003f0: 2a90 a63d 12c7 afbd dbc2 83bf cd25 a6be

arith.constant7 f4 [128, 128]
0.0063928603 -0.099246554 0.09642327 0.15663715 0.016175913 -0.04935771 -0.2747771 -0.03235039
-0.19829756 -0.043021027 -0.0028576942 1.3913882 -1.077825 -0.16374844 0.079259366 0.011167373
-0.2333323 -0.36200213 0.24611145 0.31988156 -0.09566329 -0.05465577 -0.086726815 -0.102106154
-0.19689874 0.4078709 0.08804247 -0.12708846 -0.143855 -0.29261112 -0.1890569 -0.1081103
0.22799891 0.11813641 -0.29594487 0.2136474 0.67223614 -0.23452756 -0.12343162 0.0092899185
-0.47112566 -0.012035702 0.2970027 0.19751212 -0.03767055 0.38774982 -0.13497224 0.423126
-0.25975507 0.08854222 -0.42901972 -0.17455097 -1.4504211 0.09991568 0.051582746 0.20138568
0.41013703 0.13406637 0.11153988 0.042010874 0.11268767 0.5231129 0.20502861 0.5859422
0.35140514 0.42051333 0.17851067 0.65068936 0.123995975 0.17027679 -0.28292456 0.5282362
-0.30354112 -0.21385051 -0.59340817 1.424423 0.11700412 0.44835204 0.26403078 0.10524996
-0.7540341 -0.058230348 -0.055710025 0.29555473 -0.011812262 0.19628288 0.16638608 -0.42166555
0.065063566 0.3672522 0.12272767 0.017937638 -0.5459355 -0.01311384 0.20962538 -0.07313696
-0.29258502 -0.06698369 0.5569006 -0.54351485 -0.24324478 0.23863457 0.23196414 0.057304498
0.43492076 1.085331 -0.04071284 -0.08861293 -0.11372717 -0.48401955 0.28783852 0.14015418
0.45915884 0.38537943 2.169474 -0.64476407 -0.28655717 0.082334936 -1.1512194 0.024143288
0.06303909 -0.025916645 0.53857464 -0.12874842 0.020931918 -1.2968553 -0.07635503 0.6952158
-0.15160316 -0.007096007 -0.08050948 -0.07662811 0.052171838 0.025789266 0.009840599 -0.11461605
0.0050803074 0.0014485705 0.03884756 -0.121097654 -0.063020766 0.07657214 -0.16008233 0.0008173282
-0.16506433 -0.018076433 0.060188238 -0.1997917 -0.07614488 -0.18876228 -0.12954725 -0.06518212
0.009211169 -0.036875106 0.11272401 0.039400756 0.10971302 0.0768946 -0.19874766 0.12698978
0.07512409 -0.09189455 -0.19222665 -0.14086781 -0.20735885 -0.012776774 -0.0108491555 0.06851642
-0.13540542 0.083046004 -0.022889297 -0.054321747 0.03839352 0.09295211 -0.033209216 -0.08963757
-0.10362819 -0.14333339 -0.12657204 -0.03933918 -0.1170852 0.06370163 -0.021188844 -0.13170974
0.085057504 0.058837384 0.035140272 -0.14995994 -0.038482547 -0.17018679 0.020186702 -0.1358282
0.082424715 -0.0059418823 -0.11076275 0.09629463 -0.14462923 0.023061303 0.05083446 0.049972907
-0.013993429 -0.093077295 0.06506639 -0.051217686 0.0060968404 -0.05738157 -0.18732458 0.14320903
0.06518111 -0.017447418 -0.14866105 0.099339806 0.015976485 0.05489097 -0.10542017 -0.035226066
-0.13560277 0.03352644 0.044345044 -0.057083588 -0.011902391 0.012442437 -0.04745443 -0.07480108
0.04402988 -0.135635 -0.18414488 0.041580137 -0.18339059 -0.21590585 -0.09071271 -0.11126011
-0.14242145 0.08667407 -0.09607571 -0.024594262 0.14027251 -0.20194018 -0.0068262187 -0.08635573
-0.097797126 -0.1876358 -0.01084221 -0.021407338 0.0117641855 0.08149874 0.05719986 -0.17081195
-0.033612616 0.013499337 -0.075338006 -0.14113867 0.108970664 -0.04765198 -0.14606816 -0.026973598
00000000: 337b d13b c741 cbbd 9079 c53d 7d65 203e
00000010: 5983 843c 4f2b 4abd 96af 8cbe d881 04bd
00000020: 840e 4bbe d136 30bd 2748 3bbb 0219 b23f
00000030: 2bf6 89bf acad 27be bc52 a23d 5bf7 363c
00000040: aaee 6ebe 5858 b9be a404 7c3e 84c7 a33e
00000050: 1deb c3bd bbde 5fbd d49d b1bd 081d d1bd
00000060: d39f 49be 74d4 d03e 9c4f b43d 7a23 02be
00000070: ba4e 13be 20d1 95be 2298 41be ef68 ddbd
00000080: 8c78 693e 81f1 f13d 1686 97be 62c6 5a3e
00000090: ab17 2c3f fe27 70be b8c9 fcbd be34 183c
000000a0: 6237 f1be 6531 45bc bd10 983e 9e40 4a3e
000000b0: 6f4c 1abd 2587 c63e 2a36 0abe f9a3 d83e
000000c0: 9efe 84be a055 b53d 79a8 dbbe 7dbd 32be
000000d0: 66a7 b9bf 98a0 cc3d 6e48 533d 0c38 4e3e
000000e0: 7bfd d13e b248 093e 056f e43d 9813 2c3d
000000f0: cbc8 e63d baea 053f 05f3 513e 4f00 163f
00000100: 60eb b33e 864d d73e 80cb 363e 9493 263f
00000110: 9af1 fd3d 0a5d 2e3e 7ddb 90be 7d3a 073f
00000120: be69 9bbe a1fb 5abe 99e9 17bf 7e53 b63f
00000130: db9f ef3d 668e e53e 0b2f 873e 4b8d d73d
00000140: 6108 41bf f282 6ebd 3230 64bd f352 973e
00000150: 3888 41bc 61fe 483e 1d61 2a3e 8ce4 d7be
00000160: 0c40 853d 7b08 bc3e a558 fb3d f4f1 923c
00000170: 6ec2 0bbf 6edb 56bc 09a8 563e d5c8 95bd
00000180: b4cd 95be bf2e 89bd 0a91 0e3f ca23 0bbf
00000190: 2915 79be 9f5c 743e 0288 6d3e 1fb8 6a3d
000001a0: efad de3e 20ec 8a3f 82c2 26bd b27a b5bd
000001b0: cae9 e8bd 69d1 f7be 925f 933e 9484 0f3e
000001c0: de16 eb3e 7450 c53e a9d8 0a40 420f 25bf
000001d0: 9fb7 92be 389f a83d 285b 93bf 25c8 c53c
000001e0: a31a 813d 254f d4bc 07e0 093f a0d6 03be
000001f0: 6a79 ab3c 5bff a5bf 0760 9cbd aaf9 313f
00000200: dc3d 1bbe 9f85 e8bb 27e2 a4bd 33ef 9cbd
00000210: 23b2 553d 0344 d33c 773a 213c d2bb eabd
00000220: b578 a63b f6dd bd3a 9e1e 1f3d 0c02 f8bd
00000230: 0811 81bd dbd1 9c3d 9fec 23be f841 563a
00000240: a006 29be 0715 94bc f187 763d 3296 4cbe
00000250: d9f1 9bbd e64a 41be 09a8 04be 347e 85bd
00000260: 71ea 163c 5a0a 17bd d9db e63d b062 213d
00000270: 38b1 e03d eb7a 9d3d 8284 4bbe 9c09 023e
00000280: a9da 993d 3633 bcbd 10d7 44be a73f 10be
00000290: e155 54be ad55 51bc a8c0 31bc 5652 8c3d
000002a0: b8a7 0abe 0614 aa3d 5682 bbbc 7b80 5ebd
000002b0: 8642 1d3d ad5d be3d 6306 08bd e793 b7bd
000002c0: 043b d4bd fdc5 12be 1a9c 01be 1f22 21bd
000002d0: 5eca efbd 0076 823d 3a94 adbc ebde 06be
000002e0: a132 ae3d 78ff 703d 3fef 0f3d 198f 19be
000002f0: e09f 1dbd 7245 2ebe 955e a53c 8c16 0bbe
00000300: 4ace a83d 1fb4 c2bb 95d7 e2bd 1e36 c53d
00000310: af19 14be 0feb bc3c cb37 503d 64b0 4c3d
00000320: b244 65bc 4f9f bebd 8741 853d a3c9 51bd
00000330: 01c8 c73b f008 6bbd 04d2 3fbe 63a5 123e
00000340: ac7d 853d e3ed 8ebc 9a3a 18be ab72 cb3d
00000350: 1ee1 823c 5bd5 603d 88e6 d7bd 3549 10bd
00000360: 74db 0abe 0553 093d 26a3 353d 7bd0 69bd
00000370: 3f02 43bc 5ddb 4b3c 945f 42bd 4f31 99bd
00000380: ad58 343d e7e3 0abe 7a90 3cbe ef4f 2a3d
00000390: beca 3bbe 6c16 5dbe 96c7 b9bd 57dc e3bd
000003a0: eed6 11be 2d82 b13d 58c3 c4bd e879 c9bc
000003b0: 99a3 0f3e 68c9 4ebe 79ae dfbb 46db b0bd
000003c0: dc49 c8bd 9923 40be 86a3 31bc 715e afbc
000003d0: 92be 403c d0e8 a63d 674a 6a3d 54e9 2ebe
000003e0: 62ad 09bd 532c 5d3c d04a 9abd a886 10be
000003f0: 032c df3d b92e 43bd e492 15be bcf7 dcbc

arith.constant8 f4 [128]
-0.028394379 -0.06008986 -0.013530334 0.12988374 -0.047822766 0.107153684 -0.031551108 0.15208676
0.22037621 -0.019987445 0.07324527 0.053240936 -0.022132412 -0.10933789 -0.02795274 -0.046708465
-0.018612463 -0.01954627 -0.039284732 -0.036528796 -0.1219592 0.06852411 -0.010397828 0.0
0.032676782 0.0072383382 0.0 -0.024235692 -0.0120585915 0.01631476 -0.014479255 0.07691111
-0.015304839 0.05618326 -0.015766794 -0.028158322 0.16481909 -0.10032615 -0.023970883 -0.030190548
0.0 -0.28252086 -0.2839915 0.07334764 -0.06545932 0.08231594 0.123080306 0.034955084
0.1751668 -0.028954675 -0.026811477 0.06953358 -0.043068476 -0.110737555 -0.017900461 -0.013906845
0.109723456 -0.06600086 0.049391016 -0.0098190745 -0.010939031 -0.031318802 0.19704638 -0.2547307
-0.04461475 0.04590989 -0.00953236 -0.03722718 -0.08997884 -0.035132673 0.104598425 -0.028717093
0.16351977 -0.030557144 -0.056997716 0.097271964 -0.026486002 0.0 0.0343771 -0.0056018475
0.12548858 -0.0019062944 -0.054275464 -0.12941475 -0.051895987 -0.061948083 0.12420517 0.1693079
0.013835065 0.13266824 -0.013908553 -0.014748312 -0.024683667 -0.03853959 -0.016854586 -0.025292229
0.048173063 0.045079768 0.15970348 0.05634619 -0.08546638 -0.015502359 -0.020847036 0.2361411
-0.008206964 -0.046361096 0.18384163 -0.009426652 -0.026951313 -0.010371841 -0.038936682 -0.0041874987
-0.0024258315 -0.031972706 -0.048292644 0.11578035 0.1298468 0.029570209 0.038673274 -0.026428565
-0.032301333 -0.045031577 -0.16405635 0.0 -0.052422427 -0.010721126 0.012400751 -0.050718047
00000000: 549b e8bc c920 76bd 56ae 5dbc 3e00 053e
00000010: cee1 43bd 6473 db3d bc3b 01bd a2bc 1b3e
00000020: 4daa 613e b6bc a3bc 9e01 963d 2b13 5a3d
00000030: 084f b5bc 8bec dfbd 25fd e4bc 6051 3fbd
00000040: 2a79 98bc 801f a0bc 07e9 20bd 389f 15bd
00000050: bfc5 f9bd 5e56 8c3d a75b 2abc 0000 0000
00000060: 17d8 053d 952f ed3b 0000 0000 ee89 c6bc
00000070: 6691 45bc 88a6 853c 663a 6dbc 9283 9d3d
00000080: 26c1 7abc 6b20 663d 5d29 81bc 48ac e6bc
00000090: 56c6 283e cc77 cdbd 965e c4bc 2b52 f7bc
000000a0: 0000 0000 93a6 90be 5567 91be 4a37 963d
000000b0: 890f 86bd 4295 a83d 8711 fc3d 102d 0f3d
000000c0: ed5e 333e 5b32 edbc bea3 dbbc 9f67 8e3d
000000d0: 9268 30bd 5fca e2bd fda3 92bc 89d9 63bc
000000e0: b1b6 e03d 752b 87bd 3c4e 4a3d 2fe0 20bc
000000f0: 9f39 33bc 2548 00bd 87c6 493e 106c 82be
00000100: f5bd 36bd 020c 3c3d 9e2d 1cbc 877b 18bd
00000110: d346 b8bd 47e7 0fbd b337 d63d 1c40 ebbc
00000120: ba71 273e fa52 fabc 7076 69bd 8636 c73d
00000130: 2cf9 d8bc 0000 0000 01cf 0c3d b48f b7bb
00000140: 1480 003e a0dc f9ba f34f 5ebd 4d85 04be
00000150: e390 54bd 46bd 7dbd 485f fe3d 0d5f 2d3e
00000160: 78ac 623c 2fda 073e b3e0 63bc e7a2 71bc
00000170: 6735 cabc b0db 1dbd a112 8abc a631 cfbc
00000180: 1e51 453d 90a5 383d 4f89 233e 43cb 663d
00000190: ff08 afbd 9bfd 7dbc 67c7 aabc f9ce 713e
000001a0: 8076 06bc 22e5 3dbd fb40 3c3e 3f72 1abc
000001b0: 00c9 dcbc a7ee 29bc 127c 1fbd 4937 89bb
000001c0: b3fa 1ebb d0f5 02bd 82ce 45bd 401e ed3d
000001d0: 8ff6 043e 393d f23c de67 1e3d b880 d8bc
000001e0: 674e 04bd 0873 38bd 63fe 27be 0000 0000
000001f0: e6b8 56bd a9a7 2fbc 852c 4b3c babd 4fbd

arith.constant9 f4 [15]
-1.4669714 0.8196515 -0.1891958 -0.3558387 1.8820202 0.6310163 0.8956 0.1656845
-0.91116923 1.0863918 0.23121941 -1.0553586 -0.20640534 -0.40462568 -0.81612074
00000000: b8c5 bbbf aed4 513f 8bbc 41be 7d30 b6be
00000010: 0ae6 f03f 498a 213f 0b46 653f 33a9 293e
00000020: 6342 69bf e30e 8b3f c8c4 6c3e fe15 87bf
00000030: ec5b 53be 192b cfbe 4aed 50bf
