AI/dynamic-gesture/app/models/dynamic_gesture_lstm.tflite (tflite, 629960 bytes, 10 tensors)

arith.constant3 f4 [4, 64]
000000 a8 d3 67 bc 1b 1f 36 be a4 d7 3b 3e 2a 3b 22 bd
       -0.014149584 -0.17785303 0.18343979 -0.039607204
000010 66 89 55 3e 7d ab ee bd 66 13 21 3e 90 fe 63 3e
       0.20853195 -0.116538025 0.15730056 0.22265077
000020 30 6c 30 3e ec bf 6d bd ff 79 81 be a0 2d 82 3e
       0.1722877 -0.05804436 -0.25288388 0.25425434
000030 99 ca a0 be f9 36 e5 bd e4 81 98 3e 0e f6 24 bb
       -0.3140457 -0.11192126 0.297866 -0.0025171074
000040 a9 c5 5e 3e b1 47 12 3d 9f 79 85 3e 01 c2 86 be
       0.21755089 0.0357129 0.26069352 -0.26319888
000050 0b ab b0 3c f8 34 40 be 67 e8 23 3e 03 b3 e2 3c
       0.021565935 -0.18770206 0.16006623 0.02767325
000060 51 d8 9a 3d cb cd 32 3e b7 44 59 be 10 87 88 be
       0.0756079 0.17461316 -0.21217619 -0.26665545
000070 1e 20 2c be 31 63 57 be 4a 08 46 be 57 7c 85 3e
       -0.16809127 -0.21033932 -0.193391 0.26071426
000080 23 31 53 3e f9 14 64 be 61 00 c4 bd 7a 11 3c be
       0.20624213 -0.22273625 -0.09570385 -0.18366042
000090 08 55 4a bd 07 70 5a be 73 b3 8e bc 79 98 1f 3e
       -0.0493975 -0.21331798 -0.017419552 0.15585507
0000a0 0d 12 89 3d 78 f0 2d bd 1c 79 3d 3e 72 ef 96 be
       0.06692896 -0.042465657 0.18503231 -0.29479557
0000b0 99 cf c6 3d 44 14 47 be b7 c5 2a be 4d c6 42 3e
       0.09707565 -0.19441324 -0.16676985 0.19020958
0000c0 e3 bc 9a bd 21 cc 5f 3e 73 99 94 3e bc 47 6a 3b
       -0.075555585 0.21855213 0.29023322 0.0035748323
0000d0 e0 b8 c8 bc 41 43 87 3e 0d 73 73 be 95 03 4f 3e
       -0.024502218 0.26418498 -0.23774357 0.2021621
0000e0 80 57 52 3e 80 c4 47 3d 87 c3 04 be 02 e0 76 bd
       0.20541191 0.04877138 -0.12965213 -0.060272224
0000f0 4f 22 95 be 07 a4 2d be e9 05 01 3e e3 52 9a 3e
       -0.29127738 -0.16957103 0.12599911 0.30141363
000100 55 a1 aa b9 ba ce 02 be 7f 3b 7a 3d 20 cc 87 3e
       -0.00032545128 -0.12774172 0.061091896 0.26522923
000110 c6 aa 87 3d ff 6e 44 be ae 7f a7 3d 96 f8 6b 3e
       0.06624369 -0.19182967 0.0817865 0.23044047
000120 71 c7 68 be 5d 2d 6c 3d c2 81 3b 3e 1c 08 65 3e
       -0.22732331 0.05766045 0.18311217 0.22366375
000130 11 61 8f 3e 25 b8 f8 bd 3b 48 37 3e 46 0a cb bd
       0.28003743 -0.12144498 0.17898647 -0.09914069
000140 88 60 91 3e 6b 89 0b be 0d a9 81 bc 91 c9 70 be
       0.2839396 -0.1362664 -0.01582768 -0.23514391
000150 ab 11 87 3d 80 d3 9b 3d d2 15 99 ba eb 6d a4 be
       0.06595167 0.076087 -0.0011679477 -0.3211511
000160 42 5d 8c 3e a7 f6 39 3e e3 71 84 3c 82 8a b3 3b
       0.274149 0.18160497 0.016167587 0.005479158
000170 c7 25 49 3d 98 47 28 bd 79 25 4b be d5 b7 6a be
       0.049108293 -0.041083902 -0.19838513 -0.22921689
000180 c3 cc 87 be e0 da 9a 3e 33 af 57 be 3d 99 9b be
       -0.26523408 0.30245113 -0.21062927 -0.3039035
000190 a1 a0 78 3c a8 b3 3c be 09 54 b5 bd 33 e0 02 3e
       0.015175016 -0.18427908 -0.08853919 0.12780838
0001a0 39 71 09 be ec 86 79 3d cc ba 8e bd 73 66 45 3e
       -0.13422097 0.060919687 -0.069692224 0.19277363
0001b0 38 2b 83 3e 79 21 42 3e 9c e6 db 3d 03 c8 bc bd
       0.2561891 0.18958081 0.107373446 -0.09217837
0001c0 42 4f e3 bd c6 8d 85 be f6 b6 f5 3c 1f 42 b1 3d
       -0.110991016 -0.26084727 0.02999447 0.0865519
0001d0 37 dd 7f 3e 62 6b a3 be f2 e0 f8 bd f3 17 05 be
       0.2498673 -0.31917864 -0.1215228 -0.12997417
0001e0 c0 cb de bd 82 1b 56 be ca 0a 38 3e 47 81 ab 3d
       -0.10878706 -0.20908931 0.17972866 0.08374267
0001f0 d5 bb 91 3e 34 d3 8a 3e c3 1d cc 3d e7 cf ea 3d
       0.28463617 0.2711426 0.09966614 0.114654355
000200 e5 7f 95 bd 24 b5 4f 3d a3 1c fe bd 18 eb 00 3e
       -0.072997846 0.05070986 -0.12407806 0.12589681
000210 6c 56 23 3e d3 d8 e4 3d 1f 4f 8d 3e 62 ef 07 3e
       0.15950936 0.111741684 0.27599427 0.13274911
000220 a3 d9 82 3c 16 19 6e 3e 16 4e 67 bd 56 e8 e0 3d
       0.015972918 0.23251757 -0.056470953 0.109818146
000230 70 2f 90 3e 2c 33 93 bc 1f 3d 5f 3e fa e6 fc 3c
       0.28161192 -0.017968737 0.2180066 0.030871857
000240 3b 07 78 3e 5c d2 96 be de ea 26 3e bb 6c c5 bd
       0.24221508 -0.29457366 0.16300532 -0.09639879
000250 14 8f 1e 3e 3e 98 42 bd 04 5b 24 bd db c1 d3 bd
       0.15484267 -0.04750847 -0.04012586 -0.10339709
000260 04 dd 7c 3e 17 77 81 be b7 18 92 3e 9a 06 93 3e
       0.24693686 -0.2528617 0.2853448 0.28715974
000270 ef da ee bd 8a 49 1f 3e 0d f9 d5 3d d7 b3 27 be
       -0.11662852 0.15555397 0.10447893 -0.16377197
000280 4e 5c 35 3c 36 4a 1b be 58 a7 af 3d 95 45 b3 bd
       0.01106937 -0.15165028 0.0857684 -0.08753506
000290 de ed c6 3b 67 9f b3 3d 06 d5 94 be 71 1b 68 bd
       0.0060708364 0.08770638 -0.29068774 -0.056666795
0002a0 54 c5 8d 3e d3 ab 35 be dc bc bf 3b ec ec 77 bd
       0.27689612 -0.17741327 0.005851371 -0.06052868
0002b0 92 d5 5b be 52 d6 09 bd 37 d9 11 3e b2 e8 32 be
       -0.2146819 -0.033651657 0.14243017 -0.17471579
0002c0 0d 29 ad 3d b5 c0 3b be d9 1e 0e be ef 88 9c be
       0.084550954 -0.1833523 -0.13878955 -0.30573222
0002d0 a6 97 52 be fb 24 e6 bd 09 f9 80 3e 8d a5 3f 3d
       -0.20565662 -0.11237522 0.2519 0.04678874
0002e0 a1 be 3c 3d 21 07 6a 3c 1d 50 4e be f5 6e 2d bd
       0.046080235 0.014283926 -0.20147748 -0.042342145
0002f0 89 6e 90 3e 7c ab cd bc b2 a6 68 be 8a 27 8e bc
       0.28209332 -0.025106184 -0.22719839 -0.017352838
000300 ca db 13 bc a0 c2 27 bc 48 21 51 be 01 e8 eb bd
       -0.00902457 -0.010239273 -0.20422852 -0.115188606
000310 0e 7c 0a 3e 1c a7 7c 3e 36 d5 7d be cf ac c3 3d
       0.13523886 0.24673122 -0.24788365 0.09554445
000320 69 d3 26 3e 97 a9 09 bd 81 e7 78 be 40 2e 1d 3e
       0.16291584 -0.033609 -0.24307062 0.15349674
000330 37 e1 1f 3e 38 02 9f 3e 5f 62 da 3d 1f 25 32 be
       0.15613256 0.3105638 0.10663294 -0.17396973
000340 06 77 b1 3b 18 79 9d be b1 05 1a 3e 7f dd 98 3e
       0.0054158 -0.3075645 0.15041234 0.29856488
000350 d4 8c 29 3e 96 a0 48 3e cf 0c 83 be 2b 04 cf bd
       0.16557628 0.19592509 -0.2559571 -0.10108217
000360 5c 44 2e 3e a6 5c 64 3e c3 b8 78 3d 46 0f 78 3e
       0.17018265 0.22300968 0.060723078 0.24224576
000370 61 52 92 3e af 86 95 be d9 45 1c be 0d f7 75 bd
       0.28578475 -0.29204318 -0.1526102 -0.06005006
000380 10 2e 51 3e 40 c5 8c be 39 7e 93 3e 86 c8 50 bd
       0.20427728 -0.2749424 0.28807238 -0.050972484
000390 09 1a 3e 3e ee 38 5a be d2 87 f7 3d cb fe 64 bd
       0.18564619 -0.2131078 0.120864525 -0.055907052
0003a0 83 ff f4 bd 58 3c fb 3d 0c 2e a9 3c 26 28 8a 3e
       -0.119627975 0.12267369 0.02065184 0.26983756
0003b0 b1 04 83 bd fb 9b 5d be 7d e6 74 be 83 ed 1f be
       -0.06397379 -0.21641533 -0.2391605 -0.15617947
0003c0 da 51 29 bd 27 e7 55 be c5 c0 f8 bd 08 c8 4a bd
       -0.041337825 -0.20888959 -0.12146143 -0.04950717
0003d0 fd 8c 5c 3e 07 11 b4 bd e3 29 3d 3e 54 3c 4e 3e
       0.21538158 -0.0879231 0.1847301 0.20140201
0003e0 f2 8f ba 3d 3a 59 3d bd 6f 17 53 be ef e9 3c be
       0.09109487 -0.04622767 -0.20614408 -0.18448614
0003f0 71 c1 5a bd 91 6f 27 3e b9 7d 50 3e c0 49 8e 3c
       -0.053407136 0.16351153 0.2036046 0.017369151

arith.constant4 f4 [64, 64]
000000 10 7f 0e bd 27 ed ca bd 17 44 e5 3d a9 a3 95 3d
       -0.034789145 -0.099085145 0.11194628 0.07306606
000010 13 8e e1 3c 68 9a 63 3e d7 dc 2e be fc 3c 56 bd
       0.027533567 0.2222687 -0.17076431 -0.052304253
000020 57 48 02 3d 9f 6f 51 3e 06 22 27 be 67 4f 07 3e
       0.03180727 0.20452736 -0.16321573 0.13213883
000030 f4 16 c1 3d e0 4e bc bd a1 83 87 3c fd 63 a9 bd
       0.09428206 -0.09194732 0.016542258 -0.082710244
000040 2f b6 b3 3c 99 ce 25 be d5 eb 22 3e 62 ee 86 bd
       0.021937458 -0.16192092 0.15910275 -0.06588437
000050 08 0a 07 be 63 84 92 bc 94 42 43 be fc ca 44 be
       -0.1318742 -0.017885393 -0.19068366 -0.19218057
000060 78 c3 39 be 0f fa 27 3e 71 fa 06 3e 89 85 90 3d
       -0.18140972 0.16403984 0.13181473 0.0705672
000070 ed 9a 1d bd 5a dc a4 3d 94 64 10 3e 57 69 fa 3d
       -0.038477827 0.08049841 0.14100868 0.12227123
000080 ff d0 26 be c6 de e7 bd 62 05 d6 bd c1 24 3d 3e
       -0.16290663 -0.113217875 -0.104502454 0.18471052
000090 99 79 fe 3d 87 37 02 be 59 4a 9b 3d f0 f1 1a be
       0.12425537 -0.12716495 0.0758254 -0.15131354
0000a0 f5 d5 33 be a6 43 aa bd 3c 93 71 bd ec 1c 2a be
       -0.17562087 -0.08313684 -0.058978304 -0.16612595
0000b0 d3 66 66 3e 39 04 fc bd df b3 4e be 44 c9 5c bd
       0.22500162 -0.12305493 -0.20185803 -0.05390288
0000c0 ce 92 45 be 2a 32 36 be 82 df 56 3c 7c 83 01 be
       -0.19294283 -0.17792574 0.013114812 -0.12647814
0000d0 58 41 84 bd 26 3e 29 bd be 57 30 3e 5f 2e 94 bd
       -0.06457776 -0.041319035 0.17220971 -0.07235407
0000e0 77 be f3 bd 57 88 12 3e 0b b9 fb 3d a8 0d 43 be
       -0.11901563 0.14309822 0.122911535 -0.19048178
0000f0 3f 36 40 be 3b f4 6d 3e 58 f9 29 be aa 2a 07 3e
       -0.18770693 0.23237698 -0.16599023 0.13199869
000100 18 78 f0 bd c2 68 25 3e a9 02 08 be 91 e6 64 3e
       -0.11741656 0.16153243 -0.13282265 0.22353579
000110 99 78 2f be 7f 25 25 3e 33 f1 20 bd 12 f5 31 bd
       -0.17135848 0.16127585 -0.039292526 -0.043446608
000120 50 fa 1f 3e 5b 14 04 3e 43 d5 e7 bd 01 50 c6 3d
       0.1562283 0.1289839 -0.11319973 0.09683228
000130 a9 5d 9d bd b1 46 06 3e 0f a7 2b 3e c5 6d 68 3e
       -0.0768388 0.13112904 0.16762947 0.22698124
000140 67 3a 1f bd d5 3c 4c 3e b9 2b 29 3e ac b9 af ba
       -0.038874056 0.1994508 0.16520585 -0.0013406775
000150 e7 aa 3d be b1 2c bd bd 59 23 01 be b2 b7 e8 bd
       -0.18522225 -0.0923704 -0.1261114 -0.11363162
000160 09 78 aa 3c c7 30 ad bd ca 80 9e 3d 22 6b d5 3d
       0.02080919 -0.08456569 0.07739408 0.104208246
000170 64 7e a6 bd 93 9c 25 3e ad 6f 16 be ca 3f 01 bd
       -0.08129576 0.1617301 -0.14691038 -0.031554975
000180 bd 55 07 bd 1b ec 0a 3e 87 93 71 3c c5 97 e0 3d
       -0.03304075 0.1356663 0.014744646 0.10966448
000190 62 b8 09 3c 5a 22 0c be e2 12 39 3e 29 9b 03 3d
       0.008405777 -0.13684979 0.1807361 0.032130394
0001a0 35 79 f3 bd 92 eb 85 bd f7 79 c2 bd e2 ed 1b be
       -0.11888353 -0.06539072 -0.09495919 -0.15227464
0001b0 c8 f3 73 be 8c 66 f6 bd ec 24 25 3e 50 62 4b be
       -0.23823464 -0.12031278 0.16127366 -0.19861722
0001c0 c3 54 e1 bd a4 2e d6 bc 62 3f 42 bd 22 75 e6 3b
       -0.11002495 -0.026145287 -0.047423728 0.0070330063
0001d0 9e 24 d9 bd d5 f4 b6 bd 11 22 7d be 74 24 e2 3d
       -0.10602687 -0.08933417 -0.24720027 0.11042109
0001e0 df b9 cf bc 6f dc 88 bd 15 e9 db bd 0d 60 1e bd
       -0.025357185 -0.06682669 -0.10737816 -0.03866582
0001f0 a2 a8 fe 3d 4b d1 bc 3d c1 37 f4 3c c2 d2 3c 3d
       0.12434508 0.09219607 0.029811742 0.04609943
000200 37 fe 10 be a1 88 51 3e 73 14 ac bd 30 f4 0b bd
       -0.14159475 0.20462276 -0.08402338 -0.034168422
000210 b2 3c 41 3d 5b b3 95 3c ac 7a 87 3d 29 da 52 be
       0.047177024 0.018274 0.06615195 -0.20591034
000220 3a da f5 bd e9 85 67 3e 34 39 ee 3d b6 7e 35 be
       -0.12004514 0.22609676 0.116320044 -0.17724118
000230 98 a0 53 bb e3 c9 02 be e0 c8 22 be 59 7f 04 3e
       -0.0032291766 -0.12772326 -0.1589694 0.12939204
000240 12 5c 3e 3d e3 08 db 3d 7b 5a 0a be 44 2d c9 3d
       0.046474524 0.106950544 -0.13511078 0.09823087
000250 15 13 bb bd 24 24 3f 3e d6 84 3f 3e e2 d2 5e 3d
       -0.09134499 0.1866613 0.18703017 0.054400332
000260 a0 da d7 3d 5a dd 42 3e d2 44 71 3d 4b d1 13 3d
       0.10539746 0.19029751 0.058903523 0.03608827
000270 9e b1 6e 3d 39 7f 21 3d 54 2a f0 bc 85 0d bd 3d
       0.058274858 0.03942797 -0.029317059 0.09231094
000280 74 f2 44 3e a7 8b 4d 3e 50 18 3f be 07 55 1d be
       0.19233114 0.20072804 -0.18661618 -0.15364467
000290 6c e3 37 3e 5b 77 66 3d b1 03 46 3e 01 e5 64 be
       0.17957848 0.05626617 0.19337346 -0.22352983
0002a0 d6 ee 8b bc ff c3 8b 3d 60 15 86 bd 14 91 61 be
       -0.01708166 0.06824493 -0.06547046 -0.22027999
0002b0 62 d2 58 3e d4 b3 23 3e 79 8c fe 3d 6c 4d 35 be
       0.21174005 0.15986568 0.12429137 -0.17705315
0002c0 97 b8 45 3e cb dc 71 bd ec 2c 2d 3e 39 e0 cf 3d
       0.19308697 -0.059048455 0.16911668 0.10150189
0002d0 7f 33 4d 3e 5a 21 60 3d 00 01 8e bd 57 62 1d be
       0.20039175 0.054719307 -0.069337845 -0.15369545
0002e0 63 af 28 3e 0f 6d 0b 3e 88 d2 b6 bd 69 58 02 bc
       0.16473155 0.13615821 -0.089268744 -0.007955649
0002f0 26 1a 9f bc b8 75 fd bd 50 00 e3 3d eb 16 42 3e
       -0.019421648 -0.12375969 0.11084044 0.18954055
000300 c5 00 0d 3e 42 89 5a 3e ec 39 b9 3d df 7e 4f bd
       0.13769825 0.21341422 0.09044251 -0.050658103
000310 78 15 c8 3d 7d 59 19 3e d1 d9 48 be 94 96 4a 3d
       0.0976972 0.14975543 -0.1961434 0.04946001
000320 b0 91 10 be 86 66 92 3d 08 b9 46 3e a4 10 31 bc
       -0.14118075 0.07148461 0.19406521 -0.01080719
000330 d8 c8 44 be ad 91 1e 3e c0 d6 f8 3d f3 75 4a 3e
       -0.19217241 0.15485258 0.12150335 0.19771557
000340 8a 5e 6a 3a be e5 bc bd e7 3c f1 bd 79 d1 3e 3e
       0.0008940479 -0.09223507 -0.11779194 0.18634595
000350 f1 a7 06 be 61 87 34 bc 3b ac 9a 3d 08 44 0c be
       -0.13150002 -0.011018605 0.075523816 -0.13697827
000360 7b ce 3e 3d 0e f9 48 bd 50 74 a4 bd 18 ae 9a bd
       0.046583634 -0.049065642 -0.08029997 -0.07552737
000370 f0 45 81 3d c2 17 9d bc c3 ad cc 3c a4 78 35 3e
       0.06312168 -0.019176368 0.0249852 0.17721802
000380 ab 39 50 3e f8 30 06 bd 56 1e df 3d a7 17 07 bd
       0.20334499 -0.032761544 0.10894458 -0.03298154
000390 48 ac 2a bd 02 aa 3c be 48 7b 47 3e 25 c3 23 bd
       -0.041668206 -0.18424228 0.19480622 -0.039981026
0003a0 85 bc da 3c 24 7d 9f bd 68 eb 28 bd 87 2d a4 3d
       0.026701221 -0.077875406 -0.041240126 0.08016496
0003b0 81 97 ab bd 4a b8 2c 3b 26 03 0c 3e 50 25 d9 3c
       -0.083785065 0.0026354962 0.13673076 0.02650705
0003c0 10 40 a4 3d 4e 77 65 be 5d f1 29 bc 9f 75 1c be
       0.080200315 -0.22408792 -0.010372487 -0.15279244
0003d0 2c 59 f9 bd db 0e 1b be e1 a7 35 be 34 5f 3a 3e
       -0.12175211 -0.15142386 -0.17739822 0.1820038
0003e0 de e6 60 3d eb 3d 36 3d 82 f7 e9 bb 3d a1 99 3d
       0.054907672 0.044492643 -0.007140101 0.07501457
0003f0 8c 21 0b 3e fd 94 37 3d 63 dd 26 be c9 34 e1 bd
       0.13587016 0.04481982 -0.1629539 -0.10996396

arith.constant5 f4 [64]
000000 3f d2 d5 bc 27 6c a5 3c 4d 70 b1 3c b7 2f 85 bc
       -0.02610123 0.020193173 0.021659994 -0.016258104
000010 56 36 32 3c 85 1d df bb ae 8d dd 3b 7e 3d 1e bc
       0.0108772125 -0.006808939 0.0067612743 -0.009658216
000020 cf 5c fc 3b 95 2d f4 3b ae 4e 55 ba a2 37 a0 ba
       0.0077014933 0.007451723 -0.00081370294 -0.0012223611
000030 3c 0f 93 3c ca 1a 06 3c 2b 25 55 3b a9 53 d3 3c
       0.0179516 0.008185098 0.0032523375 0.025796728
000040 93 40 d0 3c 84 25 8d 3c 61 75 c8 3c ba d5 71 3c
       0.025421416 0.017229803 0.024470033 0.014760429
000050 0a 1c 63 bc 3f b2 18 3c 21 5d 51 3c 89 9c 04 ba
       -0.0138616655 0.009319841 0.012778551 -0.0005058726
000060 c0 5a 25 3c cb ac 1f bc 05 31 8c 3c 7d db 30 3c
       0.010092437 -0.009745787 0.017113218 0.010794518
000070 90 ee 20 3c 4f 54 af 3a 79 a3 6d 3c 6b 02 8b 3c
       0.009822503 0.0013376566 0.014504307 0.016968926
000080 8b 17 15 3c 5a 35 ac 3c 5f 45 94 3c 6f 08 ba 3b
       0.009099851 0.021021534 0.018099485 0.005677275
000090 e3 78 52 bc 98 07 36 3c 4f 7c 1d 3c 12 31 6a bc
       -0.012846204 0.011110209 0.009612157 -0.014293926
0000a0 10 4d 78 3c 46 1c 92 bc cc 15 d0 39 e1 42 d1 3a
       0.015155092 -0.017835747 0.00039689091 0.0015965366
0000b0 17 de 9a 3c 3b 02 b0 3b ec 69 98 3c 00 f2 8a 3c
       0.018904729 0.0053713596 0.018605195 0.016961098
0000c0 7c 45 73 3c 5a d9 76 3c d2 7f 7e 3c 08 1f 64 3c
       0.014848109 0.015066469 0.015533404 0.013923414
0000d0 7f 10 a8 3b ca a3 2d 3c ff 7f 9a 3c 8b ef 53 3b
       0.0051289196 0.010598132 0.018859861 0.0032338824
0000e0 64 ed 6c 3c 35 7c 70 bc 5e 0c ab 3c a4 7c 16 3c
       0.014460895 -0.014678051 0.02087992 0.00918499
0000f0 38 a9 a4 3c a6 02 5d bc 8e 9f db 3b d5 1f 55 3c
       0.020100221 -0.013489401 0.00670237 0.013008078

arith.constant6 f4 [4]
000000 20 8f 4b bc a2 61 ba 3a db 2e 14 3c e6 ec ce bb
       -0.01242426 0.0014219771 0.009044374 -0.0063148616

arith.constant20 f4 [512, 64]
000000 bc a7 2f bd 2c a5 be bc 64 b3 83 bd 76 01 84 bd
       -0.042884573 -0.02327212 -0.064307004 -0.06445591
000010 de 0e 09 3d 08 6d ea bb 93 93 d9 3c e0 19 cd 3c
       0.033461444 -0.007154111 0.026559627 0.025036752
000020 d7 19 ce 3b b4 86 dd bc c1 da 44 bd 90 28 16 3c
       0.0062897014 -0.02704177 -0.048060182 0.009164944
000030 3b 84 89 bd e0 c6 76 ba 7d 32 87 bc bf eb ae 3d
       -0.06714674 -0.000941379 -0.016503567 0.08541059
000040 0b e2 fa bc 3a 88 20 bd 53 f5 98 3d 2c e4 0c bd
       -0.030625364 -0.039192416 0.07468667 -0.03439729
000050 ac a0 dd 3c b4 79 a7 bc 8c 77 dc bc 2d 3f 0d bd
       0.027054153 -0.020443775 -0.026912473 -0.034484077
000060 1c e9 10 3d 68 22 d3 bd 6f e2 42 3d 7b 21 d9 bd
       0.03537856 -0.10309297 0.047579225 -0.10602089
000070 f1 54 61 3d d4 24 bd bd 0a 7a a6 3d 6f 14 e7 bd
       0.055012647 -0.0923554 0.08128746 -0.11283194
000080 de da dd bd 6d 22 a2 bd c8 2a d8 bd 34 e9 08 3d
       -0.10832761 -0.079167224 -0.10555035 0.033425525
000090 69 03 08 bd c2 31 8f 3d fa d9 0f 3d bf 2f c2 bd
       -0.033206377 0.069919124 0.035119988 -0.09481763
0000a0 3b 79 1e 3c fb 06 87 3d 71 60 6a bd 91 75 ce bd
       0.009672458 0.06593128 -0.05722088 -0.10081018
0000b0 e2 83 81 bd 31 46 aa bc f1 a7 b1 bd 26 b7 28 bd
       -0.06323983 -0.020785423 -0.086746104 -0.04119029
0000c0 ad 97 4e 3d 40 66 34 3d ac 31 83 bd e8 d2 8d 3c
       0.050437618 0.044042826 -0.064059585 0.017312482
0000d0 4f d9 c8 bc ac 05 10 3c d0 64 f6 3c 63 11 32 3d
       -0.024517683 0.008790415 0.030077368 0.043473613
0000e0 9d 8c 5c 3d 86 4a a1 3d a5 64 7e 3d 86 e5 5b bc
       0.053845037 0.07875542 0.0621077 -0.013421422
0000f0 df c0 93 3d 78 ae ae 3d 4d ba b7 bd c5 49 2c 3d
       0.072145216 0.08529371 -0.08971081 0.04206254
000100 60 94 4b bc 78 3a ca 3d 90 1a 26 3d 9c 9f cb bd
       -0.012425512 0.09874433 0.040552676 -0.099425524
000110 29 7e 30 bc 75 d9 a1 bd a8 ed 38 bd de 99 06 3c
       -0.010772266 -0.07902805 -0.04514852 0.008215396
000120 5a 6c 70 bc 4c 84 a4 3d 3a c8 6f 3d da 2d 98 bc
       -0.0146742705 0.08033046 0.05854056 -0.018576551
000130 52 35 b9 bd 62 24 b0 bd f6 8a 52 3b 8f 3e 2d bd
       -0.09043373 -0.086006895 0.0032126284 -0.04229599
000140 d0 ca c0 3d 37 25 3a 3c 3f 26 c2 3d e6 35 b0 bb
       0.094136834 0.011361412 0.09479951 -0.005377519
000150 c3 ea f7 bc 21 f2 51 3c 17 fd 6e 3d 06 b1 c9 3d
       -0.03026331 0.012814076 0.058346834 0.09848218
000160 b5 35 53 3d f6 de cd bd f8 bb eb 3c 46 df 7b bd
       0.05156489 -0.10052292 0.028776154 -0.061492227
000170 6c 86 7c bd 3b 54 c4 bd 1c ed b2 3d 50 d9 5d 3d
       -0.061651632 -0.09586378 0.08736631 0.054162323
000180 25 ee b8 3c f0 3d 28 bc 0a 3c 2a 3d 8f 7e 8f bd
       0.022574494 -0.010268673 0.041561164 -0.07006561
000190 ef b1 d6 3b c4 13 7e bd 68 aa 9d 3d 9c 97 74 3c
       0.006551973 -0.06203057 0.07698518 0.014928725
0001a0 1b 41 59 bd d2 d6 c2 bd c7 f0 c8 bd 1f 68 3b bd
       -0.053040605 -0.0951363 -0.0981155 -0.045753594
0001b0 de 64 2b ba 13 88 cb 3d f3 e1 aa 3c b8 a3 84 3d
       -0.00065381627 0.099380635 0.020859694 0.064765394
0001c0 15 29 9d bd 34 ce 51 bd 9c c5 13 bc 01 8b 29 3d
       -0.076738514 -0.05122204 -0.009019282 0.04139233
0001d0 01 ad 1e bd 44 d1 a6 3d d1 e9 2c 3d b9 5b a6 3c
       -0.038739208 0.08145383 0.042215172 0.020307409
0001e0 e0 3e c1 bd 38 91 ad 3c 97 48 4c bd bf f0 47 bd
       -0.094358206 0.02118741 -0.049873915 -0.048813578
0001f0 df b3 95 bd 0e ba e7 3b 9e d7 56 3c 0f 67 2a 3d
       -0.07309698 0.00707174 0.013112931 0.04160219
000200 0c ff 68 3d 40 a0 a5 bb 8e cf c5 bd 66 94 52 3d
       0.056883857 -0.0050545037 -0.096587285 0.051411055
000210 eb aa a0 bd b9 35 33 bc aa 16 72 3d 75 b2 b5 bd
       -0.078451 -0.010938101 0.059103645 -0.088719286
000220 c6 b4 d0 3b 24 07 2a 3d 46 32 5b 3d 5f 36 42 3d
       0.006369206 0.041510716 0.05351474 0.047415134
000230 b0 cf 64 3d 55 57 bd 3d b6 58 2e bd 54 89 0f 3d
       0.05586213 0.09245173 -0.04256507 0.035043076
000240 f8 3b a1 3d 2b 1d 80 3c f4 46 04 3d a8 fb b6 bc
       0.07872766 0.015638908 0.03229423 -0.022336796
000250 55 ac 23 3d 13 40 4e 3d bb 7a 37 bd 15 d2 e5 bb
       0.03995927 0.050354075 -0.04479478 -0.007013569
000260 0e 5e 97 bd a5 31 36 bc 69 d4 10 bd c5 a1 ab 3d
       -0.073909864 -0.011120235 -0.03535882 0.083804645
000270 71 05 96 3c 28 39 ba bb b3 22 2e bd ae b6 52 b8
       0.018313142 -0.005683083 -0.04251356 -5.0238035e-05
000280 d8 d6 66 3d 5a 0b d2 bd 1e db 80 3d e6 09 48 3b
       0.056357235 -0.102560714 0.06291793 0.0030523478
000290 73 59 38 3d 68 67 8b 3c f2 52 a6 bd 38 2c 82 bd
       0.04500718 0.017017081 -0.08121289 -0.0635609
0002a0 67 d4 1e bb 87 fc 8c bd 65 87 8b 3d 5c d3 ed 3c
       -0.0024235488 -0.06884103 0.06812934 0.029031448
0002b0 c7 18 3c bc bb a7 66 3d f4 ab 04 bc c5 b6 aa b9
       -0.011480517 0.056312304 -0.008097637 -0.000325611
0002c0 20 96 d9 bc 0d bd b1 3d 60 6f d3 3d 97 e0 bb 3d
       -0.026560843 0.08678637 0.103239775 0.091736965
0002d0 9d 35 95 3b 22 bf c9 3d 20 05 47 bd 3a 17 b5 3d
       0.0045535103 0.09850909 -0.048588872 0.08842321
0002e0 8c 98 17 3d e5 1f 39 3d bb 6a 6b 3d 5b 3c a3 bd
       0.037010714 0.045196433 0.057474833 -0.07970496
0002f0 91 f6 28 bc bf b3 c2 3d 7b 49 f0 bb 7c d3 bc 3d
       -0.010312692 0.0950694 -0.0073329783 0.09220025
000300 50 bd 58 3d 10 60 92 bb 78 bc 0c 3d ea f9 97 3b
       0.052914917 -0.004467018 0.034359425 0.0046379464
000310 f1 96 e4 3c 98 c4 c6 3b cc 6d a2 bd e8 cc b6 bd
       0.027904006 0.0060659163 -0.07931098 -0.089258015
000320 e5 02 ab bc 8c 1e e0 3d d5 87 e6 3b 93 2b b8 bd
       -0.020875404 0.10943326 0.0070352354 -0.08992686
000330 5a cd d9 3d 92 4c 76 bd ae f2 e6 bc c7 a2 72 3d
       0.10634871 -0.060131617 -0.02819189 0.059237268
000340 a7 b6 f9 3c 8c f6 2b 3d 15 cc 01 3d b6 71 36 bc
       0.030482603 0.041983172 0.03168877 -0.011135509
000350 a2 5b d9 bd 95 f0 10 3d b7 44 db bd 0a 67 f1 3c
       -0.10613181 0.035385687 -0.10706466 0.029468078
000360 88 41 12 bd 22 32 c2 bd 36 cf 1b bd 36 6d be 3d
       -0.035707027 -0.09482218 -0.03803941 0.09298174
000370 8b ef bd bd 91 df 4b 3d d2 62 da 3d 71 1f 3a bd
       -0.09274205 0.049773756 0.1066338 -0.04544014
000380 d7 e1 eb 3c 51 f8 d3 3c 67 e7 32 bd ad 27 47 3d
       0.028794212 0.025875242 -0.043677714 0.048621822
000390 8e 2e 02 bd 99 06 31 3b 18 73 f6 bd 3e 47 6d bd
       -0.03178268 0.002701199 -0.12033671 -0.05792927
0003a0 1b 6e f5 bd 79 f7 07 bd 92 60 60 bd 6e 90 43 3d
       -0.119838916 -0.033194993 -0.054779597 0.04774516
0003b0 74 73 fc bc e1 92 c6 bd e5 f2 07 3d 7e 36 ef bd
       -0.030816771 -0.09695984 0.033190627 -0.116803154
0003c0 36 b4 71 3d b0 4a e7 bd 4e c9 f0 bc 01 f9 c1 bc
       0.059009753 -0.112935424 -0.029392865 -0.023678305
0003d0 cd cd 4d bd 3b 24 98 bd 5b 75 88 3d 9e 99 38 bc
       -0.050245095 -0.074287854 0.06663009 -0.011267094
0003e0 54 ca fc bc 48 54 c9 bd 0d c3 01 be 3b 16 95 bd
       -0.030858196 -0.098305285 -0.12672062 -0.07279631
0003f0 5a 70 e9 bc 39 88 85 3d b4 87 b8 bd 86 12 92 bd
       -0.028495956 0.06520123 -0.09010258 -0.07132439

arith.constant21 f4 [512, 128]
000000 99 72 52 bd 25 95 7b 3c 9d 31 fe bc 20 ef cc bc
       -0.05137882 0.015355383 -0.031029517 -0.025016367
000010 f7 b3 8b bd fd 38 19 3d 1d ad 46 bd 7c 1d ab 3b
       -0.06821435 0.037407864 -0.048504937 0.0052220207
000020 39 76 b1 3c 92 16 6a 3d 58 7d 78 bc 6d 83 87 3c
       0.021662818 0.05715043 -0.015166603 0.01654216
000030 64 ef 29 bd 91 1f 80 bd c5 4b 04 3b 7a 22 83 bc
       -0.041488066 -0.06256021 0.0020186764 -0.01600765
000040 6f b9 5a bb bc c7 2a 3d 8e fb 8c 3d b7 0d 80 bc
       -0.0033374687 0.041694388 0.06883918 -0.01563154
000050 d6 f5 2d bd 6c 42 72 bc c2 93 c6 bd 8b 84 4f bc
       -0.042470776 -0.014786344 -0.09696151 -0.012665878
000060 74 49 57 bd 06 c3 cd bb 68 c9 09 3d df ac 20 bb
       -0.052560285 -0.006279352 0.03363934 -0.0024517102
000070 63 0b 0f bd 11 dd 96 bd ca 44 23 3c 1a 21 db 3b
       -0.03492297 -0.07366384 0.009965131 0.0066872956
000080 2c 47 3a 3d fa 04 99 ba 80 03 09 3c be 09 dc bc
       0.04547803 -0.0011674457 0.008362651 -0.026860114
000090 ac db ad bc 5a ed 6c 3d 82 aa c1 bc 9f 71 a1 bc
       -0.021222912 0.057843544 -0.023640875 -0.0197075
0000a0 6b 95 bb bd 60 6e 3c 3c e1 56 45 3d c8 6a d9 3c
       -0.091593586 0.011500925 0.048178557 0.026540175
0000b0 61 e1 64 bd 39 34 03 3c c1 0f 50 bd e9 b9 98 3d
       -0.055879 0.008008056 -0.050796274 0.074573345
0000c0 70 5a 31 3d f2 a0 d0 bd e6 9a 3a bd 88 4c bb 3d
       0.04329914 -0.10186948 -0.04555788 0.091454566
0000d0 a8 15 65 bd 69 da 43 3d 45 37 93 3d db 0a bd 3c
       -0.055928856 0.047815714 0.07188276 0.023076465
0000e0 15 4f e4 3c b2 71 8a bc 5f 59 0b bd 8e 99 f0 39
       0.02786974 -0.016899917 -0.034020778 0.00045890774
0000f0 34 1d 11 bc 8d 43 d2 3c a0 38 db bd ad 3d b3 bc
       -0.00885706 0.025666976 -0.1070416 -0.021879995
000100 70 7a d5 3c 07 ac 03 3c a9 81 7b bd a3 eb 23 bb
       0.02605936 0.00803662 -0.06140295 -0.0025012277
000110 e8 03 84 bd e8 11 3a 38 d9 c1 88 bc 8e 46 c4 bb
       -0.064460576 4.4362532e-05 -0.016693996 -0.005989856
000120 82 cd e2 bc 33 70 07 3d 19 97 9e bc 57 51 58 bd
       -0.027685884 0.033065986 -0.019359158 -0.052811947
000130 24 41 ec 3a 27 21 df 3c c4 0e 8d 3c 29 72 50 bc
       0.0018024785 0.027237488 0.017218955 -0.01272253
000140 2d 8c 8f 3b 7d f1 ea 3c 19 74 23 3d 10 f2 7f bd
       0.004380724 0.028679604 0.03990564 -0.06248671
000150 63 65 f6 3c 21 55 5d bd bd e8 6b 3d ef 6c 45 bd
       0.030077642 -0.054036263 0.057595003 -0.04819959
000160 c9 80 84 bc 1a 32 6a bd 37 c7 61 3d c9 42 84 bd
       -0.01617469 -0.057176687 0.055121627 -0.06458051
000170 c0 ca 4c bd 83 50 b3 3d 14 fb bc bc 86 e0 9d bc
       -0.049998045 0.08755591 -0.023068942 -0.0192721
000180 4f b5 08 bd 99 30 bc 3b 20 fd 31 3d be 93 e9 3d
       -0.033376034 0.005743098 0.04345429 0.11405133
000190 71 35 f2 bc 39 8d 87 bd e5 79 13 3c 89 b2 99 3b
       -0.029566498 -0.06618733 0.00900123 0.0046904725
0001a0 d0 62 35 bd 9c 05 9f bd c7 89 79 3d 43 45 4e 3c
       -0.044283688 -0.07764742 0.06092241 0.0125897555
0001b0 8a 65 77 3d c3 50 15 3c 0c ae 9b 3d 63 2a a0 3c
       0.06039957 0.009113493 0.07601556 0.019551462
0001c0 e9 25 97 3d f1 cb 1a bc c9 7d 97 3c 68 df f9 bc
       0.07380278 -0.0094480375 0.018492596 -0.030502036
0001d0 fe 13 97 ba cd 39 72 3d 70 66 3e b6 80 c6 15 3b
       -0.0011526344 0.059137154 -2.8371833e-06 0.002285391
0001e0 b0 dd dc bc 9d fd 48 bc 67 04 35 3c 72 a3 c0 3d
       -0.026961178 -0.012267497 0.011048413 0.09406175
0001f0 fb 11 8b 3d 7c 64 09 3d c4 85 dd 3c 0c dd d6 3a
       0.06790539 0.033543095 0.027041323 0.0016392781
000200 3a da d4 3c b0 7f 27 3d bd ca 40 bd 5e dd 1c 3d
       0.025982965 0.040893257 -0.047068346 0.03829705
000210 42 36 62 3d 0a 3e 8b bd 3e 79 fd bc 2f 2a 2c 3d
       0.055227526 -0.067989424 -0.030941602 0.042032417
000220 a6 a5 a8 3c e5 80 0d 3d fe 99 d2 3c ac 77 cf 3c
       0.0205868 0.03454675 0.025708195 0.025325619
000230 f4 48 fc ba 95 2b 3e 3d 0b dc c0 3d d7 49 5a bb
       -0.0019247816 0.04642828 0.0941697 -0.0033308172
000240 b6 eb 39 3d e5 90 38 bd 75 0f 7d bd 66 09 95 bd
       0.045390807 -0.045060057 -0.06178232 -0.07277183
000250 ae 13 48 3c 8f 90 b9 3c 7e 28 11 3d 5c cb 35 3c
       0.012211723 0.022651939 0.035439007 0.011095848
000260 b0 62 73 bd c7 52 0d bd 10 22 0e bd ab 2e a2 3c
       -0.059420288 -0.03450277 -0.034700453 0.019797644
000270 1d 33 61 bd d2 7d 61 bc 32 5c 80 3a 4c 8c f9 bc
       -0.054980386 -0.013762908 0.0009793101 -0.030462407
000280 99 b6 d1 bc 48 56 cb 3c 8e 59 ae bd 77 d0 9e 3c
       -0.025599765 0.024821416 -0.08513175 0.019386513
000290 8b f9 16 bd a1 13 8a 3d c5 8e ce 3d 92 e3 f5 bc
       -0.036859076 0.06742025 0.10085825 -0.03001574
0002a0 8c 34 9c bd f3 55 4f 3c 76 18 96 3d 3a cd 2b bd
       -0.0762721 0.012654769 0.07328884 -0.041943766
0002b0 62 f5 ef 3c f9 63 d8 3d 03 e1 5e bd 27 2f 29 3a
       0.029291812 0.10565943 -0.054413807 0.00064538646
0002c0 a4 b3 68 3c e9 91 74 3d 86 44 1e 3d 49 c4 0d bd
       0.014202986 0.059709463 0.038639568 -0.03461102
0002d0 eb ff 0a 3c 5f 97 37 3d 28 b2 23 bd d7 4a 9a 3c
       0.008483867 0.044822093 -0.039964825 0.018834515
0002e0 ab 2f a3 3d f6 72 80 bd 9f bc 88 bd a1 07 13 3d
       0.07968076 -0.06271927 -0.066766016 0.035895947
0002f0 c1 75 33 bd 2b 87 b3 bc 91 55 5d 3d 27 8d d4 3d
       -0.04381347 -0.021915039 0.05403668 0.10378485
000300 6a c7 ac bc f5 ea 91 3c 66 61 d4 bc ab d7 8e bd
       -0.021091182 0.017812232 -0.02592535 -0.06974729
000310 ab 5a 83 3d 2a ce de 3c af 62 8f bc db 4a 40 bc
       0.06413778 0.027197916 -0.01750311 -0.011736597
000320 35 53 99 bd fb 50 22 bd 92 dc ff bc 26 8b 3e bb
       -0.074865736 -0.03962801 -0.031233106 -0.0029074638
000330 1c f1 83 3d 3b f2 65 bd 82 60 53 bd ab d9 0e bc
       0.06442472 -0.056139212 -0.05160571 -0.008718888
000340 4d df 96 3d ca f7 40 bd 7d 63 f2 3c 7c 42 9f 3c
       0.0736681 -0.04711131 0.029588455 0.019440882
000350 a7 59 1c bd 7e 2c 92 3c ec 17 4c 3b db 3e e5 3b
       -0.038171437 0.017843481 0.0031142188 0.0069960183
000360 b6 eb 78 bd 91 35 c7 bd f6 26 16 bc 2c a8 c9 3c
       -0.060771666 -0.09727014 -0.009164562 0.024616323
000370 04 21 82 bc 57 4b b2 bc 0e 67 70 3d 64 36 3f bc
       -0.015884884 -0.02176444 0.05869203 -0.011670683
000380 2e 76 3d bd 29 b9 81 3c 3a 65 ae ba ef ca 2a bb
       -0.046255283 0.015835362 -0.0013305314 -0.00260609
000390 f2 86 06 bd 6f e7 f3 3c 36 f2 4c bd 21 fa 81 3d
       -0.032843538 0.029773442 -0.050035678 0.063465364
0003a0 e1 e6 1a 3c 8e 89 bf bc d3 82 e1 3c b2 d4 e6 3b
       0.00945446 -0.02338102 0.027528202 0.007044398
0003b0 21 ee 21 3d 7f 6a df bd a2 8a 31 3d 90 97 00 3b
       0.039533738 -0.109089844 0.0433451 0.0019621588
0003c0 ac d9 a9 bd 7d b4 6e bd 77 81 25 3d 32 39 12 3d
       -0.08293471 -0.058277596 0.04040667 0.035699077
0003d0 75 54 c5 bc fd c2 62 3b 17 92 5a bd 1e 07 b5 bd
       -0.024088124 0.0034601085 -0.05336198 -0.08839248
0003e0 3f ac 15 3d bd 27 c6 3c 99 b5 d7 bd 77 22 7b bb
       0.03654122 0.02418887 -0.10532684 -0.0038320103
0003f0 9b 51 fd bb 6a 78 90 3d 29 86 f2 bc 55 6c 05 bb
       -0.0077306754 0.07054217 -0.029604988 -0.002035876

sequential_1/lstm_1/while/lstm_cell_1/add_1/ReadVariableOp f4 [512]
000000 1a b6 68 3c 90 20 44 3b c4 23 b0 bb e9 78 f0 3c
       0.014203573 0.0029926635 -0.0053753573 0.02935453
000010 e7 4c 9b 3c 6f 76 cc 39 2b 52 cd 3b e8 c5 1c 3c
       0.018957568 0.00038998152 0.0062658987 0.009568669
000020 56 b7 be 3b cf 2f 98 bb 13 12 72 3c 38 93 90 ba
       0.005820195 -0.004644371 0.014774817 -0.0011030203
000030 be f0 89 3c 8f e4 07 bc f2 81 26 3b 5d ad 20 3c
       0.016838428 -0.008294239 0.0025407043 0.009806958
000040 50 93 c4 3a d6 6e 3a 3a 45 c4 c8 3b 8e e1 6a 3c
       0.0014997516 0.0007111853 0.006126913 0.014336003
000050 55 1a a5 ba 00 05 92 3c 2b 24 5c 3a af 9f 81 3b
       -0.0012596349 0.01782465 0.00083977234 0.0039558033
000060 a9 07 ce 3b a2 cd 9e 3c 99 67 94 3c 59 e3 fa 3b
       0.0062875343 0.019385163 0.018115805 0.0076564965
000070 a4 3b 34 3c 31 13 29 3c 9e 30 54 3c 58 5b 20 3b
       0.011000548 0.010319517 0.012951044 0.0024468508
000080 b6 70 e3 3b 3d 5a 8e 3c 7f 35 8d 3b ef 27 23 3c
       0.0069409264 0.017377013 0.0043093557 0.009958251
000090 2a dc 5f 3c 52 61 62 3c 05 e7 dd 3b 01 dc 70 3c
       0.013663331 0.013817148 0.0067719244 0.0147008905
0000a0 c3 31 63 3c 6f 97 48 3c 1d 59 ab 3c 4e 4e 87 3c
       0.013866845 0.012243136 0.020916516 0.01651683
0000b0 f4 47 d5 3b 2c e3 ea 3a 23 36 04 3c ba f5 a6 3c
       0.0065088216 0.0017920486 0.008069548 0.020380843
0000c0 c8 d1 3b 3c 31 14 e6 3b 7e 0e 6f 3c 55 fa bc 3c
       0.01146359 0.00702145 0.014590858 0.023068586
0000d0 b0 89 0e 3b 91 38 95 3b 38 15 64 3b 9f ab 86 3c
       0.0021749549 0.0045538624 0.0034802686 0.016439257
0000e0 7a 49 00 3b 06 e6 b7 3c 86 28 30 3c e1 ca d7 3b
       0.0019575045 0.02244855 0.010751849 0.0065854643
0000f0 5d 4d 85 3c 86 0c ba bb f0 58 8d 3c 6b dc 9a 3c
       0.016272241 -0.0056777624 0.017254323 0.018903932
000100 7a 0b 86 3c 37 0f 82 3c 1e 2c 95 3c d9 8c b7 3c
       0.016362894 0.015876396 0.018209513 0.022406029
000110 5d a7 32 3c 61 0d 8f 3c 9d f2 0c 3c 6b 44 a0 bc
       0.01090416 0.017462434 0.008602765 -0.019563874
000120 27 ae db 3b d3 cc 2b 3c d5 be a7 3b 68 26 af 3b
       0.00670411 0.010485846 0.0051191845 0.0053451546
000130 23 9e a6 3c cd 63 cd 39 98 65 67 3c 15 69 eb 3b
       0.020339077 0.00039175004 0.014123343 0.0071841576
000140 41 78 15 3c 3a 59 d2 ba 6b f6 d9 bb d5 a7 09 3c
       0.009122909 -0.001604832 -0.0066516898 0.008401831
000150 f4 ed 4b 3b 17 01 b9 3c 18 61 a6 3b 55 41 43 bb
       0.0031117173 0.022583527 0.0050774924 -0.002979358
000160 77 0b 64 3c 67 f9 60 3c 40 6c 4b 3c c4 d6 4a 3c
       0.013918749 0.013731337 0.0124159455 0.012380306
000170 1f f2 ad bb 4d e0 83 3b 06 e2 98 3c e9 64 0b 3c
       -0.005308404 0.0040245415 0.018662464 0.008507946
000180 53 bc 34 3c 7e bc 34 3c 46 0c 72 3c de b1 d0 3a
       0.011031228 0.011031268 0.014773434 0.0015922149
000190 6d bd 48 3c a0 2b 9a 3c 8e 59 ea 3a 85 c3 16 3c
       0.012252194 0.01881963 0.0017879473 0.009201889
0001a0 6b 47 28 3b e1 12 f3 3b 6c 5c d2 3b 06 6a 51 3c
       0.0025677334 0.007418022 0.006419709 0.012781626
0001b0 94 0a 13 3c f9 89 b9 3c 8e be 04 3b 70 37 7f 3c
       0.00897469 0.022648798 0.002025518 0.015577182
0001c0 ff c7 3f 3c d5 f7 11 3c 43 e1 8e 3c 9a fe 48 3c
       0.011705398 0.008909185 0.017441398 0.012267733
0001d0 2d 2b 98 bb f4 3c 4d 3c e2 39 59 3c 62 af b6 3c
       -0.004643819 0.012526739 0.013258429 0.022300426
0001e0 22 c6 9a 3c c6 4a 95 ba 4d d2 cb bb b2 c5 f5 3b
       0.018893305 -0.0011390082 -0.006220138 0.0075003738
0001f0 53 da 17 3b 7a a7 1c 3c b7 1b f2 3b a0 5c 5e 3c
       0.0023170903 0.009561414 0.007388558 0.013571888
000200 81 db 81 3f 81 63 80 3f 71 7c 7e 3f a0 c6 83 3f
       1.0145112 1.0030366 0.9940863 1.029499
000210 50 7c 82 3f 80 05 80 3f aa a3 80 3f 19 48 81 3f
       1.0194187 1.0001678 1.0049946 1.0100127
000220 96 d8 80 3f 0d e3 7e 3f 42 ca 81 3f 7c 12 80 3f
       1.0066097 0.995652 1.0139849 1.0005641
000230 64 41 82 3f f9 b7 7d 3f c1 bf 80 3f 7a 41 81 3f
       1.0176206 0.99108845 1.0058519 1.0098107
000240 cd 6e 80 3f 3f 12 80 3f 30 ed 80 3f be e6 81 3f
       1.0033814 1.0005568 1.0072384 1.0148542
000250 46 ce 7f 3f 09 54 82 3f 19 34 80 3f 86 c3 80 3f
       0.99924123 1.0181895 1.0015899 1.0059669
000260 a8 e8 80 3f c4 5b 82 3f 85 33 82 3f c8 1a 81 3f
       1.0071001 1.0184255 1.0171973 1.0086298
000270 95 6b 81 3f 15 67 81 3f 9a a4 81 3f 8b 36 80 3f
       1.0110956 1.0109583 1.0128357 1.0016645
000280 d5 ec 80 3f 19 29 82 3f 2e 5e 80 3f 82 77 81 3f
       1.0072275 1.0168792 1.0028741 1.0114596
000290 b0 6b 81 3f c2 c6 81 3f a5 e1 80 3f b0 d5 81 3f
       1.0110989 1.0138781 1.0068861 1.0143337
0002a0 c0 d5 81 3f 8f 87 81 3f 89 b1 82 3f 3d fb 81 3f
       1.0143356 1.0119494 1.021043 1.0154797
0002b0 98 ec 80 3f f1 6e 80 3f 10 1c 81 3f 0d 9e 82 3f
       1.0072203 1.0033857 1.0086689 1.0204483
0002c0 c6 6c 81 3f 60 f6 80 3f ba d1 81 3f bf eb 82 3f
       1.011132 1.0075188 1.0142128 1.0228194
0002d0 ae 70 80 3f 19 bd 80 3f 05 a5 80 3f 61 29 82 3f
       1.0034387 1.0057708 1.005036 1.0168878
0002e0 56 62 80 3f 4e d5 82 3f a6 66 81 3f 22 f0 80 3f
       1.003001 1.0221345 1.0109451 1.0073283
0002f0 22 f9 81 3f 81 af 7e 3f 0c 43 82 3f 3b 64 82 3f
       1.0154154 0.9948655 1.0176711 1.0186838
000300 88 10 82 3f a7 dc 81 3f 7f 3f 82 3f 20 d2 82 3f
       1.0161295 1.0145463 1.0175627 1.0220375
000310 df 77 81 3f 08 3b 82 3f 00 47 81 3f 1e 54 7b 3f
       1.0114707 1.0174265 1.0099792 0.9817523
000320 db f5 80 3f 5f 59 81 3f 16 81 80 3f da a7 80 3f
       1.0075029 1.0105399 1.0039394 1.0051224
000330 22 8c 82 3f 51 16 80 3f a2 ca 81 3f 7b 03 81 3f
       1.0199015 1.000681 1.0139964 1.0079187
000340 4b 31 81 3f 28 7b 7f 3f 35 71 7e 3f aa 26 81 3f
       1.0093168 0.99797297 0.9939149 1.0089924
000350 6f 7e 80 3f 1b d6 82 3f 1c b8 80 3f 5a 7c 7f 3f
       1.0038584 1.022159 1.0056186 0.9979912
000360 9a e4 81 3f 4d db 81 3f ff 9b 81 3f a0 9c 81 3f
       1.0147889 1.014505 1.0125731 1.0125923
000370 00 a1 7e 3f ec d8 80 3f 48 76 82 3f 02 29 81 3f
       0.99464417 1.0066199 1.0192347 1.009064
000380 b9 52 81 3f 19 79 81 3f 86 e5 81 3f 6e 42 80 3f
       1.010337 1.0115081 1.014817 1.0020273
000390 ce c2 81 3f 69 80 82 3f 23 44 80 3f d1 57 81 3f
       1.0137575 1.0195438 1.0020794 1.0104924
0003a0 8d 56 80 3f e4 42 81 3f 0b f0 80 3f 3b 96 81 3f
       1.0026413 1.0098538 1.0073255 1.0123972
0003b0 95 37 81 3f 82 d7 82 3f 56 30 80 3f 94 b9 81 3f
       1.0095087 1.0222018 1.0014751 1.0134759
0003c0 d2 a3 81 3f 74 0f 81 3f db 11 82 3f 68 8e 81 3f
       1.0128119 1.0082841 1.0161699 1.0121584
0003d0 c3 d0 7e 3f c0 b6 81 3f 1e 48 82 3f 10 c3 82 3f
       0.99537295 1.0133896 1.0178258 1.0215778
0003e0 78 75 82 3f 66 f0 7f 3f e4 60 7e 3f e4 12 81 3f
       1.0192099 0.99976194 0.99366593 1.008389
0003f0 3f 51 80 3f 77 15 81 3f bd 04 81 3f 72 c4 81 3f
       1.0024794 1.0084676 1.0079571 1.0138075

arith.constant25 f4 [256, 128]
000000 d4 57 e9 3b 54 e4 af 3d fc 05 45 bd 29 81 a9 3d
       0.0071210656 0.08588472 -0.04810141 0.082765885
000010 7e c5 52 bd 53 e6 9c 3c e5 c3 a6 bd bc 4e 1c 3d
       -0.051457874 0.019152796 -0.08142833 0.038161024
000020 23 df 67 bc 60 91 4b bd d4 48 27 bd e4 f3 ad bc
       -0.014152321 -0.049699187 -0.04084094 -0.02123446
000030 f4 ef c6 bd 29 34 59 bd 6f e7 0f bd ea 06 a5 3d
       -0.09713736 -0.05302826 -0.03513282 0.080579594
000040 5b 3d 9e 3d 1d fc 85 bd c4 c3 61 bd 15 47 cd bd
       0.077265464 -0.065422274 -0.055118337 -0.100233234
000050 9f 2d 8a 3d bb 83 99 bd 94 6e ac bd 97 c4 8a 3d
       0.06746983 -0.07495829 -0.084195286 0.06775778
000060 99 1b ab 3c 84 1c 92 3d 1f 07 f8 3b 66 9a 06 3d
       0.020887183 0.07134345 0.0075692083 0.03286209
000070 7a 0a 96 3d 8f 7c ab bd d8 8c 99 3d 2b dd 94 bd
       0.07326217 -0.08373367 0.07497567 -0.07268747
000080 2f ab 9c bd 14 b2 e9 bd e6 2a 43 3c 88 72 b7 bd
       -0.07649838 -0.11410919 0.011912083 -0.08957392
000090 79 2c 27 3d 89 e0 02 be ab bc a8 3d 67 57 a0 bd
       0.040813897 -0.12780966 0.082391106 -0.07829171
0000a0 92 3b 1b 3d fa 64 08 bd 46 2f dd 3d 06 c6 15 3c
       0.037898608 -0.033299424 0.10800032 0.009141451
0000b0 4e e3 b5 3d 8c d7 88 bd 95 6f 55 3d 34 be d1 bd
       0.088812456 -0.06681737 0.052108366 -0.102413565
0000c0 cf 3f 81 bd 2f 61 af bc 98 b2 8b bc 40 0a 68 3d
       -0.06310999 -0.021408645 -0.017052934 0.0566504
0000d0 d8 7c 9e 3c 57 55 2e bd 37 fd 2e bd f6 86 dd bd
       0.01934664 -0.042561855 -0.042721953 -0.108167574
0000e0 f7 67 bb 3d 6f fc b5 bd 41 59 76 3d f3 f3 3e 3c
       0.09150689 -0.088860385 0.060143713 0.011654842
0000f0 8a d3 79 3d 41 54 14 3d ed a7 a6 3d 9f 39 0d 3d
       0.060992755 0.036213163 0.08137498 0.03447878
000100 f3 c5 71 3d 0b 50 2a 3d c2 6b ed 3d 63 a0 77 3d
       0.05902667 0.04158024 0.11592819 0.06045569
000110 77 40 51 3d af 9e 92 bd 7a 5a ca bc 7b 6b 01 3e
       0.05108687 -0.07159173 -0.024701346 0.12638657
000120 db 17 db bb 57 87 c8 3d 30 b6 17 bc b2 6b e8 3d
       -0.0066861934 0.09791439 -0.0092597455 0.11348666
000130 3c 5c 92 bd 8e 93 cc bc 28 5a 92 bd 0e ed 98 bd
       -0.071464986 -0.024972703 -0.07146102 -0.074670896
000140 0e ba ae 3d 70 84 1b bd 4e db 78 3d d2 b9 78 3d
       0.08531581 -0.0379681 0.06075602 0.060724087
000150 0d 45 3e bd 99 0e e3 3d b9 cc db 3d 99 4d e2 bc
       -0.04645257 0.11086769 0.10732407 -0.027624892
000160 23 14 d9 3c f5 87 1a 3a c5 65 88 bc 52 07 e6 3c
       0.02649886 0.0005894893 -0.01665009 0.028079662
000170 de 6b e8 3d 1d b9 6b bd ed 00 dc 3a 66 1c 8b 3c
       0.11348699 -0.057549585 0.0016784944 0.016981315
000180 9f 18 06 be 52 2a 8b bb aa e3 e0 bc aa 84 0c 3d
       -0.1309533 -0.0042469883 -0.027452309 0.034306206
000190 bd 57 c7 bd 25 56 12 3e fa 7d 74 3d 5a 6e 0c 38
       -0.097335316 0.14290674 0.059690453 3.3481374e-05
0001a0 52 c4 cc bd c2 4c 5c bd 5c 68 b4 3d 2d 8e b8 bd
       -0.09998383 -0.05378414 0.088089675 -0.09011493
0001b0 4d a2 01 bd c3 b2 dc 3c d3 a0 77 bd ed be ab 3c
       -0.031648923 0.026940709 -0.06045611 0.020965064
0001c0 dc e6 0a 3d 7e a6 0f bd 75 36 1d 3d da d6 df bd
       0.03391157 -0.03507089 0.038382012 -0.109296516
0001d0 e7 49 a1 bd 13 4f 7e bd 03 64 99 3b 09 60 02 3e
       -0.07875424 -0.06208713 0.004681112 0.12731947
0001e0 b1 3a 0d be 6c 9a cd 3d b1 a7 34 bd 09 44 65 bd
       -0.1379192 0.10039219 -0.044105235 -0.055973087
0001f0 77 56 be bd bb 89 97 bd 47 07 ca bd 6d b0 6b bd
       -0.092938356 -0.07399317 -0.09864669 -0.0575413
000200 cc f3 73 3d c4 74 80 3d fd b6 1f bd 96 bb c0 3c
       0.059558675 0.06272271 -0.03899287 0.023526948
000210 07 cd 99 bd 02 a6 ad bd 08 d6 a1 bc 27 18 9a bd
       -0.07509809 -0.08478929 -0.019755378 -0.07524138
000220 61 a7 12 3c f1 d9 b3 3d 47 74 9e bd 46 91 2b 3d
       0.008951039 0.087818034 -0.07737022 0.04188659
000230 86 72 59 bd a9 ec e6 3d 8f d6 49 bd 7f a1 95 bd
       -0.053087734 0.11275608 -0.049276885 -0.073061936
000240 85 73 81 bc f4 87 04 be 28 5d fe bc 35 1c c6 3d
       -0.015802154 -0.12942487 -0.03105028 0.09673349
000250 07 ba a7 3d 72 0e d6 3d 23 1d 43 bd 61 c5 ec bd
       0.08189779 0.10451974 -0.04763521 -0.115610845
000260 a9 05 a0 bd 3f cf 8e bd c9 25 03 3e 31 66 42 3d
       -0.078135796 -0.06973123 0.12807383 0.04746074
000270 6e 8e bc bd 3f 31 df bd e7 41 7a bc 10 5f bb bd
       -0.09206854 -0.10898065 -0.015274501 -0.09148991
000280 da 47 62 bd 6d e3 43 3d ad 6c d5 3c 90 20 e0 3c
       -0.055244304 0.047824312 0.026052797 0.027359277
000290 d2 94 66 3c 0c 4e 06 3d 3f d7 95 3d 46 21 9c 3d
       0.014073567 0.032789275 0.073164456 0.07623534
0002a0 20 c2 f1 bd fa e4 ca 3d 0a 6b e7 bd e6 d8 89 3d
       -0.118046045 0.09906955 -0.11299713 0.06730823
0002b0 e0 da 8a bd 5f 21 6a bd ea 31 91 3d fd 98 3c 3d
       -0.06780028 -0.05716073 0.070895985 0.04604434
0002c0 43 22 a6 3c 7f a4 03 be 12 5f 85 3c 9f e8 1d bd
       0.02028001 -0.12855719 0.016280685 -0.038551923
0002d0 aa 1f e9 3d c7 ae dc bc ee 4e bc 3d 4a 06 be 3c
       0.113829926 -0.02693881 0.09194742 0.023196358
0002e0 a0 b5 04 bd 16 db 93 3c d0 39 dd 3c 67 8d 8f 3d
       -0.032399774 0.018048804 0.027005106 0.07009392
0002f0 7f 73 9c bd 05 7e b0 bd 04 cc 9e 3d 15 8d df bd
       -0.07639217 -0.08617786 0.07753757 -0.10915581
000300 85 dd e1 3d 08 2a 9f bd 23 9b 41 3c ce bc f9 3d
       0.110285796 -0.07771689 0.011816773 0.12194215
000310 48 c3 0a 3e 12 c1 0f bd a8 95 8b 3c c2 b7 8b 3d
       0.13551056 -0.035096236 0.017039135 0.068221584
000320 54 cc de 3d 4f ad 5b 3d 8a 24 27 3d 28 04 1b 3d
       0.10878816 0.053632077 0.04080633 0.03784576
000330 45 b1 d5 3d 63 9c 90 ba 05 fc 39 bc 14 74 b3 bb
       0.10434202 -0.0011032935 -0.01135159 -0.005476484
000340 f8 db 90 3d 9e 1c e7 bd c4 9f f7 3c c7 48 9f bc
       0.07073206 -0.11284755 0.03022755 -0.019443883
000350 b3 e7 c3 bd 22 24 89 bc b8 9a c6 bd 87 ea aa bc
       -0.095656775 -0.016740862 -0.09697479 -0.020863784
000360 91 9d f7 3d 74 31 47 3d c3 70 ac 3d b1 08 05 be
       0.120906 0.048631147 0.08419945 -0.12991597
000370 07 c6 47 bc 52 c8 c5 bb fa 77 e0 bd bd ca c2 bd
       -0.0121932095 -0.006035843 -0.10960384 -0.095113255
000380 f0 dd a5 3d d1 a6 84 bd 32 ff ed bc 00 91 c0 bc
       0.08098972 -0.0647713 -0.02905235 -0.023506641
000390 dc fc 4a 3c 58 8f c1 3d d7 23 52 3c 50 67 00 3e
       0.012389388 0.09451169 0.012825928 0.1253941
0003a0 8d a5 b6 3d a0 6b 08 be d9 75 28 bc 32 15 35 3d
       0.08918295 -0.13322306 -0.010282003 0.044209667
0003b0 be bc 2d 3d 42 7e 99 bd de c4 f3 bc 4b 7e 88 bc
       0.042416327 -0.07494785 -0.02975696 -0.016661784
0003c0 c2 eb 7c 3b 63 40 10 bd 4c 87 7c bd 68 4f f9 bd
       0.003859267 -0.035217654 -0.061652467 -0.12173349
0003d0 0d be f8 3b ab 9a 0e 3d 57 b8 f3 3d 32 be 8e bd
       0.007591015 0.03481547 0.119003944 -0.069698706
0003e0 b7 41 a5 3c 3d 38 e4 bd 05 76 99 3d d2 b3 b7 bb
       0.020172937 -0.11143539 0.074932136 -0.005606153
0003f0 87 33 c0 3c 9a d7 bc bd ae 3e 4a bd 78 fd ee bd
       0.02346207 -0.0922081 -0.049376182 -0.11669439
