AI/dynamic-gesture/app/models/static_gesture_mk4_v1_model_float16.tflite (tflite, 93116 bytes, 8 tensors)

arith.constant2 f2 [20]
00000000: f1be b839 cdbf 40b8 feb8 9e3e 833e 56b1
00000010: 3240 0c29 ea3b 5135 5abe 883e 74ae f7b0
00000020: ddb2 d8bd f014 9bb7
-1.735 0.715 -1.95 -0.5312 -0.624 1.654 1.628 -0.1667
2.098 0.03943 0.9893 0.3323 -1.588 1.633 -0.1008 -0.1552
-0.2145 -1.461 0.001205 -0.4753

arith.constant3 f2 [128]
00000000: 5ba4 48b0 be2d 7ca0 c7aa e7a2 0000 5034
00000010: 2d2e 7fa4 c431 cbb1 d8a9 d8a5 08a8 36b0
00000020: f4ac 562f 4db0 98ab 0000 7f28 0da9 79b1
00000030: 5da8 f331 e89e 9fa0 f433 8fa5 512c 8ba5
00000040: 04a6 7ea4 979c 2731 65a4 3f9e d3a0 b832
00000050: eca2 6334 03aa 06a9 0000 1e9e 5a34 1a34
00000060: d8a2 bcac a236 f125 38ab 9331 83a4 2bae
00000070: afae 309f 0629 8131 48aa 0328 90a3 0da1
00000080: 1bb0 c6a8 7ea5 b4a3 c5a7 75a9 7da0 b0a4
00000090: 5ba0 6b89 4c33 b9a8 81a7 c6a3 902b 40a6
000000a0: f934 62a2 84a7 34aa 52a5 5a2c 00ac 87a6
000000b0: 10a3 86a9 7a32 032c 7430 202c b2b1 0fa8
000000c0: 75ac aea8 30b0 3aab 2eae fba1 dea4 4cab
000000d0: 3aa4 bea6 6190 a530 c4a4 0fa8 08b5 2fa7
000000e0: d420 269e bda4 07b1 dea8 16b0 41ad 11a8
000000f0: 4131 90a4 1ea8 31a8 b5a5 e2a0 16a1 78a8
-0.01701 -0.1338 0.0897 -0.00876 -0.05295 -0.01348 0.0 0.2695
0.0965 -0.01756 0.1802 -0.181 -0.04565 -0.02283 -0.0315 -0.1316
-0.0774 0.1146 -0.1344 -0.05933 0.0 0.03513 -0.03946 -0.171
-0.0341 0.1859 -0.006744 -0.009026 0.2485 -0.02171 0.06744 -0.02165
-0.0235 -0.01755 -0.004482 0.161 -0.01717 -0.0061 -0.00942 0.21
-0.01352 0.2742 -0.04697 -0.03925 0.0 -0.005974 0.272 0.2563
-0.01337 -0.074 0.4146 0.02321 -0.0564 0.1742 -0.01762 -0.0964
-0.10443 -0.00702 0.03925 0.172 -0.04907 0.03134 -0.01477 -0.009865
-0.1283 -0.0373 -0.02145 -0.015045 -0.03035 -0.04263 -0.008766 -0.01831
-0.00851 -0.0001653 0.228 -0.0369 -0.02931 -0.01518 0.05908 -0.02441
0.3108 -0.01247 -0.02936 -0.04846 -0.02078 0.068 -0.0625 -0.0255
-0.013794 -0.04315 0.2024 0.0627 0.1392 0.06445 -0.178 -0.0317
-0.06964 -0.03656 -0.1309 -0.05646 -0.09656 -0.01168 -0.01901 -0.057
-0.01651 -0.02634 -0.0005345 0.1451 -0.01862 -0.0317 -0.3145 -0.02806
0.00943 -0.006004 -0.01851 -0.1571 -0.03802 -0.1277 -0.0821 -0.03177
0.1642 -0.01782 -0.03217 -0.03275 -0.0223 -0.00954 -0.00993 -0.0349

arith.constant4 f2 [128, 128]
00000000: 3731 2231 4232 d1b0 373b 8d2c 2bbb 18b2
00000010: 822f 0334 8631 4fb7 9337 c2b3 41b8 a22d
00000020: ee34 ae1e 7da3 f236 3ab7 5236 99a9 1c38
00000030: 86b8 fea6 fb30 55b0 fdb6 3d32 0731 37a4
00000040: 6f37 dfb0 8631 f932 8e31 b6b4 0ebc 1140
00000050: 75b8 162d 8abc 41bc 4ab5 25ab 93b8 d2a9
00000060: 7cb6 cab5 e5bd 8735 bfbd 32b5 7339 b3a4
00000070: 9bb2 c42e 052c 612d 002b b333 7cae 0ba8
00000080: e038 2c30 e8b5 77b8 3eb8 aeb5 cba8 1c2f
00000090: abb4 9624 193b 672e 5ab1 d934 a8ad 46b5
000000a0: 1c35 dbb0 7c32 3aaa 36ab 7aac 1fb0 87b5
000000b0: 1f38 6c37 05b7 833a 5029 522a 1da6 73bc
000000c0: ad35 5630 0c30 61ae 86b4 99a0 14ae 0e3a
000000d0: d725 6ab8 6927 f7ab ebac 68ae e3b3 8e1a
000000e0: 4b34 f6af bda5 6e2f 23af 9839 dab4 7636
000000f0: c921 a1ad d331 6bb0 54a8 09bc 9036 85b9
00000100: 0534 d635 38b1 2430 2b34 b3ae b8be 48b0
00000110: 1d30 d836 d0b6 ecb7 f529 53c1 c530 932d
00000120: 50bd aab0 a32f b736 e22c 123d ad2a 41c4
00000130: a835 f4bf b3bb 91c0 d23b e736 de3f 7932
00000140: e1ba f62f 9d28 72c0 c238 cf36 7fb7 29b6
00000150: fda5 4ca9 f519 27a8 3e35 e7ad 9532 d82e
00000160: 7534 33b4 b52f 792c df39 3d2a d0bc 9cb6
00000170: 5336 6fb5 c430 a135 ab36 36ab 6cb3 4523
00000180: 00b6 a830 3833 002a d4b2 481e b3b8 bc2d
00000190: 44ac cbaa 90ba 1ebd 86aa 68bf c333 9235
000001a0: d9bc 3c39 4bb9 613b e930 beac a3af 67c2
000001b0: 2835 b83d dc39 1539 18a2 17c4 1b2a 8bb6
000001c0: ce2e c8a8 bf38 7b35 f7b3 8fbd db29 062b
000001d0: 132c 1fc4 b7ac d53d d32d 6836 00ad a9aa
000001e0: e23b d430 0630 23ad 1338 76c0 123a a2bc
000001f0: 37be e922 e4c1 282f ac2c aabc d4b6 86b9
0.163 0.1604 0.1956 -0.1505 0.902 0.0711 -0.896 -0.1904
0.1173 0.2507 0.1726 -0.4568 0.4734 -0.2424 -0.5317 0.088
0.308 0.006523 -0.014626 0.434 -0.4517 0.395 -0.04373 0.5137
-0.5654 -0.02731 0.1556 -0.1354 -0.4368 0.195 0.1571 -0.01646
0.4646 -0.1522 0.1726 0.2179 0.1736 -0.2944 -1.014 2.033
-0.557 0.07947 -1.135 -1.063 -0.3306 -0.05582 -0.572 -0.04547
-0.4053 -0.3618 -1.474 0.3455 -1.437 -0.3247 0.681 -0.01836
-0.2064 0.1057 0.0628 0.08405 0.0547 0.2406 -0.1013 -0.0316
0.6094 0.1304 -0.3691 -0.558 -0.5303 -0.355 -0.03745 0.1111
-0.2917 0.01791 0.887 0.10004 -0.1672 0.303 -0.0884 -0.3296
0.3193 -0.1517 0.2026 -0.04865 -0.05634 -0.06995 -0.1288 -0.3455
0.515 0.4639 -0.4387 0.814 0.0415 0.04938 -0.02388 -1.112
0.3547 0.1355 0.1265 -0.0997 -0.2827 -0.00898 -0.095 0.757
0.02281 -0.552 0.02895 -0.06223 -0.07684 -0.1001 -0.2465 0.0032
0.2683 -0.1244 -0.02242 0.1161 -0.1115 0.699 -0.3032 0.4038
0.0113 -0.08795 0.182 -0.1381 -0.0338 -1.009 0.4102 -0.69
0.2512 0.3647 -0.1631 0.1294 0.2605 -0.1047 -1.68 -0.1338
0.1285 0.4277 -0.4258 -0.495 0.04654 -2.662 0.149 0.0871
-1.328 -0.1458 0.1193 0.4197 0.0763 1.268 0.05215 -4.254
0.3535 -1.988 -0.9624 -2.283 0.9775 0.4314 1.967 0.2023
-0.86 0.1244 0.03604 -2.223 0.5947 0.4255 -0.4685 -0.385
-0.02339 -0.04138 0.002909 -0.03244 0.3276 -0.0922 0.2057 0.10693
0.2786 -0.2625 0.1204 0.0699 0.734 0.04874 -1.203 -0.413
0.3953 -0.3396 0.1489 0.3518 0.4167 -0.05634 -0.2319 0.0142
-0.375 0.1455 0.2256 0.04688 -0.2134 0.006134 -0.5874 0.0896
-0.06665 -0.05307 -0.8203 -1.279 -0.05096 -1.852 0.2426 0.3481
-1.212 0.6543 -0.6616 0.9224 0.1534 -0.0741 -0.1193 -3.201
0.3223 1.43 0.7324 0.6353 -0.0119 -4.09 0.0477 -0.409
0.1063 -0.03735 0.5933 0.3425 -0.2489 -1.39 0.04575 0.05487
0.06366 -4.12 -0.07367 1.458 0.091 0.4004 -0.0781 -0.05203
0.9854 0.1509 0.1257 -0.08026 0.5093 -2.23 0.759 -1.158
-1.554 0.0135 -2.945 0.1118 0.073 -1.166 -0.4268 -0.6904

arith.constant5 f2 [20, 128]
00000000: 49b4 3339 2fc4 1b2a 1f35 902e 5dab a1c1
00000010: 5836 5bb0 9ebe 2234 4a2c edb0 6fad a237
00000020: 4735 3cc2 5237 62b8 eb31 e8be 3397 7938
00000030: fa2d d9b8 0a3a 25a7 91c6 572b cea4 37a2
00000040: 1b26 eaaf 0439 a233 81b1 f61e 7f37 cdbc
00000050: 3e2b bfc0 4a2f 8b2c 9126 ac30 57c6 bcc0
00000060: 80b1 4735 28c1 5234 9b28 b32f ea30 d1bd
00000070: e235 c224 9c34 4cc0 5f30 7b38 dd2d 94a5
00000080: 1dc1 002f b9ad ec2e 863b 0bb3 e12a 5fa0
00000090: 51ae 2335 8735 b4ac 45b1 ebaf 06b5 632f
000000a0: 6fbe 6a2d e2ad 8724 23b2 a436 9b33 2f2f
000000b0: f818 f2ad bc2d a835 423a 9138 363b e02f
000000c0: 0735 6faf 59b4 982d 60b7 c430 2216 1a2d
000000d0: 09b9 4936 a426 af39 2932 392a 2e2c 0bb9
000000e0: 7636 13a9 beaf b139 b9b3 2e36 2aaf d19e
000000f0: 3e36 4aad 6bb0 54ab b828 c431 d630 42ac
00000100: 9139 5cc4 71ad 1a22 5b2c 6c24 b5b0 6cbe
00000110: 7f39 d3ac d2c2 5338 15aa 2db2 5f2d 2132
00000120: 02c4 1c34 2cc8 782d c1ac 4635 0db0 b9c3
00000130: 2228 9e35 0fbf 2ca4 b4a9 30b3 bcb6 f1a9
00000140: a72e 68b1 64c0 80bb d2a9 53ac 23c2 68b0
00000150: da2b 1d2f c7b1 472c 24b0 f9ae 6fb4 4435
00000160: 32b0 6cbc c5bd 32a7 8ea8 08c2 98af 9138
00000170: dab9 22a7 b236 8f34 3f34 3c3b 5b2c a094
00000180: 1938 162c 9228 42a9 23c8 7b28 ea9d f5b1
00000190: a2b2 eb36 f4c0 d831 ac2d 602b 252d 4131
000001a0: e6b4 42a9 1d2e f6a4 f92d 0c38 f337 132e
000001b0: ab2d 47a9 f9c0 f8b6 50c2 a7be afc4 992d
000001c0: 6f2c 3db0 a731 35b5 29b4 432f 57ae f124
000001d0: 6ac3 79bb 96b0 ca2b bfa9 532c df31 f439
000001e0: 83c0 3131 10ad 95ba 9da6 bc38 6829 64b1
000001f0: 02c4 452e 6f21 f2ae beab 92a4 44ac a32e
-0.2678 0.65 -4.184 0.0477 0.32 0.10254 -0.05753 -2.814
0.3965 -0.1361 -1.654 0.2583 0.067 -0.1539 -0.0849 0.477
0.3298 -3.117 0.4575 -0.548 0.1849 -1.727 -0.001758 0.559
0.0934 -0.606 0.755 -0.02791 -6.566 0.05734 -0.01877 -0.01214
0.02385 -0.12366 0.627 0.2385 -0.172 0.006798 0.4685 -1.2
0.05658 -2.373 0.1139 0.071 0.02565 0.146 -6.34 -2.367
-0.1719 0.3298 -2.578 0.27 0.03598 0.1203 0.1536 -1.454
0.3677 0.01859 0.288 -2.148 0.1366 0.56 0.0916 -0.02179
-2.557 0.1094 -0.0894 0.10815 0.9404 -0.2201 0.05374 -0.00854
-0.0987 0.321 0.3455 -0.0735 -0.1647 -0.1237 -0.314 0.1154
-1.608 0.0846 -0.0919 0.01768 -0.1918 0.415 0.2377 0.11224
0.002426 -0.0929 0.0896 0.3535 0.782 0.571 0.9014 0.12305
0.3142 -0.11615 -0.2717 0.0874 -0.461 0.1489 0.001497 0.0797
-0.6294 0.3928 0.02594 0.7104 0.1925 0.0486 0.0653 -0.6304
0.4038 -0.03964 -0.121 0.7114 -0.2413 0.3862 -0.11194 -0.006657
0.3901 -0.08264 -0.1381 -0.05725 0.03687 0.1802 0.1511 -0.0665
0.696 -4.36 -0.085 0.01192 0.06805 0.01727 -0.1471 -1.605
0.687 -0.0754 -3.41 0.5405 -0.04752 -0.193 0.0839 0.1915
-4.008 0.2568 -8.34 0.08545 -0.0743 0.3296 -0.1266 -3.861
0.0323 0.351 -1.765 -0.0163 -0.04456 -0.2246 -0.421 -0.04642
0.10394 -0.169 -2.195 -0.9375 -0.04547 -0.06757 -3.068 -0.1377
0.06134 0.11115 -0.1805 0.06683 -0.1294 -0.10895 -0.277 0.329
-0.1311 -1.105 -1.442 -0.0281 -0.03558 -3.016 -0.11865 0.571
-0.7314 -0.02786 0.4185 0.285 0.2654 0.9043 0.06805 -0.001129
0.512 0.06384 0.0357 -0.04108 -8.27 0.035 -0.005775 -0.1862
-0.2073 0.4324 -2.477 0.1826 0.0886 0.05762 0.0804 0.1642
-0.3062 -0.04108 0.0955 -0.01938 0.0933 0.506 0.4968 0.0949
0.08856 -0.04123 -2.486 -0.4355 -3.156 -1.663 -4.684 0.08746
0.0693 -0.1324 0.1766 -0.3254 -0.26 0.11346 -0.09906 0.0193
-3.707 -0.934 -0.1433 0.06085 -0.0449 0.06757 0.1835 0.744
-2.256 0.1622 -0.0791 -0.8228 -0.02583 0.592 0.04224 -0.1685
-4.008 0.09796 0.01061 -0.1085 -0.0605 -0.01785 -0.06665 0.1037

arith.constant6 f2 [64, 1, 3, 1]
00000000: 1041 5231 25bc 0e31 1b3b 5f2b 6ebb b43c
00000010: 803f fa39 09b7 6b3d 163a 40a9 90b3 3238
00000020: c1b6 18b9 1039 263b 96b4 7239 2bb6 373d
00000030: 17bb c53d 9eb0 722c a61d 72c1 5d38 743d
00000040: abb8 8839 993b a1b2 e537 db32 e23d 4436
00000050: 5eb8 9d40 0f39 c4b3 4e3d 6636 00ae 593e
00000060: 7336 672f 143e a137 9336 05c1 87bb 2abd
00000070: 93b7 1bbb 8c3b 1b3e 1ec0 bcb8 c336 1539
00000080: ddb3 033d a433 58a9 9f3d 8c34 01b9 b9b5
00000090: d435 13b9 bcb6 ce38 02b8 52b9 3b3a 883a
000000a0: 05b5 04bd bc3a 70b8 4636 1d33 e53d b838
000000b0: a640 96ba 91bd 9cba 8db8 9cbb 153c 7c3d
000000c0: fc38 0d35 bc3e ea39 fb3b 13b5 212c aa41
000000d0: 3eb8 633b 4ebe 903d 61be 81b0 db3e 1838
000000e0: 3e36 943d 50ba d33b 6e3d a7bd 28bc 93b5
000000f0: 01bb 483c 573f 7fbb 48be 41b8 1635 702f
00000100: fb3d 3a39 913b d4b4 38bc 50b1 573d 7539
00000110: 4a3b 8ab2 4735 70b7 6f40 9a38 953a bcb1
00000120: e938 f835 693e 363a 9a2d d1b2 80b4 0826
00000130: 0fb6 32b2 2a2d d5b6 a83d a441 eb39 5dba
00000140: 833c 4e40 d8b7 0934 edc1 2537 a132 f93d
00000150: 61be b8b8 1636 14bd 13b6 1fb1 1baf 4939
00000160: 90b0 67bc 1ab5 00b2 a4b6 f72f c1b6 0bbc
00000170: 29b5 6db4 01ba 4ab8 25b5 ce39 84ac 32b4
2.531 0.1663 -1.036 0.158 0.888 0.0576 -0.9287 1.176
1.875 0.747 -0.4397 1.3545 0.7607 -0.04102 -0.2363 0.5244
-0.422 -0.6367 0.633 0.8936 -0.2866 0.6807 -0.3855 1.304
-0.886 1.442 -0.1443 0.06946 0.005516 -2.723 0.5454 1.363
-0.5835 0.6914 0.9497 -0.2072 0.4934 0.2142 1.471 0.3916
-0.546 2.307 0.6323 -0.2427 1.326 0.4 -0.09375 1.587
0.403 0.11566 1.52 0.4768 0.411 -2.51 -0.941 -1.291
-0.4734 -0.888 0.9434 1.526 -2.059 -0.592 0.4226 0.6353
-0.2457 1.253 0.2388 -0.04175 1.405 0.2842 -0.6255 -0.3577
0.3643 -0.6343 -0.421 0.6006 -0.501 -0.665 0.779 0.8164
-0.3137 -1.254 0.842 -0.5547 0.392 0.2223 1.474 0.59
2.324 -0.823 -1.392 -0.826 -0.569 -0.951 1.0205 1.371
0.623 0.3157 1.684 0.7393 0.9976 -0.3171 0.0645 2.832
-0.5303 0.9233 -1.576 1.391 -1.595 -0.1407 1.714 0.5117
0.3901 1.395 -0.789 0.978 1.357 -1.413 -1.039 -0.3484
-0.8755 1.07 1.835 -0.937 -1.57 -0.5317 0.3179 0.1162
1.495 0.6533 0.946 -0.3018 -1.055 -0.166 1.335 0.682
0.911 -0.2043 0.3298 -0.4648 2.217 0.575 0.8228 -0.1792
0.614 0.373 1.603 0.7764 0.0875 -0.213 -0.2812 0.02356
-0.3787 -0.1936 0.0807 -0.427 1.414 2.82 0.7397 -0.7954
1.128 2.152 -0.4902 0.2522 -2.963 0.4465 0.2072 1.493
-1.595 -0.59 0.3804 -1.27 -0.3796 -0.16 -0.111 0.6606
-0.1426 -1.101 -0.3188 -0.1875 -0.415 0.12445 -0.422 -1.011
-0.3225 -0.2766 -0.7505 -0.536 -0.3215 0.7256 -0.07056 -0.2622

arith.constant7 f2 [128, 1, 3, 64]
00000000: 5bb8 6631 be37 37b8 5fb4 7fb4 e3b0 7eb8
00000010: e737 aaad d337 2ab2 f4b8 adb6 71b5 05b9
00000020: 51ba 6328 ff34 3b38 c137 bdb5 18b1 90b4
00000030: 6bb5 99b6 4e32 0f39 8ab8 2e38 6734 b136
00000040: e1bb b6b2 cc3a 29b6 6e37 72b7 1838 6334
00000050: 1a36 e133 0bb9 0db2 3834 9ead c2b8 3fb4
00000060: 20bc c6b4 012f 962e 3f3a 7434 ca2c 55b8
00000070: 2537 7234 8d34 0f2e 1332 832d ff31 fdb6
00000080: 0e34 6228 26ad d835 1a33 282a 6531 c335
00000090: 51b1 10b6 5b30 b534 1ead 05b9 8a36 73b8
000000a0: 67b5 4eb6 27b1 ff35 90ae c936 e935 bda7
000000b0: 41af 5629 6d34 34b1 842b 8138 33b5 6233
000000c0: 5ab7 4131 d538 f330 17b6 5535 ea33 31af
000000d0: c5b2 45b5 96b4 6e32 3328 b534 17b9 8c34
000000e0: 34b6 c033 07b0 2cad 182c 19b7 20b7 34ae
000000f0: 4faf 2eb5 6fa7 42b5 93ac 3bb5 8db4 4232
00000100: eba8 da36 63b6 3730 922f 84af 0934 002d
00000110: 3331 4634 36a6 1f35 a4a9 c5b8 911f 4ab5
00000120: fab4 1434 84b0 e923 85ae d228 a6a9 c4ad
00000130: 43a4 5225 1b38 4836 b7b3 673a 03ac 1123
00000140: 38b1 3f35 d638 90af a3b6 aba6 2030 c028
00000150: 73b4 1fb6 7eb7 d434 beaa 0f35 e2b6 8a35
00000160: 94b0 552f b32c 242a 18b7 3bb6 a538 bbb4
00000170: c0b4 14a9 cc35 f5aa dfaa fda9 79b2 aa97
00000180: efbc 2639 a5b2 97b4 63ae 2c34 ea32 99b4
00000190: 7a25 3335 8137 0d31 fb28 99b0 3531 152d
000001a0: e0a8 9a38 9cb8 852b beb4 87ac edac b028
000001b0: 1534 5f2c 3d36 87ac 0430 9d40 0cb5 51ab
000001c0: c19c f42f 2e39 1db5 73b8 e2b0 8126 62b7
000001d0: 9422 d7b8 ab30 2b31 7ab5 792e c8a4 20af
000001e0: 27ab 16a3 462e 1f2e f430 bdae 6b2e 7bab
000001f0: f5b4 45ae e037 6bb0 03a2 03b3 30b3 062c
-0.5444 0.1687 0.484 -0.527 -0.2732 -0.281 -0.1527 -0.5615
0.494 -0.0885 0.489 -0.1926 -0.619 -0.4172 -0.34 -0.6274
-0.7896 0.03427 0.3123 0.529 0.4846 -0.3586 -0.1592 -0.2852
-0.3386 -0.4124 0.197 0.6323 -0.5674 0.5225 0.2751 0.4182
-0.985 -0.2097 0.8496 -0.385 0.4644 -0.4653 0.5117 0.2742
0.3813 0.2462 -0.6304 -0.1891 0.2637 -0.08777 -0.5947 -0.2654
-1.031 -0.2983 0.10944 0.1029 0.781 0.2783 0.0748 -0.5415
0.4465 0.2778 0.2844 0.09467 0.1898 0.0861 0.1874 -0.4368
0.2534 0.03424 -0.08044 0.3652 0.2219 0.0481 0.1686 0.36
-0.1661 -0.379 0.1361 0.2942 -0.07996 -0.6274 0.4087 -0.556
-0.3376 -0.394 -0.161 0.3748 -0.10254 0.424 0.3694 -0.03023
-0.11334 0.0417 0.2766 -0.1626 0.05872 0.563 -0.325 0.2307
-0.4595 0.1642 0.604 0.1547 -0.3806 0.3333 0.2473 -0.11237
-0.2115 -0.3293 -0.2866 0.2009 0.0328 0.2942 -0.636 0.2842
-0.3877 0.2422 -0.1259 -0.0808 0.06396 -0.4436 -0.4453 -0.0969
-0.1142 -0.3237 -0.02904 -0.3286 -0.0715 -0.327 -0.2844 0.1956
-0.03842 0.4282 -0.3992 0.1317 0.1183 -0.11743 0.2522 0.0781
0.1625 0.267 -0.02426 0.32 -0.04407 -0.596 0.00739 -0.3306
-0.311 0.255 -0.1411 0.01545 -0.10187 0.03766 -0.04413 -0.0901
-0.01665 0.02078 0.513 0.3926 -0.2411 0.8003 -0.0627 0.0138
-0.1631 0.328 0.6045 -0.11816 -0.4148 -0.02605 0.1289 0.0371
-0.278 -0.3826 -0.4683 0.3018 -0.05267 0.3162 -0.4302 0.3462
-0.1431 0.11456 0.0734 0.04797 -0.4434 -0.3894 0.5806 -0.2957
-0.2969 -0.03967 0.3623 -0.05435 -0.05368 -0.04678 -0.2023 -0.001871
-1.233 0.6436 -0.2076 -0.2869 -0.0998 0.2607 0.2161 -0.2874
0.0214 0.325 0.469 0.1578 0.0389 -0.1437 0.1627 0.0794
-0.0381 0.575 -0.576 0.05875 -0.2964 -0.07074 -0.07697 0.03662
0.2551 0.0683 0.39 -0.07074 0.1255 2.307 -0.3154 -0.05716
-0.004642 0.12427 0.6475 -0.3196 -0.556 -0.1526 0.0254 -0.4614
0.01285 -0.605 0.1459 0.1615 -0.3423 0.10114 -0.01868 -0.1113
-0.05588 -0.01384 0.098 0.09564 0.1548 -0.1053 0.1003 -0.05844
-0.3098 -0.09796 0.4922 -0.1381 -0.01174 -0.2191 -0.2246 0.06287

arith.constant10 f2 [64]
00000000: 542e 1d34 732f 6833 b532 762f 1634 dc32
00000010: d628 89ad 4730 a634 0f33 9328 e334 8c30
00000020: 2533 daad 51b2 4533 0da7 9334 7535 ff30
00000030: 4130 2830 a830 e3a5 3533 5fab 8faf 5e34
00000040: 9b33 9f34 1226 afa7 4e28 4f33 2834 18b2
00000050: 312f 9ab0 0c33 6c34 a133 4534 2c2a 2634
00000060: 3933 4233 862d 3f30 8733 7f30 3db2 0a33
00000070: 64b0 f8a8 f930 b1a7 3330 d5a7 1c2a 7332
0.0989 0.257 0.1164 0.2314 0.2096 0.1166 0.2554 0.2144
0.03778 -0.0865 0.1337 0.2905 0.2206 0.03574 0.3054 0.1421
0.2233 -0.09143 -0.1974 0.2272 -0.02754 0.286 0.341 0.1561
0.1329 0.1299 0.1455 -0.023 0.2252 -0.0576 -0.1181 0.273
0.2377 0.2888 0.02371 -0.03001 0.03363 0.2284 0.2598 -0.1904
0.11237 -0.1438 0.2202 0.2764 0.2384 0.2668 0.04822 0.2593
0.2257 0.2268 0.0863 0.1327 0.2352 0.1405 -0.195 0.22
-0.1372 -0.03882 0.1554 -0.03004 0.1312 -0.0306 0.04773 0.2015

arith.constant11 f2 [128]
00000000: d3aa 9034 9734 119f 0e36 b599 41b5 2332
00000010: b231 e0af 332a 08b6 262b e0b2 7cad 269d
00000020: 17b4 23a1 1599 7730 db2d 662c 589f d7ac
00000030: 5eac 30b2 e5af 4eb5 4e2b 9fb1 54af ddb1
00000040: da2a eaa0 0834 dab0 6932 26b1 2821 2eba
00000050: d5ad 659c 7214 2032 5eae 459b 13a5 e69c
00000060: a229 b0ac dd30 b332 50a6 8eb2 0634 f421
00000070: 1f35 6f35 aa9e b532 9929 1e34 9cae 869e
00000080: 7236 fca1 95b3 28ae d7a5 f7ac 3caf c9a2
00000090: 51ad 79a1 4c34 c8b4 31ac 9b9c ecb1 8fae
000000a0: 46b8 22b0 9aab 23a4 2aa8 b5af 6817 6fb5
000000b0: e3b7 4caf 48b2 222d b2af 62b1 aba1 0eb6
000000c0: 4eac 80a5 08b3 fbaf 5b22 61b0 7fb0 1834
000000d0: d6a6 69b4 62a8 7aaa ccad 4830 94ad 66ad
000000e0: a331 5da8 ba9c 07a4 21af 4cb4 79b7 0ea6
000000f0: 8eb4 c69d 3c2c 9f9f 0a9d 04b5 2536 45b7
-0.0533 0.2852 0.2869 -0.0069 0.3784 -0.002787 -0.3284 0.1918
0.178 -0.12305 0.04843 -0.377 0.05585 -0.2148 -0.0857 -0.005028
-0.2556 -0.01003 -0.002481 0.1395 0.0915 0.0687 -0.00717 -0.0756
-0.06824 -0.1934 -0.12335 -0.3315 0.05707 -0.1757 -0.1145 -0.1832
0.05353 -0.0096 0.252 -0.1516 0.2003 -0.1609 0.01007 -0.7725
-0.0911 -0.00429 0.001085 0.1914 -0.0995 -0.00355 -0.01982 -0.004784
0.044 -0.07324 0.152 0.2094 -0.02466 -0.2048 0.2515 0.01163
0.32 0.3396 -0.006508 0.2096 0.04373 0.2573 -0.1033 -0.00637
0.4028 -0.01169 -0.2369 -0.0962 -0.02281 -0.0776 -0.11304 -0.01325
-0.08307 -0.01069 0.2686 -0.2988 -0.0655 -0.004498 -0.185 -0.1025
-0.534 -0.1292 -0.0594 -0.01616 -0.03253 -0.1204 0.001808 -0.3396
-0.493 -0.114 -0.1963 0.0802 -0.12024 -0.1682 -0.01107 -0.3784
-0.06726 -0.02148 -0.2197 -0.1247 0.01241 -0.1368 -0.1405 0.2559
-0.0267 -0.2756 -0.03424 -0.0506 -0.0906 0.1338 -0.08716 -0.08435
0.1761 -0.0341 -0.004616 -0.01573 -0.1114 -0.2686 -0.467 -0.02365
-0.2847 -0.00564 0.06616 -0.007442 -0.00492 -0.3135 0.384 -0.4543
