AI/dynamic-gesture/app/models/static_gesture_mk3_v1_model.tflite (tflite, 180244 bytes, 8 tensors)

arith.constant f4 [128]
0	0x3d80e617	0.06293886
1	0x3bcdccbd	0.00628051
2	0xbd33d4d8	-0.043904155
3	0xbda17bea	-0.07884963
4	0xbbe2dd76	-0.006923373
5	0xbd699fc5	-0.057037134
6	0x3d3e0619	0.046392534
7	0xbcfaef1b	-0.030631592
8	0x3e36084c	0.17776603
9	0xbf01b697	-0.50669235
10	0x3d92483d	0.071426846
11	0x3e1f5191	0.15558459
12	0xbca115bf	-0.01966369
13	0x3e0a7ea0	0.13524866
14	0xbd06bcb7	-0.032894816
15	0xbc0c0ced	-0.008548004
16	0xbde6131d	-0.11234114
17	0xbe27e399	-0.16395415
18	0xbd44a0be	-0.04800486
19	0xbe940bd8	-0.28915286
20	0xbbbca44f	-0.005756892
21	0xbc2d54b4	-0.010579277
22	0x3e64ac98	0.22331464
23	0x3c63766a	0.013883213
24	0xbc157fbd	-0.009124693
25	0xbc8e1334	-0.017343141
26	0xbdd9f473	-0.10642328
27	0xbe181f97	-0.148558
28	0x3e850b3e	0.2598514
29	0xbda3facb	-0.08006819
30	0x3d577d08	0.052609473
31	0xbe06306b	-0.13104407
32	0xbd834a2d	-0.06410632
33	0x3ee6ea81	0.45100787
34	0xbe480ebc	-0.1953687
35	0x3dc09131	0.09402693
36	0xbe0d6d49	-0.1381122
37	0xbd2b32e3	-0.041796576
38	0xbc1f2a36	-0.009714654
39	0xbba24c15	-0.0049529173
40	0xbcdb4128	-0.026764467
41	0xbecf2462	-0.40457445
42	0xbdf8497e	-0.121233925
43	0x3c9fbaa9	0.019498186
44	0xbf0196b0	-0.50620556
45	0xbbd76985	-0.006573858
46	0xb7a5711c	-1.9722203e-05
47	0xbdcc10bd	-0.0996413
48	0x3e01cbf8	0.12675464
49	0x3d968e7d	0.07351396
50	0xbd09b812	-0.03362281
51	0xbc1e9228	-0.009678401
52	0xbebccd5c	-0.36875427
53	0xbc2d31b0	-0.010570928
54	0xbe29c21b	-0.16577952
55	0xbe305108	-0.17218411
56	0xbc15e99d	-0.009149936
57	0xbe37c9de	-0.179481
58	0x3e7e33eb	0.24824493
59	0xbdb1e108	-0.086854994
60	0xb9e4f09c	-0.00043666817
61	0xbc3434da	-0.010998929
62	0x3bd56e02	0.006513358
63	0xbd5f196b	-0.0544676
64	0x3ddaaf35	0.10677949
65	0xbcaee878	-0.021351084
66	0x3dd8a9da	0.105792716
67	0xbe863b6d	-0.26217213
68	0xbed57b60	-0.4169569
69	0x3be34b22	0.0069364468
70	0xbc51d291	-0.012806551
71	0x3c579670	0.013158426
72	0x3bdcde98	0.0067404024
73	0xbc0faa40	-0.008768618
74	0xbc5123f6	-0.012764921
75	0xbcf57386	-0.029962312
76	0xbd719dab	-0.058988255
77	0x3d7d34e7	0.06181803
78	0xbc08e437	-0.008355192
79	0x3c358c29	0.01108078
80	0x3d3d20bd	0.0461738
81	0xbd2dc9ef	-0.042428907
82	0xbbe902c6	-0.0071109263
83	0xbcb39a76	-0.021924239
84	0xbc00c948	-0.007860489
85	0xba82391e	-0.0009935235
86	0x3cc87b0a	0.024472732
87	0xbefd3b54	-0.49459326
88	0xbe688658	-0.22707498
89	0xbe3a85c1	-0.18215086
90	0xbe1868f6	-0.1488379
91	0x3d36be99	0.04461536
92	0xbde08f7f	-0.1096487
93	0xbc398346	-0.011322802
94	0x3dd676bc	0.104718655
95	0x3e702de0	0.23455
96	0xbd9d9b2e	-0.07695614
97	0xbc326d43	-0.010890308
98	0xbddbfc6c	-0.10741505
99	0xbd1f4642	-0.038885362
100	0x3e290467	0.16505586
101	0xbc1a5c8f	-0.009421482
102	0x3db5f7e7	0.08885174
103	0xbeebbbb2	-0.46041638
104	0xbef296c6	-0.47380656
105	0xbbae3487	-0.0053163203
106	0x3bd17c78	0.0063930117
107	0xbc7a5f2f	-0.015281483
108	0x3e65a876	0.22427544
109	0xbc669dfa	-0.0140757505
110	0x3c327d13	0.010894078
111	0x3db39d51	0.0877024
112	0xbc89b749	-0.01681103
113	0x3e3ad888	0.18246663
114	0x3e4b4283	0.19849591
115	0xbf045484	-0.5169146
116	0xbd608d0d	-0.054822017
117	0x3e2e259d	0.17006536
118	0xbee238c2	-0.44183928
119	0xbda2ed8f	-0.07955467
120	0xbeb15e27	-0.34642145
121	0xbec565e0	-0.38554287
122	0xbea58d40	-0.32334328
123	0xbd4218e3	-0.047387015
124	0x3e99ac70	0.30014372
125	0x3d4af3e0	0.049548984
126	0x3e4936e6	0.19649848
127	0xbc615054	-0.013752062

arith.constant1 f4 [64]
0	0x3e0d4dcd	0.1379921
1	0x3e8740fc	0.26416767
2	0x3dd995c0	0.10624266
3	0x3d6fed08	0.05857566
4	0xbc21d37b	-0.009877081
5	0x3e722141	0.23645498
6	0x3db624f4	0.08893767
7	0x3ea71210	0.32630968
8	0xbd83b044	-0.064301044
9	0x3e31e2f4	0.17371732
10	0x3d8b9f68	0.06817514
11	0x3e1b8440	0.15187168
12	0x3b096c8a	0.0020969235
13	0xbd0b9bea	-0.034084238
14	0x3eb3f7fa	0.3515013
15	0x3e91379e	0.28362745
16	0xbd1847d0	-0.03717786
17	0x3d249cb1	0.040188495
18	0x3e671e23	0.2257009
19	0x3eacfae5	0.33785167
20	0x3d5eb076	0.054367505
21	0xbdb2b295	-0.08725468
22	0x3ea92696	0.3303725
23	0x3ea4d06f	0.32190272
24	0x3e893ecc	0.26805723
25	0xbbe7bdb0	-0.007072173
26	0x3e168094	0.14697486
27	0xbd00b137	-0.031419005
28	0xbda52c8b	-0.080651365
29	0x3eba6b38	0.36409926
30	0x3e1dbbfa	0.15403739
31	0x3eafb1f5	0.34315458
32	0x3ddeffde	0.108886465
33	0x3dd7c88f	0.105363004
34	0xbd9e4a07	-0.07728963
35	0x3e6d370f	0.23165534
36	0x3e0ca9e7	0.13736688
37	0x3e8412ce	0.25795597
38	0x3eb697f8	0.35662818
39	0x3e94b590	0.2904477
40	0x3cfa0bbf	0.03052318
41	0xbda09574	-0.07841006
42	0x3ea2ec33	0.3182083
43	0x3e9e8b58	0.30965686
44	0x3dd99c2d	0.10625491
45	0x3e6eef85	0.23333557
46	0x3e4f8577	0.20265757
47	0x3d52cdcb	0.05146579
48	0x3da65cbf	0.08123159
49	0xbdb49376	-0.088171884
50	0x3e877aa1	0.26460746
51	0xbd68f7da	-0.056876995
52	0x3d4562a4	0.048189774
53	0x3ec45488	0.38345742
54	0x3d8bf9f2	0.06834783
55	0x3caee2e2	0.02134842
56	0x3eb1f558	0.34757495
57	0x3e832609	0.25614956
58	0xbdbdab0c	-0.0926114
59	0xbd201f84	-0.039092556
60	0x3e05b6b6	0.1305798
61	0xbdb0e7c7	-0.08637958
62	0xbddd00a7	-0.1079114
63	0x3b25f91f	0.002532549

arith.constant4 f4 [128, 1, 3, 64]
0	0x3cf51e44	0.029921658
1	0x3e33abd1	0.17546012
2	0x3a4db25e	0.0007846708
3	0x3ddf148d	0.108925916
4	0xbda0480e	-0.07826243
5	0x3e648336	0.22315678
6	0x3e881379	0.26577356
7	0x3df054bb	0.11734911
8	0xbe40c2f1	-0.18824364
9	0xbea00408	-0.31253076
10	0xbf120a28	-0.5704675
11	0xbc85f5bd	-0.016352529
12	0x3d805c33	0.062675856
13	0xbddeba32	-0.10875358
14	0x3decc220	0.11560464
15	0x3e030c7a	0.12797728
16	0xbd970129	-0.07373268
17	0x3dff3e3d	0.12463043
18	0x3e06ae65	0.13152464
19	0x3e50728c	0.20356196
20	0xbc8893af	-0.016671984
21	0x3d92419c	0.0714142
22	0x3b4aec4f	0.0030963605
23	0x3dd2cbac	0.102927536
24	0x3e393651	0.18087126
25	0xbf57be15	-0.8427442
26	0x3e89cb33	0.2691284
27	0xbf2e8084	-0.6816485
28	0xbe191fb6	-0.14953503
29	0xbcd46cb7	-0.025930746
30	0x3e572461	0.21009971
31	0xbdb4dff2	-0.08831777
32	0xbe89ec88	-0.26938272
33	0x3e6c18d7	0.2305635
34	0x3d1443b3	0.036197376
35	0x3dd0e89d	0.102006175
36	0x3e23e21a	0.1600422
37	0x3e56551c	0.20930904
38	0x3e5eac4f	0.21745418
39	0xbd96ffa6	-0.0737298
40	0xbf46bb1e	-0.7762927
41	0xbec5e35a	-0.38650018
42	0x3dee5c7c	0.11638734
43	0x3e09004b	0.13379018
44	0xbe3d71a3	-0.1850038
45	0x3e5f83d2	0.21827629
46	0x3ea0fbc6	0.31442088
47	0xbf2774b6	-0.6541246
48	0xbef54f93	-0.47912273
49	0xbdc79aac	-0.09746298
50	0x3de914f1	0.113809474
51	0xbe30df85	-0.17272766
52	0xbba98ab9	-0.0051740077
53	0xbddc20cf	-0.10748445
54	0xbefa0b88	-0.48836923
55	0x3c81a0d4	0.01582376
56	0x3d8729d2	0.065997735
57	0x3a9090c4	0.0011029472
58	0x3d23e4fd	0.040013302
59	0x3aca7341	0.0015445725
60	0xbdd54183	-0.10412886
61	0xbdc06140	-0.09393549
62	0xbcccef42	-0.02501643
63	0xbf0e8345	-0.5566905
64	0xbcf9a9c1	-0.030476453
65	0x3e9a1bf9	0.30099466
66	0x3dfbb06f	0.122895114
67	0x3da9d66f	0.08292853
68	0xbd124b59	-0.03571639
69	0x3e22dc35	0.15904315
70	0x3d825ecc	0.06365737
71	0x3eb91e53	0.36155948
72	0xbb2b5651	-0.0026143978
73	0xbe89fb83	-0.269497
74	0xbef8e36c	-0.4861101
75	0xbc059240	-0.0081525445
76	0xbde33449	-0.11093957
77	0xbc2a3685	-0.010388975
78	0x3eb2b5f9	0.3490446
79	0x3e1c23a7	0.15247975
80	0xbbed3407	-0.007238868
81	0x3caf9a57	0.0214359
82	0x3e8f58b2	0.27997357
83	0x3e7e1618	0.24813116
84	0xbd90fb8c	-0.07079229
85	0xbd5ca8f1	-0.053872053
86	0x3e129a7a	0.1431674
87	0x3ec53472	0.38516575
88	0x3dbae91b	0.091264926
89	0xbfa0ffc6	-1.2578056
90	0x3cef1b11	0.029187711
91	0xbf476896	-0.7789396
92	0xbdfa2159	-0.12213392
93	0x3dceffd5	0.1010739
94	0x3d3e086f	0.04639476
95	0x3d8944f8	0.06702608
96	0xbe82fc59	-0.2558315
97	0x3e13ee75	0.14446433
98	0xbdbd0af2	-0.09230603
99	0x3e9d1485	0.30679718
100	0x3d912414	0.070869595
101	0x3e7f011b	0.24902765
102	0x3e870f58	0.26378894
103	0xbe0bc3dc	-0.13648933
104	0xbf447b8f	-0.76751035
105	0xbe9e233d	-0.3088626
106	0x3d61f8ab	0.05516879
107	0x3e6d2cfe	0.23161694
108	0xbe357193	-0.17719106
109	0x3e3eae5e	0.18621203
110	0x3d9ac83f	0.07557725
111	0xbf93ab0e	-1.1536577
112	0xbee13dc4	-0.43992436
113	0xbe12cc21	-0.14335681
114	0xbc99e74f	-0.018787054
115	0xbe5b7d92	-0.2143462
116	0x3a280d00	0.00064106286
117	0x3c933d25	0.017973492
118	0xbf1ca8c3	-0.6119501
119	0x3de901c7	0.11377292
120	0x3ebb08c1	0.36530116
121	0x3da0dbec	0.07854447
122	0xbe1cdcd2	-0.15318611
123	0x3c2e3a4f	0.010634019
124	0xbe5ef492	-0.21772984
125	0xbe6c1dc0	-0.23058224
126	0xbe1b8533	-0.1518753
127	0xbec11262	-0.37709337
128	0x3de983b5	0.11402074
129	0x3e62396c	0.22092217
130	0xbd46ecdf	-0.04856574
131	0xbdd3b8b0	-0.10337961
132	0xbe329a86	-0.17441759
133	0x3e898813	0.2686163
134	0x3d3cc6d1	0.046088044
135	0x3e981503	0.2970353
136	0xbe94c3a0	-0.290555
137	0xbecf1dbc	-0.40452373
138	0xbf3f1292	-0.7463771
139	0xbe1e35f5	-0.1545027
140	0xbe42939c	-0.19001621
141	0xbe14ad5d	-0.14519258
142	0x3e98ba16	0.29829472
143	0x3e3f61c5	0.1868964
144	0xbe62419d	-0.22095342
145	0xbd8dc534	-0.06922379
146	0xbdb52a55	-0.08845965
147	0x3df97725	0.12180928
148	0xbe5379f3	-0.20651989
149	0xbea6e2af	-0.3259482
150	0x3cad0d50	0.021124512
151	0x3e696d93	0.22795705
152	0x3e9cae0b	0.30601534
153	0xbfad37ce	-1.3532655
154	0x3d8f068b	0.0698367
155	0xbf96a84e	-1.1770113
156	0xbecf7dd6	-0.40525693
157	0x3d2f8d1e	0.04285919
158	0x3cea17ca	0.028575797
159	0xbc0cb650	-0.008588389
160	0xbebf9c12	-0.3742376
161	0x3bf3a14e	0.0074350005
162	0xbeab5f69	-0.3347123
163	0x3ea500d5	0.32227197
164	0xbbfb8b3a	-0.007676509
165	0x3e54868b	0.20754449
166	0x3e8ad7e6	0.27117842
167	0xbdddb03b	-0.10824629
168	0xbf72e632	-0.948825
169	0xbf2f3988	-0.6844716
170	0x3e054b8c	0.130171
171	0x3e457475	0.19282706
172	0xbebd2dfb	-0.36949143
173	0x3e7ecab2	0.2488201
174	0x3e5eb2e5	0.2174793
175	0xbf7da30f	-0.9907693
176	0xbf17e082	-0.59326947
177	0xbe8ba339	-0.27272967
178	0x3dfeb36f	0.12436568
179	0xbde2ecd2	-0.11080326
180	0xbe24a7c4	-0.16079623
181	0x3d81f10e	0.06344806
182	0xbf1a394e	-0.6024369
183	0xbdeca8f6	-0.11555664
184	0x3e4e10ba	0.20123568
185	0x3e18cb30	0.1492126
186	0xbebe9eb0	-0.37230444
187	0xbddc3309	-0.10751922
188	0xbea936f4	-0.33049738
189	0xbf323ba1	-0.69622236
190	0xbec60b82	-0.38680655
191	0xbf099e00	-0.53756714
192	0xbf18368c	-0.5945823
193	0xbee29dd3	-0.44261035
194	0xbe0119a1	-0.12607433
195	0x3d06c731	0.032904807
196	0x3bc00998	0.0058605187
197	0xbf1ab412	-0.60431015
198	0xbe8f864d	-0.2803215
199	0x3df51b89	0.119681425
200	0x3da3972c	0.07987818
201	0xbe8cf8d0	-0.2753358
202	0xbe40ac14	-0.18815643
203	0xbefcafcf	-0.4935288
204	0x3ebfcc47	0.3746054
205	0xbb22fd95	-0.0024870385
206	0x3d7eef72	0.06224007
207	0xbf0c7f5d	-0.5488184
208	0xbc3af50d	-0.011410964
209	0xbe0ba271	-0.13636185
210	0xbd4fbb2d	-0.050715614
211	0x3e3c8edd	0.18413873
212	0xbd067848	-0.032829553
213	0x3dda10a7	0.106477074
214	0x3cc3b46f	0.023889748
215	0x3e313cbb	0.17308323
216	0xbef64700	-0.48101044
217	0x3e535ead	0.20641585
218	0xbec69c51	-0.38791135
219	0xbdaf555e	-0.085612044
220	0x3d54ea04	0.051980987
221	0x3e296b77	0.16544901
222	0xbee2f352	-0.44326264
223	0x3cb96e64	0.022635646
224	0xbec17a32	-0.3778854
225	0xbe899c03	-0.2687684
226	0xbd960db1	-0.0732683
227	0xbea66896	-0.32501668
228	0xbec77cc5	-0.3896238
229	0xbf19a7ac	-0.6002147
230	0x3e53c244	0.20679575
231	0x3d6f178c	0.058372065
232	0xbef5ceb0	-0.48009253
233	0x3e42e4dd	0.19032617
234	0xbe982742	-0.2971745
235	0xbede2ed7	-0.4339511
236	0xbe80e8c2	-0.2517758
237	0xbf2e05c7	-0.67977566
238	0xbed266f0	-0.4109416
239	0x3eb8030e	0.3593983
240	0xbe9ead19	-0.30991438
241	0x3d56987b	0.05239151
242	0x3d8f2267	0.069889836
243	0x3bdad657	0.0066783833
244	0x3d145012	0.036209174
245	0xbdb2b66c	-0.087262005
246	0xbeca504b	-0.39514384
247	0xbd5935e2	-0.053029902
248	0x3dd4aa1b	0.103840075
249	0xbead6c59	-0.33871725
250	0xbaafc503	-0.0013410154
251	0xbe28463d	-0.16433044
252	0xbe78f55d	-0.24312349
253	0xbdc2b02d	-0.09506259
254	0x3d2b70b6	0.041855536
255	0xbeae53a2	-0.34048182

arith.constant5 f4 [64, 1, 3, 1]
0	0x3f60227f	0.87552637
1	0x3f7df0f8	0.99195814
2	0xbf193724	-0.5984976
3	0x3f3e94b2	0.7444564
4	0x3f5cc169	0.8623262
5	0xbeb888b8	-0.36041808
6	0xbf8a1bcb	-1.0789732
7	0xbf1e4f2e	-0.6183957
8	0xbe514ad0	-0.20438695
9	0xbf8228e6	-1.0168731
10	0xbf254d2e	-0.6457089
11	0xbeed63ae	-0.46365112
12	0xbf43193c	-0.7621038
13	0x3e863cff	0.2621841
14	0xbfda0349	-1.7032253
15	0x3f2bda86	0.67130315
16	0x3f414dbe	0.7550925
17	0xbeafdb12	-0.34346825
18	0x3f4453f8	0.76690626
19	0xbe06f2a1	-0.13178493
20	0xbedbb775	-0.42913404
21	0x3f300c69	0.68768936
22	0xbe920e26	-0.2852642
23	0x3f9ec9ab	1.2405294
24	0xbfb18943	-1.3870014
25	0xbf6f3d5c	-0.93453
26	0x3de6c70a	0.112684324
27	0x40182919	2.3775084
28	0x3e30dc75	0.17271598
29	0xbf892d48	-1.0716944
30	0xbf26d4d9	-0.6516853
31	0x3f423a0e	0.75869834
32	0x403ac881	2.9184878
33	0xbe2d1e89	-0.1690618
34	0x3ce66e6c	0.028128825
35	0x3fdc526c	1.7212653
36	0x3f142298	0.57865286
37	0xbf7264a1	-0.946848
38	0xbf3005d6	-0.68758905
39	0xbf6fb333	-0.9363281
40	0xbf37549d	-0.71613485
41	0xbf110616	-0.5664991
42	0x3f32db8f	0.6986627
43	0xbe9792c2	-0.29604155
44	0x3fa847d4	1.314692
45	0x3f2c342f	0.67267126
46	0x3f6a542a	0.91534674
47	0xbe3060e2	-0.17224458
48	0xbf612c25	-0.87957984
49	0xbf209a6e	-0.6273564
50	0xbf132d89	-0.57491356
51	0xbf80f31b	-1.007419
52	0xbeebbe40	-0.46043587
53	0xbe55a3e7	-0.20863305
54	0x3edbd06e	0.42932457
55	0xbeaa6ff8	-0.3328855
56	0x3fbee7b7	1.4914464
57	0x3f237de0	0.63863945
58	0xbeba6240	-0.36403084
59	0x3fb9076a	1.4455388
60	0xbf38af2a	-0.7214228
61	0xbf3ae42a	-0.730044
62	0xbf0afb07	-0.5428929
63	0xbef7feae	-0.48436493
64	0xbd23f1ad	-0.0400254
65	0xbfb34fa4	-1.4008679
66	0x3f2fad73	0.6862404
67	0x3f01c1e2	0.50686467
68	0x3f6228b5	0.88343364
69	0x3f3caa32	0.736972
70	0xbec4f721	-0.38469794
71	0x3fa5e26a	1.2959721
72	0x3f3a87ce	0.7286347
73	0x3f67f5ef	0.9060964
74	0xbeaa189b	-0.33221897
75	0x3ebd885a	0.3701809
76	0xbf5317fe	-0.82458484
77	0x402386ab	2.5550945
78	0x3f28752b	0.65803784
79	0x3e44bfc7	0.19213782
80	0xbeb3e632	-0.35136563
81	0xbfca7e0f	-1.581972
82	0x400a4f04	2.1610727
83	0xbeb22814	-0.34796202
84	0xbfe532fe	-1.7906187
85	0xbf2b880d	-0.6700447
86	0x3e80c6ef	0.25151774
87	0x3f1987e1	0.5997296
88	0x3e3f47c5	0.18679722
89	0x3f806a38	1.0032415
90	0x3f093b6e	0.5360631
91	0x3e1fb2c4	0.15595537
92	0xbe92b785	-0.2865564
93	0x3f2d4135	0.67677623
94	0x3e7987a9	0.24368156
95	0x3f6176ac	0.88071704
96	0xbfa3a5a7	-1.2784928
97	0x3f9e508c	1.2368331
98	0x3fbc24e9	1.4698764
99	0x3f0aa80a	0.5416266
100	0x3ce8e8c2	0.0284313
101	0xbf000072	-0.5000068
102	0xbf0a601d	-0.5405291
103	0xbedf1847	-0.4357321
104	0xbfb6f5f3	-1.4293808
105	0xbf548962	-0.8302213
106	0x3f48f0ed	0.78492624
107	0x3fa4a966	1.2864196
108	0x3f160469	0.5860048
109	0x3b89e296	0.0042079194
110	0xbecf4299	-0.40480497
111	0x3f394178	0.7236552
112	0x3f60e2d6	0.87846124
113	0xbebff74f	-0.3749337
114	0x3f3635d6	0.711759
115	0xbec88b60	-0.39168835
116	0x3fc18e2f	1.5121516
117	0x3f2f2c73	0.684272
118	0x3f674b1a	0.9034897
119	0x3fa73d18	1.3065519
120	0xbf844a4a	-1.0335171
121	0xbee1f4ed	-0.44132176
122	0x403ff772	2.9994779
123	0x3f43fb67	0.76555485
124	0x3d3d35c2	0.046193846
125	0xc036af61	-2.8544543
126	0x3f48a1ca	0.7837187
127	0x3f314fb8	0.69262266
128	0x3d6209ad	0.05518501
129	0x3f2d21ed	0.6762989
130	0x3f720d93	0.9455196
131	0xbd31e13b	-0.043427687
132	0xbfb03deb	-1.3768896
133	0x3f873857	1.0564069
134	0x3fb1cb8f	1.3890246
135	0x3f2fb08f	0.6862878
136	0x3f40ce6f	0.7531499
137	0xbedb9d67	-0.42893526
138	0x3f900fc2	1.1254809
139	0x3f1b8737	0.60753196
140	0xbf099bda	-0.53753436
141	0x3eb22d84	0.3480035
142	0xbf375c2f	-0.71625036
143	0x403c771a	2.9447694
144	0xbf866a5c	-1.0501208
145	0x3f99158d	1.1959702
146	0x40014b2e	2.0202136
147	0xbfe8b769	-1.8180972
148	0xbf39de33	-0.72604674
149	0x3defe442	0.117134586
150	0x3fd44a47	1.6585168
151	0x3fb7b960	1.4353447
152	0x3facd568	1.3502626
153	0xbf529afe	-0.8226775
154	0xbf5d7623	-0.8650839
155	0xbf14dc6d	-0.58148843
156	0x3df5f07a	0.12008758
157	0xbf786b82	-0.97039044
158	0xbf1b4ecd	-0.60667115
159	0x3f07c132	0.5302917
160	0x3e0564d3	0.13026743
161	0x3f836d01	1.026764
162	0xbf67b254	-0.9050648
163	0x3f94e771	1.163313
164	0x3ff3f99d	1.9060551
165	0xbf52d829	-0.82361084
166	0xbed71551	-0.4200845
167	0xbeb9bfbb	-0.3627909
168	0x3f36d848	0.7142377
169	0xbec066e6	-0.37578505
170	0x3fbc87b8	1.4728918
171	0xbf73c13c	-0.9521673
172	0x3f6f9a60	0.9359493
173	0x3fbd6fc4	1.4799733
174	0xbf42bb41	-0.76066977
175	0xbe440ecb	-0.19146268
176	0xbfd06647	-1.6281213
177	0xbe9d90c9	-0.30774525
178	0xbe1621f4	-0.1466139
179	0xbef770a6	-0.4832813
180	0xbf9f7dca	-1.2460263
181	0x3f8dfedc	1.1093402
182	0x3fd0c7e3	1.6311
183	0xbf8f8f4e	-1.1215608
184	0x3f88a5b6	1.0675571
185	0xc012a247	-2.2911546
186	0xbf9e9623	-1.2389568
187	0x3c9aa473	0.018877244
188	0xbfa18096	-1.2617366
189	0xbfa658bb	-1.2995828
190	0xbf1c65ad	-0.61092645
191	0x400e4364	2.2228632

arith.constant6 f4 [20, 128]
0	0xbc6966d4	-0.014245708
1	0xc0132828	-2.299326
2	0xbfbd4151	-1.4785558
3	0xc00866fd	-2.131286
4	0xbf2e0102	-0.6797029
5	0xc00c9ae7	-2.1969545
6	0xc022681a	-2.5376039
7	0x3ecea418	0.4035957
8	0xbdf9931c	-0.12186262
9	0x3f45e531	0.77302843
10	0x3ec43875	0.38324323
11	0xbe00059c	-0.1250214
12	0x3fa44202	1.2832644
13	0xbf639db8	-0.88912535
14	0xc07bad33	-3.9324462
15	0xbe23a221	-0.15979816
16	0xbe51a94f	-0.20474742
17	0xbf9a7913	-1.2068199
18	0xbfaf74ab	-1.3707479
19	0x3e332f14	0.17498428
20	0x3e05cfd7	0.13067566
21	0xc02aead3	-2.6705825
22	0xbd8be966	-0.068316266
23	0x3fb26a3d	1.3938671
24	0xbd51255d	-0.051061023
25	0x3da6c0ed	0.081422664
26	0x3e2a4fcf	0.16632007
27	0x3e1cf599	0.15328063
28	0x3f28013b	0.6562688
29	0xc0447f4c	-3.0702696
30	0x3ed42c67	0.41440126
31	0xc06d3f6b	-3.7069957
32	0xbf450c38	-0.7697177
33	0x3d33a6e1	0.04386032
34	0xbeaf2cf7	-0.34213993
35	0xbe02a48a	-0.12758079
36	0x3dde3a00	0.10850906
37	0xc01589e4	-2.3365412
38	0xbd0d708c	-0.03453116
39	0x3e0be944	0.13663203
40	0xbf89e25a	-1.0772202
41	0x3e45e363	0.19325022
42	0xbf53a84c	-0.82678676
43	0x3f07b829	0.5301538
44	0xbfcb8d7d	-1.5902554
45	0xbd045777	-0.032309975
46	0xbf773166	-0.9655975
47	0x3ec38c8d	0.3819317
48	0xbfa10a2b	-1.2581228
49	0x3bb8ecff	0.0056434865
50	0x3f1a83b9	0.6035724
51	0xc059d3e9	-3.403559
52	0xbf770c11	-0.96502787
53	0xbd34acfe	-0.04411029
54	0x3df35624	0.118816644
55	0x3eccdcfd	0.4001235
56	0xc0221098	-2.5322628
57	0xc0629c63	-3.540795
58	0xbe2e5591	-0.17024828
59	0x3e2370b8	0.15960968
60	0xbf7fb87c	-0.99890876
61	0xbd4b3318	-0.049609274
62	0xbd95e216	-0.07318513
63	0x3d4ad33b	0.04951785
64	0xbf04988e	-0.5179528
65	0x3ec3c27b	0.38234314
66	0xc02b64a7	-2.6780183
67	0xbf20a409	-0.627503
68	0xbffaac74	-1.9583879
69	0xbebe8edb	-0.37218365
70	0x3f705462	0.9387876
71	0xbcb6f54c	-0.022333764
72	0x3e3c089c	0.18362659
73	0x3dbde904	0.0927296
74	0x3ebdeca0	0.37094593
75	0xbd92535d	-0.071448065
76	0x3ecc4a07	0.39900228
77	0xbe04df11	-0.12975718
78	0x3d412ed3	0.047163796
79	0xbaa686cc	-0.0012704968
80	0xbfc141ee	-1.5098245
81	0xbd01418f	-0.031556662
82	0xbcc0bcd9	-0.02352755
83	0x3ecbf6e8	0.39836812
84	0xbd81aebc	-0.06332156
85	0xbfc5749b	-1.542621
86	0xbfb81afe	-1.4383237
87	0xc07d5f68	-3.9589481
88	0x3efd3622	0.49455363
89	0xbf30f39c	-0.6912172
90	0x3f0a25aa	0.5396372
91	0xc04ea799	-3.2289793
92	0xbfd3ed96	-1.655688
93	0x3d8bc8a2	0.06825377
94	0xc007bb5c	-2.1208105
95	0xbf53ee02	-0.82785046
96	0x3ee3f727	0.445245
97	0xbe4327f9	-0.19058217
98	0xbe0c2138	-0.13684547
99	0x3e2e8390	0.17042375
100	0x3e1a9caa	0.15098825
101	0xbfa1c876	-1.2639301
102	0x3e0bf28a	0.1366674
103	0xbf2b401e	-0.6689471
104	0x3e08b0f0	0.13348746
105	0xbb55c548	-0.003261881
106	0xbe50c92d	-0.20389242
107	0xbfd8e4cd	-1.6944824
108	0x3eb7542f	0.35806414
109	0x3eb7182f	0.35760638
110	0x3d87be1c	0.06628057
111	0x3e296af3	0.16544704
112	0x3dc9494a	0.09828432
113	0xbe129b8f	-0.14317153
114	0xbf39120e	-0.72293174
115	0xc06a2ee6	-3.6591125
116	0xbc04c7b8	-0.008104257
117	0xbe0af22e	-0.13568947
118	0xbd7015fe	-0.058614723
119	0xbe8dd4a7	-0.27701303
120	0xbe228bd2	-0.1587365
121	0x3e07458e	0.13210127
122	0x3d97c9b8	0.07411522
123	0x3d9d8088	0.07690531
124	0x3e27acc7	0.16374503
125	0xbe1c558d	-0.1526701
126	0x3caaf656	0.020869415
127	0xbdbf6b1d	-0.09346602
128	0xbdfcc542	-0.123423114
129	0xbfe3f716	-1.780978
130	0x3f0a8dc9	0.54122597
131	0xbfa990df	-1.3247336
132	0xc09436ea	-4.6317034
133	0xbf3587d3	-0.70910376
134	0x3eddb199	0.4329956
135	0xbf093e51	-0.5361071
136	0xbe38b4df	-0.18037747
137	0xc037e477	-2.8733194
138	0xbff186c1	-1.8869249
139	0x3d8eed96	0.0697891
140	0xbfd66ea2	-1.6752512
141	0x3f169643	0.5882303
142	0x3de9bcc0	0.11412954
143	0x3e223114	0.15839034
144	0xbdc6c205	-0.09704975
145	0xc045947a	-3.0871873
146	0x3f2597f9	0.64685017
147	0xbde28dc8	-0.11062199
148	0xbd5ed986	-0.054406665
149	0xbfa832bc	-1.3140483
150	0x3d5b0aaa	0.053476967
151	0x3f742377	0.95366615
152	0xbe30ff4b	-0.17284887
153	0x3de2d622	0.11075999
154	0xbe4f33e8	-0.20234644
155	0x3e28d607	0.16487895
156	0x3e9373d2	0.287993
157	0x3df64933	0.120256804
158	0xbe854410	-0.2602849
159	0x3c905483	0.017618423
160	0xc015d187	-2.3409135
161	0x3e18def2	0.14928797
162	0x3f3da559	0.74080426
163	0x3e032681	0.12807657
164	0x3defa343	0.117010616
165	0x3ecd0a42	0.4004689
166	0xbe39c6de	-0.18142268
167	0x3dbbb5d1	0.09165538
168	0x3ef97471	0.4872165
169	0xbdf193a0	-0.11795735
170	0xbff51804	-1.9147954
171	0xc0830fa9	-4.0956616
172	0x3f07f294	0.5310452
173	0xbe067578	-0.13130748
174	0xbeb04b58	-0.34432483
175	0x3ebaaf8a	0.3646205
176	0x3ebb9a44	0.36641133
177	0x3d355a8a	0.044275798
178	0x3e473065	0.19452055
179	0xbf864b21	-1.0491678
180	0x3ebf08f8	0.3731153
181	0x3ed3f26c	0.4139589
182	0xbe3bfc5b	-0.18357985
183	0x3e907057	0.28210708
184	0x3ef2f9b7	0.47456142
185	0x3da21642	0.079144016
186	0xbe2360b1	-0.15954854
187	0xbcfdfa5e	-0.031003173
188	0xc05df67a	-3.4681687
189	0x3d0b05bc	0.033941016
190	0x3c6f67c0	0.014612138
191	0xbb087bc1	-0.0020825716
192	0xc092a1f6	-4.5822706
193	0x3bb0a76c	0.005391052
194	0x3e1951e7	0.1497265
195	0x3dd2b55a	0.10288496
196	0xc0796b0a	-3.8971581
197	0xc0091ca9	-2.1423743
198	0xc031bee9	-2.7772772
199	0xbe40758f	-0.18794845
200	0x3d634f80	0.05549574
201	0x3d2f364c	0.04277639
202	0x3e0f3c86	0.13987932
203	0xbb34250c	-0.0027487902
204	0xbf6eaedc	-0.93235564
205	0x3d852107	0.0650044
206	0x3d2fac4a	0.042888917
207	0xbe3bb183	-0.18329434
208	0x3f3a122e	0.7268399
209	0xbc9c9de3	-0.019118255
210	0xbe198cf5	-0.14995177
211	0xc0c1b02f	-6.052757
212	0xc044511e	-3.067451
213	0xbfe8ada3	-1.817799
214	0xbf61155c	-0.87923217
215	0xbdef1aa7	-0.116750054
216	0xbe3b05b0	-0.18263888
217	0xc035e137	-2.841871
218	0xbf5cbbbc	-0.8622396
219	0x3dba0e76	0.090847895
220	0xc014a8f5	-2.3228123
221	0xbe0c62ba	-0.13709536
222	0xc0aa6d58	-5.3258476
223	0xc087ad38	-4.239895
224	0x3ebd3459	0.36954
225	0xbdfddf1d	-0.12396071
226	0xbe35d979	-0.1775874
227	0x3e3f549c	0.1868462
228	0xbdf69627	-0.12040358
229	0xc097495e	-4.727706
230	0x3e318ed7	0.17339645
231	0x3e2ddd9e	0.16979071
232	0xbd43baeb	-0.04778568
233	0x3dbbc83d	0.09169052
234	0xbcef24f9	-0.029192435
235	0xbe857b93	-0.26070842
236	0xbf52b097	-0.82300705
237	0xbe4a0cc7	-0.19731437
238	0x3d01be00	0.03167534
239	0xbb9bf45b	-0.004759354
240	0xbe3f598d	-0.18686505
241	0x3d885cf5	0.06658355
242	0x3f0c0cbf	0.5470695
243	0xbf9ae170	-1.2100048
244	0x3e37ad2f	0.17937158
245	0xbe217ebd	-0.15771003
246	0xbe4b3be8	-0.19847071
247	0xc05b76f4	-3.4291353
248	0xbd30d703	-0.0431738
249	0x3e335701	0.17513658
250	0xbdb8285a	-0.089920714
251	0x3c771b07	0.015082127
252	0x3ba4dcc0	0.0050311983
253	0xbd4f843f	-0.05066323
254	0x3e076750	0.13223004
255	0xbd362c48	-0.044475824

arith.constant7 f4 [128, 128]
0	0xbdec289d	-0.11531184
1	0x3b08fa89	0.0020901284
2	0xbcacc9ce	-0.021092322
3	0x3d88d123	0.06680515
4	0xbcae5529	-0.021280842
5	0xbdc78d75	-0.09743778
6	0xbe4f00a4	-0.20215088
7	0xbe2153e5	-0.1575466
8	0xbe3ca6fa	-0.18423072
9	0xbe44ee8b	-0.19231622
10	0xbbfec276	-0.0077746464
11	0xbdad21af	-0.0845369
12	0xbdad4e54	-0.084622055
13	0xbdc958b0	-0.09831369
14	0xbdb3ec48	-0.087853014
15	0xbdacca27	-0.08436995
16	0x3c8e37ff	0.017360685
17	0x3d2c2e1a	0.042036153
18	0x3d47d5b7	0.0487878
19	0x3d81f4ea	0.06345542
20	0xbdedb649	-0.11607034
21	0xbd962341	-0.07330943
22	0xbe1dcf59	-0.15411128
23	0xbba13ec2	-0.0049208114
24	0x3d8ffb79	0.070303865
25	0xbd84dfb3	-0.0648798
26	0xbe22c28c	-0.15894526
27	0xbdbfc9e0	-0.093646765
28	0xbd226cbb	-0.039654475
29	0xbcb863f3	-0.022508597
30	0x3c7cbeaa	0.015426317
31	0xbe0ef13b	-0.1395921
32	0xbdff8b54	-0.124777466
33	0x3d9d324e	0.076756105
34	0xbdf2c8c8	-0.11854702
35	0x3d72e0c7	0.059296396
36	0xbe2933f3	-0.16523723
37	0x3d888aa7	0.06667071
38	0xbbe4827a	-0.006973562
39	0x3d1fe496	0.039036356
40	0xbe03a0bb	-0.12854283
41	0x3c8d474f	0.017245917
42	0x3d4f9c41	0.050686125
43	0xbe792fdb	-0.24334662
44	0xbddede2b	-0.10882219
45	0xbd72bb9d	-0.059260953
46	0xbd8ab3c1	-0.067725666
47	0x3da15192	0.078768864
48	0xbd829096	-0.06375234
49	0xbd848650	-0.064709306
50	0x3de56622	0.11201121
51	0x3cd2f32a	0.025750715
52	0xbde35292	-0.110997334
53	0xbd7b9401	-0.061420444
54	0xbd24d0d4	-0.040238217
55	0xbd772d7a	-0.060346104
56	0xbdb177d7	-0.08665436
57	0xbde7a538	-0.1131081
58	0xbe4f414f	-0.20239757
59	0xbe2b63ef	-0.1673734
60	0xbdbe0936	-0.092791006
61	0x3c6c03f4	0.014405239
62	0xbe388ce0	-0.1802249
63	0xbda7f3f7	-0.082008295
64	0xbc7c7878	-0.015409581
65	0xbdd2b972	-0.10289277
66	0xbdc3b6c2	-0.09556343
67	0xbe22155e	-0.15828463
68	0x3d5b73d1	0.053577248
69	0xbe017c1e	-0.12645003
70	0x3e13c287	0.14429675
71	0xbcdf4e76	-0.027259093
72	0x3da1fe92	0.079098836
73	0x3d95a0f0	0.07306087
74	0xbdaa5d44	-0.0831857
75	0xbcb92d76	-0.022604685
76	0x3d09d6f3	0.033652257
77	0x3cbba80c	0.02290728
78	0x3d1e68c2	0.038674124
79	0xbccaa3ca	-0.024736304
80	0x3d1ee590	0.038793147
81	0x3d0ddca1	0.034634236
82	0xbe054f8e	-0.13018629
83	0xbd2f1772	-0.04274697
84	0x3ddf7b49	0.10912187
85	0xbd65f53b	-0.056142073
86	0x3c804127	0.015656067
87	0xbd7733da	-0.060352184
88	0xbd172581	-0.036901
89	0xbe24bd89	-0.16087927
90	0xbe1c1de0	-0.15245771
91	0xbe0c921b	-0.1372761
92	0x3d4f8f4c	0.050673768
93	0xbbb9f8b3	-0.005675399
94	0x3d8f16b1	0.0698675
95	0x3cafa817	0.021442456
96	0x3d1695f2	0.036764093
97	0xbb9b927a	-0.004747686
98	0x3d619a7d	0.055078972
99	0xbc0389a4	-0.008028422
100	0xbac6f733	-0.0015179872
101	0x3e19e95c	0.15030426
102	0xbc1ded01	-0.009639026
103	0xbe1a5566	-0.1507164
104	0x3a84381e	0.0010087525
105	0xbd32c19a	-0.043641664
106	0xbe16d651	-0.14730193
107	0xbd0a1a49	-0.033716474
108	0xbe2094b9	-0.15681733
109	0x3dba5ddd	0.09099934
110	0xbd23403a	-0.039856173
111	0xbdf0f0ff	-0.11764716
112	0xbe014397	-0.1262344
113	0x3dbdc564	0.09266165
114	0xbd119a11	-0.03554732
115	0xbe28f969	-0.16501392
116	0xbd2f96ab	-0.042868298
117	0xbd30a568	-0.043126494
118	0x3de3523c	0.11099669
119	0xbdadac07	-0.08480077
120	0xbcd93807	-0.026515974
121	0x3d9be160	0.07611346
122	0x3d9a348c	0.07529554
123	0xbd976383	-0.07392027
124	0xbdfd5da4	-0.12371376
125	0x3d30a3cb	0.043124955
126	0xbd490cc7	-0.04908445
127	0xbda00fec	-0.07815537
128	0x3cc55021	0.02408606
129	0xbe761055	-0.24029668
130	0x3d9bee7c	0.07613847
131	0x3f543cfe	0.82905567
132	0x3daee7be	0.08540295
133	0x3f19b806	0.6004642
134	0xbe5058b6	-0.2034634
135	0x3f87d348	1.0611353
136	0xbe5d3443	-0.21601968
137	0xc00cf847	-2.2026536
138	0xc009eb17	-2.1549737
139	0x3ed219b0	0.41035223
140	0x3ea77d2c	0.32712686
141	0xbe27b601	-0.16378023
142	0xbfb25c2c	-1.3934379
143	0xbe0021d8	-0.1251291
144	0x3d2523cb	0.040317338
145	0xbdf10f1f	-0.11770462
146	0x3d029db0	0.031888664
147	0xbfecad34	-1.8490357
148	0x3de1d7a7	0.110274605
149	0xbc253345	-0.010083024
150	0x3ed6bd00	0.4194107
151	0x3dbf4503	0.09339335
152	0xbe10642b	-0.14100711
153	0x3e15d45c	0.1463179
154	0x3e640b81	0.22270013
155	0x3e87f176	0.26551408
156	0x3efb35ba	0.49064428
157	0x3eac77d9	0.33685187
158	0x3f1343cc	0.57525325
159	0xbd7dab6e	-0.061931066
160	0x3f3b24e6	0.7310318
161	0xbd98bcc3	-0.074578784
162	0xc0327094	-2.7881212
163	0x3f2a4c0d	0.66522294
164	0x3ef0a1e2	0.46998507
165	0xbfbf354d	-1.4938141
166	0xbe0b227e	-0.13587376
167	0xbdd52869	-0.10408098
168	0xbbec0223	-0.007202403
169	0xc0253b4f	-2.581745
170	0x3f0f0ba8	0.5587716
171	0x3d5f2826	0.054481648
172	0xbf2e78f4	-0.6815331
173	0xbe028b0b	-0.12748353
174	0xbc762060	-0.015022367
175	0x3ed13f45	0.40868583
176	0xbf96ac68	-1.1771364
177	0xc02a9a64	-2.6656733
178	0x3e8e90c8	0.27844834
179	0x3df4bb8c	0.11949834
180	0xc0779b4c	-3.8688536
181	0x3e011f6a	0.1260964
182	0x3e8c7799	0.27434996
183	0xc0207fe1	-2.507805
184	0x3d868efc	0.06570241
185	0xbef51a97	-0.4787185
186	0xbe92d95f	-0.28681466
187	0xbe657e79	-0.22411527
188	0x3e16dc87	0.14732562
189	0x3d844ef3	0.06460371
190	0x403c411d	2.9414742
191	0xbf2c9992	-0.6742183
192	0x3e22d01b	0.15899698
193	0xbf8d3956	-1.1033123
194	0xbd2776c6	-0.040884756
195	0xbf6680c0	-0.90040207
196	0xbffb8e70	-1.9652843
197	0xbd2f4e9e	-0.042799585
198	0x3de36946	0.11104064
199	0x3ee0f5fc	0.4393767
200	0xbfb52407	-1.415162
201	0xbd57bd7b	-0.052670937
202	0xbd78b0e3	-0.060715567
203	0x3bc1c996	0.0059139235
204	0xbf9462b8	-1.1592627
205	0x3f229f7a	0.6352459
206	0xbe040350	-0.12891889
207	0x3db297f3	0.08720388
208	0xbe7a29fc	-0.24430078
209	0x3f0dacde	0.553419
210	0x3ddba105	0.107240714
211	0x3f887e05	1.0663458
212	0x3ded0f05	0.115751304
213	0xbd885616	-0.066570446
214	0x3f54c176	0.831077
215	0xc029fc31	-2.6560175
216	0xc0044691	-2.066807
217	0xbf4fff66	-0.8124908
218	0x3f29aca8	0.6627908
219	0xbe1f4592	-0.15553883
220	0x3e8f893b	0.28034386
221	0xbbbad8bb	-0.005702106
222	0x3ea6b9fc	0.3256377
223	0x3d22151a	0.039570905
224	0x3f051000	0.5197754
225	0x3f0e6712	0.5562602
226	0xbf13a1e3	-0.57668895
227	0x3da9699a	0.08272095
228	0xbc935c74	-0.017988421
229	0x3dd8fe99	0.10595436
230	0xbf7a6f76	-0.97826326
231	0x3f665875	0.89978725
232	0xbf4b1193	-0.7932369
233	0x3eb28ea0	0.3487444
234	0x3ce3d447	0.027811183
235	0x3de36932	0.11104049
236	0x401786c2	2.3676
237	0xbddfc25d	-0.10925744
238	0xbf2a2fec	-0.6647937
239	0xbed57c6d	-0.41696492
240	0x3f926962	1.143841
241	0xbeda8c6e	-0.42685264
242	0xbeb5c491	-0.3550153
243	0xbf280f33	-0.6564819
244	0x3e1d9fe3	0.15393023
245	0x3ec24e0a	0.37950164
246	0xbe08e44c	-0.13368338
247	0x3e027f73	0.1274393
248	0xbbc78369	-0.0060886634
249	0xbe6c9973	-0.23105411
250	0xbfdfd625	-1.7487227
251	0xbf2cd978	-0.6751933
252	0x3e2d2838	0.16909873
253	0xbe83fcd7	-0.2577884
254	0x3f08ec81	0.53485876
255	0x3e92b78a	0.28655654

arith.constant8 f4 [128]
0	0xbd83f04b	-0.064423166
1	0x3ca98b26	0.020696234
2	0xbe137c9f	-0.14403008
3	0xbe8edbe0	-0.27902126
4	0xbdfe7582	-0.124247566
5	0xbd71a581	-0.058995727
6	0x3d3fc5ca	0.046819486
7	0x3e920f32	0.28527218
8	0xbd3a5b37	-0.045497146
9	0x3c045dbd	0.00807899
10	0x3e166219	0.14685859
11	0xbc082e03	-0.008311751
12	0xbe0a7f68	-0.13525164
13	0xbe46e1f9	-0.19422139
14	0x3dfad714	0.12248054
15	0xbc9f28bb	-0.019428601
16	0xbd2fc476	-0.04291197
17	0xbe21184c	-0.15731925
18	0xbd6db37f	-0.05803251
19	0xbcca0220	-0.024659216
20	0x3d5d16f4	0.053976968
21	0xbbb3ebaf	-0.005490742
22	0xbca32673	-0.019915795
23	0x3e025425	0.12727411
24	0xbc291e0f	-0.010322108
25	0xbc933df6	-0.017973881
26	0xbd458564	-0.048222914
27	0xbd851a01	-0.064991005
28	0xbe39ec50	-0.18156552
29	0x3e8049e2	0.25056368
30	0x3d107d26	0.0352756
31	0x3ccfa0c8	0.025345221
32	0x3ca66788	0.02031304
33	0xbc7ad4d7	-0.015309534
34	0x3e078f38	0.13238227
35	0xbd22a343	-0.03970648
36	0x3a581970	0.00082435366
37	0x3eddf43e	0.43350405
38	0xbbc4c323	-0.0060047074
39	0xbd1e7f00	-0.038695335
40	0x3df5ac1e	0.119957194
41	0xbd1f929d	-0.03895818
42	0xbe25f040	-0.1620493
43	0xbcd84acc	-0.026402853
44	0x3d411637	0.047140326
45	0xbc9e2f19	-0.019309567
46	0xbdf2ccc3	-0.118554614
47	0x3cb106fe	0.02160978
48	0xbe06f6f7	-0.13180147
49	0x3cc8ca7e	0.024510618
50	0x39e57bbc	0.00043770473
51	0x3e94ff39	0.2910097
52	0x3e10a856	0.14126715
53	0xbde5da30	-0.112232566
54	0x00000000	0.0
55	0x3cfe8667	0.031069947
56	0x3e66c80c	0.2253725
57	0x3d7d9223	0.061906945
58	0xbcf00bf1	-0.02930257
59	0xbc955dc6	-0.018233191
60	0xbd307624	-0.043081418
61	0xbc0f6dfb	-0.008754249
62	0x00000000	0.0
63	0xbc514ff1	-0.012775407
64	0xbd87ad0b	-0.06624802
65	0xbdaee757	-0.08540218
66	0x3c46be81	0.012130381
67	0x3da3a368	0.07990152
68	0x3ebef852	0.37298828
69	0x3e3e9d5b	0.18614714
70	0xbe055b9f	-0.13023232
71	0xbcba6b4e	-0.022756245
72	0xbc0b8a2d	-0.00851683
73	0xbc1d11b7	-0.009586743
74	0xbd915543	-0.070963405
75	0xbca35148	-0.019936219
76	0x3d713468	0.05888787
77	0xbb904658	-0.004402917
78	0xbc01784e	-0.007902218
79	0xbd0f4b50	-0.034983933
80	0x3e6c49d2	0.23075035
81	0xbcb57882	-0.02215219
82	0xbbf193d7	-0.00737236
83	0xbc889077	-0.016670449
84	0xbc68d911	-0.014211909
85	0xbdd7f457	-0.10544651
86	0xbd3abb91	-0.045589034
87	0x3e1e8050	0.15478635
88	0xbe24d491	-0.16096713
89	0xbe1712e1	-0.14753295
90	0xbde4faa4	-0.111806184
91	0xbcb3f47d	-0.021967167
92	0x3cbf5068	0.02335377
93	0xbcc7b812	-0.024379764
94	0x3e781ddc	0.2423014
95	0xbe086f0e	-0.13323614
96	0x3d8ef182	0.06979658
97	0xbd48fafb	-0.04906748
98	0xbd04a4f4	-0.032383874
99	0xbc398f8b	-0.011325727
100	0xbcf72934	-0.030171014
101	0x3c9b87ad	0.018985594
102	0xbdb9917e	-0.090609536
103	0xbe45a848	-0.19302475
104	0xbd34e836	-0.044166766
105	0xbcf972f2	-0.030450318
106	0xbc997c09	-0.018735902
107	0x3e208bf1	0.15678383
108	0x3e786723	0.24258094
109	0x3d4ec69c	0.050482377
110	0x3c12c1a2	0.0089572985
111	0xbd1c08cc	-0.038094327
112	0xbd527897	-0.051384535
113	0xbcd6ab8c	-0.026204847
114	0xbd76c5f4	-0.060247377
115	0xbd56a5aa	-0.052404083
116	0xbcd8b173	-0.026451802
117	0xbc0aecf7	-0.008479348
118	0xbbdb2bfb	-0.0066885925
119	0xbd1414c5	-0.03615262
120	0xbd0b95b5	-0.03407832
121	0xbcbd4e34	-0.02310858
122	0x00000000	0.0
123	0xbc4e4333	-0.012589264
124	0xbc415809	-0.011800774
125	0xbd1b2065	-0.03787269
126	0xbd316b33	-0.043315124
127	0xbd0f2e65	-0.034956355

arith.constant9 f4 [20]
0	0xbed04834	-0.40680087
1	0x3f8c44df	1.0958518
2	0xbff57a98	-1.9178038
3	0xbf66e726	-0.90196455
4	0x3bdcdf73	0.0067405044
5	0x3f685193	0.9074947
6	0x40124821	2.2856524
7	0x3e5abc5e	0.21360919
8	0x4003fdcb	2.0623653
9	0xbc829262	-0.015938941
10	0x3f5b553f	0.8567695
11	0x3e681461	0.22664024
12	0xc009753c	-2.1477804
13	0x3ee30ae4	0.44344246
14	0xbf3ed983	-0.74550647
15	0xbda01276	-0.07816021
16	0x3f23f5b3	0.6404678
17	0xbff99b86	-1.9500587
18	0x3d7620df	0.060089942
19	0xbf8c7840	-1.0974197
