AI/dynamic-gesture/app/models/static_gesture_mk3_model.tflite (tflite, 180244 bytes, 8 tensors)

arith.constant f4 [128]
000000 06 74 01 be cb 18 1b bc a5 17 22 be c0 fa d1 bc
       -0.12641916 -0.00946636 -0.15829332 -0.025632262
000010 0e 10 a7 bd f5 73 e4 bb 84 bc 82 be bf 3d 6d be
       -0.08157359 -0.006971831 -0.2553445 -0.23168086
000020 17 0f b4 bc 96 10 b3 3e b9 98 45 3e 72 69 b2 be
       -0.021979852 0.34973592 0.1929654 -0.34846073
000030 6e 8f 94 be db 63 41 be 17 52 d9 3c c9 9f 68 bd
       -0.29015678 -0.18885748 0.026528401 -0.056793008
000040 2e 51 0f be 99 fb 37 be b3 10 55 be 7c 7e 30 be
       -0.13995811 -0.1796707 -0.20807151 -0.1723575
000050 12 e0 ec bc 47 d4 c5 bd 67 ab 64 be a0 94 0f bd
       -0.028915439 -0.09659629 -0.2233101 -0.03505385
000060 ea d0 9d 3d 90 e5 9b 3c be 70 46 be 55 55 89 be
       0.07705863 0.019030362 -0.19378945 -0.26822916
000070 3f 74 57 bc 4e 91 80 be de 1e b6 be 30 35 a4 be
       -0.013150274 -0.2511086 -0.35570425 -0.3207183
000080 f1 34 9e be 10 02 23 3d 55 1e f7 3b 06 54 3a bc
       -0.30899766 0.03979689 0.0075414577 -0.011372572
000090 9d 00 ee bb 58 e7 58 be 02 e0 00 bd 22 43 01 bc
       -0.0072632567 -0.21182 -0.03146363 -0.007889541
0000a0 40 8b 25 3d bf 4a 42 bc a0 00 01 bd 79 96 c7 bc
       0.040416002 -0.011858641 -0.031494737 -0.024363743
0000b0 cd 88 31 be 49 bc 64 be e8 8c e1 3b 03 d7 9a be
       -0.17337342 -0.2233745 0.0068832524 -0.30242166
0000c0 d8 8f 1d be 63 00 fb 3d 23 18 07 3d 00 c0 77 3e
       -0.15386903 0.12255933 0.032982003 0.24194336
0000d0 b4 f8 a1 be b2 03 16 bc b5 df 22 be c5 62 29 3e
       -0.31635058 -0.0091561545 -0.1590565 0.16541584
0000e0 b1 48 4b be 13 43 1f bc 90 1f 14 be d4 0d 04 3c
       -0.19851948 -0.009720582 -0.14465165 0.0080599375
0000f0 e0 a8 b2 bc 25 aa 61 3e 63 e5 85 be aa 07 a6 3c
       -0.021809042 0.22037561 -0.2615157 0.020267326
000100 a1 0a 15 bc cb 03 49 3d f4 67 2a bb b0 ad f4 3d
       -0.009096772 0.049075883 -0.0026001902 0.11947191
000110 7e a9 3e 3d 4d a6 92 bd ed dc ff 3e 35 ca 2f bc
       0.04654836 -0.071606256 0.4997324 -0.010729362
000120 64 48 55 bc 78 bb 12 be 04 ba b0 bc dd c4 94 be
       -0.013017748 -0.14329326 -0.021573074 -0.29056445
000130 34 bd e2 bd 8f f4 54 be 07 5e 39 3e 6d fa 4f be
       -0.11071244 -0.20796417 0.18102275 -0.20310374
000140 ec 18 0a 3e 4c ee 93 3c 20 41 bd be 01 30 c3 3e
       0.1348607 0.018057965 -0.3696375 0.38122562
000150 ec 0d 03 be 0e d0 be 3c bc a2 75 3e 94 5e 12 bf
       -0.1279828 0.023292568 0.2398786 -0.57175565
000160 16 40 74 be 0b e4 98 be 71 51 29 be 86 cf 99 bc
       -0.23852572 -0.29861483 -0.16534974 -0.018775713
000170 f4 bc 41 be d4 26 07 bd 30 eb 5e be b0 e4 53 be
       -0.18919736 -0.032996014 -0.21769404 -0.20692706
000180 4f 97 40 bc 89 71 28 bd 80 ff 42 3d 80 33 de 3e
       -0.011754825 -0.0411239 0.047606945 0.43398666
000190 7d 2e 58 bd fd b3 05 be fc 9b 8f 3e 32 23 ab bd
       -0.05277871 -0.13056941 0.28048694 -0.08356322
0001a0 f5 45 f3 bc a7 50 94 bb 17 96 8e 3d d8 18 1d bd
       -0.029696444 -0.004526216 0.06962221 -0.03835377
0001b0 a4 43 19 bc 38 3c a5 be 65 e3 2b be e9 45 1f bd
       -0.009354506 -0.32272506 -0.16785963 -0.03888503
0001c0 87 50 83 be b9 dd c9 3e fd fd a0 be 53 99 db 3e
       -0.25647375 0.39426973 -0.31443778 0.42890415
0001d0 09 a6 95 3e dc 16 4d 3c c1 b9 6c be a1 59 6e 3b
       0.29228237 0.012517657 -0.23117734 0.003636934
0001e0 5c 80 ce bd bd 6a fb bc aa 92 b1 be f7 41 8c 3d
       -0.10083076 -0.030690545 -0.34682208 0.06848519
0001f0 68 ab 9c be 0c 18 6d be ed d2 07 bf a1 92 bc 3d
       -0.30599523 -0.23153704 -0.5305622 0.09207655

arith.constant1 f4 [64]
000000 fd 66 3b bd d5 a8 92 3e 2f a9 8c 3e 5b b9 96 bc
       -0.045752514 0.28644434 0.27472827 -0.018398931
000010 8f d4 a6 3e 1a cc 72 3e 87 91 b5 3e 9b 74 4d 3e
       0.32584044 0.23710671 0.3546259 0.20064013
000020 a3 67 82 3e fe 3a 92 3e 66 c8 b4 3d a0 81 58 3e
       0.25469694 0.28560632 0.088272855 0.21143198
000030 84 ab 56 bd 95 62 f5 3d fe bd 60 3e 3b cc ae 3e
       -0.052409664 0.11981694 0.21947476 0.3414019
000040 f2 2c 46 3e 08 21 03 3e b3 a4 3c 3d 46 97 e7 3c
       0.19353083 0.12805569 0.046055507 0.028270375
000050 51 11 b3 3e dc 36 d8 3d 68 f5 37 3e 48 3b ca 3e
       0.3497415 0.105573386 0.17964709 0.39498353
000060 9b f8 a9 3e 58 a4 9f 3e e5 bd 4f bd 90 d4 9a 3d
       0.33197483 0.31180072 -0.050718207 0.07560074
000070 4e 71 a1 3e 8d 12 8a 3e 7b 66 51 3e 5d 75 e7 bc
       0.31531757 0.26967278 0.2044925 -0.028254205
000080 5b e3 13 3e b2 9a b3 3e 80 8e 5f 3e ae 02 34 3d
       0.14442198 0.3507896 0.21831703 0.043947868
000090 aa 96 54 3e ce bc 99 3e 35 61 32 3d a7 d7 cc 3d
       0.20760599 0.3002686 0.043549735 0.1000207
0000a0 c1 23 60 3e 23 e5 1a be 59 89 09 be 00 a8 5e 3e
       0.21888639 -0.15126471 -0.134313 0.21743774
0000b0 6b b3 b5 3d fa 04 9c 3d b3 5f 9a 3e 62 9e cd 3e
       0.08872112 0.07618137 0.30151138 0.401599
0000c0 38 63 e1 bd f3 30 66 3e f2 a2 9c bc 51 42 86 3e
       -0.110052526 0.2247961 -0.019120667 0.2622247
0000d0 be b7 9e 3d 2f bf 32 bd ed e4 9a 3e 10 47 67 bd
       0.0774989 -0.043639358 0.30252782 -0.056464255
0000e0 c5 08 24 3d 2a 7f 95 3e c3 a5 ef bd f4 c4 c6 3e
       0.040047426 0.2919858 -0.117015384 0.38822138
0000f0 4a 06 ca 3e 51 78 5a 3e 6e 57 12 3b 9a f6 38 3e
       0.39457923 0.2133496 0.0022329944 0.18062821

arith.constant4 f4 [128, 1, 3, 64]
000000 b3 98 d7 be 24 6a 89 bb d5 db f2 3b e3 58 c8 bd
       -0.42108688 -0.004193561 0.00741146 -0.09782579
000010 db 22 4b bd 65 6e 4c 3e 80 49 46 3e be 3c 90 3c
       -0.049593788 0.19963987 0.19363976 0.01760709
000020 c4 b2 f9 3c 89 b7 52 3e be bb 64 bf f6 2f 2a 3e
       0.03048075 0.20577826 -0.8934897 0.16619858
000030 d4 c7 31 bf 90 45 2f bd 0f 25 6a 3e 5d 9e da 3d
       -0.6944554 -0.04279095 0.22865699 0.10674737
000040 b8 86 3a 3e b5 01 a8 3d 60 6a 7c be 8f 7b 91 be
       0.18215454 0.082034506 -0.24649954 -0.2841458
000050 1c 70 3a 3d 0c be c7 3d 77 af ec 3d f6 de aa 3d
       0.045517072 0.097530454 0.11556905 0.08343308
000060 52 77 62 be bf 2b dc 3c 73 fc 43 bf a8 5b be 3e
       -0.2211583 0.026876329 -0.7655708 0.37179303
000070 8e 0b af 3e 36 c2 a1 3d 89 6e 2c 3d f8 8d 7b be
       0.34188503 0.07898371 0.042097602 -0.24565876
000080 36 96 6f bd 7f 5e af 3d d2 88 e5 bd af 55 13 be
       -0.05849286 0.085629456 -0.11207737 -0.14388154
000090 ed 31 a2 bd 71 66 0d 3e 77 23 5a be 4d 78 33 3d
       -0.07919679 0.1380861 -0.21302591 0.0438159
0000a0 95 7f 12 3d b9 1e dd bf 73 41 c1 bf 98 ed 29 3e
       0.035766203 -1.7275001 -1.5098099 0.16594541
0000b0 b6 0c 9f bd e5 d0 a0 bc 34 2d 72 3e 8f 7a c4 bd
       -0.07766096 -0.019630859 0.23650056 -0.09593689
0000c0 00 4a 6c bf 48 26 31 3e 59 9b 0d bf ac 1d 90 3b
       -0.92300415 0.1729976 -0.55315167 0.0043980684
0000d0 9d fd 63 be 0d 3e f1 be 71 95 02 3e 84 c1 55 bf
       -0.22264715 -0.47117653 0.1275232 -0.83498406
0000e0 18 f6 79 bf 7f e5 37 3e 70 80 97 be a3 a9 83 3c
       -0.97641134 0.1795864 -0.29590178 0.0160721
0000f0 6c a3 15 3e 80 ee 32 3e 69 f7 7f be 09 70 af 3e
       0.14613122 0.17473793 -0.24996723 0.34265164
000100 9c 14 b8 3c 8c 1f 0d 3e 3a ad db bc d9 21 9b bd
       0.022470765 0.13781565 -0.026816 -0.07574815
000110 46 65 d8 bc 8e 83 23 3e 99 a4 0b 3e ec 0a ec 3c
       -0.026415478 0.15968153 0.13637008 0.028813802
000120 6d 69 68 bd 5b 2f 28 3e a1 cb 33 bf 81 21 ac bd
       -0.056741167 0.16424315 -0.7023259 -0.08404828
000130 84 ec c2 3e 11 00 f2 bd 20 c3 d1 3d 58 6c e6 bc
       0.38071072 -0.11816419 0.10242295 -0.028127834
000140 dd 1f 09 3d d9 24 8e 3d c2 56 01 bf 23 38 87 bd
       0.033477653 0.06940622 -0.50523007 -0.06602504
000150 6e 79 20 3e 73 50 b6 bd ce 24 6d ba 08 1f 20 3e
       0.15671322 -0.08902063 -0.0009046317 0.15636837
000160 98 86 8d be d2 ad 89 bc 6c 65 2f bc 34 24 fe 3d
       -0.2764175 -0.016806517 -0.010705333 0.12409249
000170 9e 7f 54 3e 62 de 14 b9 6d bb 40 bd 5b 95 94 bd
       0.20751807 -0.00014197224 -0.047053743 -0.0725505
000180 72 31 17 be 19 70 a3 bd 70 1e ca bc 29 ad d7 bd
       -0.14764956 -0.07980365 -0.024672717 -0.105310746
000190 ea 4f a6 3c eb 28 8f 3d 81 bd c9 be 6d 6b 5a 3d
       0.020301778 0.06990226 -0.39402393 0.053325105
0001a0 89 cc ad bd d6 ba 95 3d 8e 5f 73 bd 71 f6 83 3d
       -0.084862776 0.07311027 -0.0594173 0.06443489
0001b0 b2 af 52 bd f8 ce 44 bd 87 7b eb 3d c7 dd 29 be
       -0.051437087 -0.048048943 0.1149817 -0.16588508
0001c0 e0 b0 6a 3e 76 6d 5c 3e 15 6d 40 bf a4 3e 61 3d
       0.22919035 0.21526131 -0.75166446 0.05499138
0001d0 d5 80 11 3d 3c ed e9 bd 9f 85 b6 3c ed 3b a4 bd
       0.035523254 -0.11422202 0.022280512 -0.080192424
0001e0 02 44 22 bf 13 56 fa 3d d0 f0 b9 be 91 5f af 3d
       -0.6338502 0.122234486 -0.36316538 0.0856315
0001f0 cd 9c 07 bd ff 89 58 3d 5b 57 88 bd 5f c9 a3 3d
       -0.03310852 0.05286598 -0.06657287 0.07997393
000200 1d 52 11 bf 13 57 c0 3d 22 15 e2 3d af 0d 8f be
       -0.5676592 0.09391608 0.11039187 -0.27940127
000210 74 7a 69 be d0 cc d0 3d b7 93 2b 3e 35 3a 2a bd
       -0.22800618 0.10195315 0.16755567 -0.041559417
000220 bd fa 87 3e 12 25 03 3e 80 04 62 bf c1 af f7 bd
       0.26558486 0.1280711 -0.88288116 -0.12094069
000230 67 4f 8b be d6 98 ec bd f8 f6 87 3e 24 63 2e 3e
       -0.27209017 -0.11552589 0.2655561 0.17030007
000240 18 ed 21 bd 37 f4 03 be de a8 aa be d7 e2 ad be
       -0.03953275 -0.1288613 -0.3333196 -0.33962128
000250 2e 84 12 3e 95 2b 7c be d4 dd ee bd ce 22 48 3e
       0.14308235 -0.24626 -0.11663404 0.19544527
000260 4d 9d d5 be 7c d9 99 3c 68 0e 17 bf 5f 7b 2e be
       -0.41721573 0.018780462 -0.5900636 -0.1703925
000270 92 9c 79 3e b7 40 60 3e d7 da 11 bd ca 19 96 be
       0.24376133 0.21899687 -0.035609093 -0.2931655
000280 e7 39 b8 bc 44 b1 69 3e b6 ce f3 bd 6e d6 5b be
       -0.022488547 0.22821528 -0.11904661 -0.21468517
000290 ba 36 de 3d bc bb 2a 3d c0 2a 9f be b6 b8 d5 bd
       0.10850282 0.041682944 -0.31087303 -0.104356214
0002a0 ea 32 50 be 2c 34 d0 bf 9d 40 b1 bf 9b d3 15 3d
       -0.20331922 -1.6265922 -1.3847843 0.036578756
0002b0 2e 28 51 be 34 61 0d be 09 22 80 3e ef cf de be
       -0.20425484 -0.13806611 0.25025967 -0.43518016
0002c0 b6 e7 1f bf 0f 8e 87 3d f7 a4 0a bf de 6a 07 3e
       -0.6246294 0.066188924 -0.54157966 0.1322436
0002d0 8b f0 e3 bd fa 2b ff be 4c 31 d2 3c 08 30 36 bf
       -0.11129864 -0.4983824 0.025658272 -0.7116704
0002e0 68 49 3e bf 5b 73 84 3c 8e 6d 92 bf c3 17 95 bc
       -0.7433076 0.016168287 -1.1439683 -0.018199807
0002f0 5b 6a 74 3d b1 bf 27 3e 8f a5 75 be 9f 09 02 be
       0.05967174 0.16381718 -0.23988937 -0.12698983
000300 8b e6 1e bc 30 69 fb 3b e6 4b 76 3d dd e6 ec bc
       -0.00969852 0.0076724514 0.060130976 -0.028918678
000310 ca 79 88 bd 00 14 53 bc 93 82 cf 3c 20 8c c6 3d
       -0.066638544 -0.012883186 0.025330817 0.096946955
000320 7a 80 97 bd c9 fd 07 3d 50 11 80 bd 85 53 38 3d
       -0.07397552 0.033201013 -0.06253302 0.045001525
000330 29 6e d9 bc 96 c3 52 bd 71 d7 5a bd 04 99 bb 3d
       -0.026541786 -0.051456057 -0.053428117 0.09160045
000340 43 dd cb bb ac 86 62 3d 25 ea 9f bc 12 3f 6e bc
       -0.006221445 0.055304214 -0.019520829 -0.014541404
000350 8a bb 9a bd 30 29 99 3d f3 5a 9a bd a0 8a 84 3b
       -0.075553015 0.07478559 -0.075368784 0.0040448457
000360 91 f7 af 3b 36 63 3c bd 30 6b 3e bd 9a 01 a3 3c
       0.0053700884 -0.045993052 -0.04648894 0.019898225
000370 3a ad 13 3c 6a be a7 bd b7 ae d0 bd 06 8f 8b bd
       0.009013468 -0.081906155 -0.10189574 -0.06814389
000380 2d bc 8d 3d 5f 3e a9 bd e4 7b 0b bc f1 ee 37 3d
       0.06920657 -0.082638495 -0.008513425 0.044905607
000390 b5 b4 9d 3d fa da 89 bd 82 eb bd 3d 43 8c c1 3c
       0.07700483 -0.067312196 0.09273435 0.023626452
0003a0 20 2a 5e bd e5 c3 a8 bc 1c 14 c7 bd 41 66 8f bd
       -0.054239392 -0.020601222 -0.097206324 -0.07001925
0003b0 76 b3 9a 3b e5 59 83 3d 8a 33 91 bb 23 51 c8 bd
       0.0047211004 0.064136304 -0.0044311928 -0.097811006
0003c0 ad 96 61 3d 22 2f b4 bb e1 b7 37 bc 7a a4 ae bc
       0.055075336 -0.0054987827 -0.011213274 -0.021318663
0003d0 af 58 1d 3c 95 1a 9e bd e7 93 83 3c 9d f3 77 3d
       0.009603663 -0.07719914 0.016061736 0.060535062
0003e0 4f 2a 19 bd 82 01 bc bc 34 c0 4f bd 03 4d 9f 39
       -0.037393864 -0.022949938 -0.05072041 0.00030384221
0003f0 28 ae a5 bd 8f 58 39 bd 14 60 ce bd f4 4d 46 3d
       -0.08089858 -0.04525047 -0.10076919 0.048414186

arith.constant5 f4 [64, 1, 3, 1]
000000 f7 43 08 c0 43 b7 f3 3f df 8c 5c bf 37 fc 9c be
       -2.1291482 1.9040302 -0.8615245 -0.30661175
000010 cf b3 4e 3e 38 9b 9b 3f d3 bc 02 bf 8a 70 37 3f
       0.20185779 1.2156744 -0.5106937 0.71656096
000020 a2 b1 11 40 6e 58 82 be 25 a7 13 bf fd 6e 15 bf
       2.2764668 -0.25458091 -0.5767692 -0.5837248
000030 17 a9 4b 3f 83 0e 40 3f 23 37 b1 3f 4d 04 83 3f
       0.79554886 0.75022143 1.3844951 1.0235687
000040 e9 8c d3 be 26 52 d3 3f 93 4f 4c 3f 17 0d d7 be
       -0.41318443 1.6509445 0.7980892 -0.42002174
000050 a8 9a b2 3f 5c b6 5b 3f 24 02 5e 3f f2 b9 af be
       1.3953447 0.85825133 0.86722016 -0.34321553
000060 ba b9 32 bf 40 69 9f 3d 8c ec a5 3f d5 53 f1 be
       -0.69814646 0.07783747 1.2962813 -0.4713427
000070 81 70 50 3f 64 40 a6 3f 15 b3 3f be f1 66 33 40
       0.8142167 1.29884 -0.18720658 2.803158
000080 6e 5d ea 3f 18 4c 29 3f 7b 80 15 3e f5 96 ad 3f
       1.8309762 0.66131735 0.14599793 1.3561693
000090 9f da 6c bf bc b5 aa be f4 2a 43 bf ec f5 9c bd
       -0.9252109 -0.33341777 -0.76237416 -0.076640934
0000a0 43 49 21 3f 02 d6 75 be b5 c1 99 3f 56 b5 b5 be
       0.63002414 -0.24007419 1.201224 -0.3548991
0000b0 a5 46 cc 3f 95 95 11 bf 0d 5c 80 3e ca a5 b3 3f
       1.5959059 -0.5686887 0.2507023 1.403497
0000c0 43 41 1c 3f 16 57 20 3d 63 05 c0 3f 6f 15 2a be
       0.6103708 0.03914555 1.5001644 -0.16609739
0000d0 a3 cc 20 3f b4 73 01 bd e1 33 98 3e cb 87 15 bf
       0.6281225 -0.031604484 0.2972708 -0.5841033
0000e0 ca 72 1f 40 7e a9 20 bf 5f 99 d8 3f ab 82 61 bf
       2.4913812 -0.62758625 1.6921805 -0.8809001
0000f0 ce 73 5b be d5 a2 89 3e 86 02 b5 3f e2 40 c3 3f
       -0.21430895 0.26882043 1.4141395 1.5254176
000100 c3 7a 3d bf 91 b3 4b bf d4 48 3e 3f 9e 32 ec 3f
       -0.74015445 -0.7957087 0.74329877 1.8452947
000110 55 bd d5 be ba df 64 3f 20 87 8c be 0c 49 bf 3f
       -0.4174601 0.8940388 -0.27446842 1.4944167
000120 8d 34 44 3f 7e 84 37 3f 30 e6 8e 3f a1 92 3e 3f
       0.76642686 0.7168654 1.1163998 0.7444249
000130 60 6c 7d 3f c0 39 8a be f5 1a 8c bf ac 39 7d bf
       0.9899349 -0.26997185 -1.0945727 -0.98916125
000140 bd e5 ef be 35 b6 4d 40 55 5b 7a bf 24 a0 85 3f
       -0.46854964 3.214246 -0.9779561 1.0439496
000150 01 4d 61 bf 57 e1 54 3f 1f 43 c3 3f 62 74 c0 be
       -0.88008124 0.8315634 1.5254859 -0.37588793
000160 e6 c9 06 be 2b 41 9a 3f 69 fe 1c 3f 5b 9b 29 3e
       -0.13162956 1.2051138 0.613257 0.1656317
000170 a9 ad a5 3f 5f a6 53 bf d2 ea d0 be 77 a0 e7 be
       1.2943622 -0.8267574 -0.40804154 -0.45239612
000180 96 bd b2 3f 18 bf cd 3f e0 f5 39 bf d8 39 2d 3f
       1.3964107 1.6073942 -0.726408 0.6766639
000190 03 83 bb 3c 5e 5c a8 3f e6 3f 1f 3f 2f cd c2 bd
       0.02288962 1.3153188 0.62206876 -0.09511792
0001a0 9d b0 46 bf 7c 80 99 bf ab e7 05 bf c4 6c 29 be
       -0.7761324 -1.1992335 -0.5230662 -0.16545397
0001b0 38 73 49 bf ea b6 5d 3e cc 03 09 40 1c 3e 43 3f
       -0.78691435 0.21651807 2.1408567 0.76266646
0001c0 ac 56 cb bd 14 75 9d 3f 2e f1 8d 3e 28 97 20 bf
       -0.09928641 1.2301354 0.27723068 -0.62730646
0001d0 f2 58 20 40 23 5d ed be 42 80 bb 3f 11 c9 d7 be
       2.5054288 -0.4636012 1.4648516 -0.4214559
0001e0 0a 1a 40 3f d5 f6 02 3f 8f 21 b5 3f b0 b6 09 c0
       0.7503973 0.51157886 1.4150866 -2.1517754
0001f0 b2 f1 29 bf b4 5a 80 3e 8b f9 d8 bf 94 e9 69 bf
       -0.6638442 0.250692 -1.6951154 -0.91372037
000200 24 4b 83 bc 4e fb 62 3f 86 c1 35 be a7 39 80 be
       -0.01602704 0.8866471 -0.17749605 -0.25043985
000210 b2 d2 0b 3e 66 ce 42 bf 11 a7 14 bf ca 77 7a 3e
       0.13654593 -0.7609619 -0.58067423 0.24459758
000220 66 42 1d bf 5b b1 13 bf a3 e8 36 3f de 26 41 be
       -0.6142944 -0.576925 0.71448725 -0.18862483
000230 bf 10 a2 3f c0 65 43 3f 94 23 53 3f 0e a4 60 3f
       1.266136 0.76327133 0.8247616 0.8775033
000240 02 d6 e9 bf 03 19 5c be b8 e7 2c bf 55 d7 c2 3f
       -1.8268435 -0.21493916 -0.67541075 1.5221964
000250 fb 29 52 be 98 67 b3 3f 69 09 a0 3f db bc 2c 3f
       -0.20523827 1.4015989 1.2502872 0.6747567
000260 84 3a f0 3f f7 03 9c be 00 0e a5 3c 01 53 95 3f
       1.8767858 -0.30471775 0.020148277 1.1665956
000270 53 c0 b4 be dd ab ad 3c 37 52 49 bf b4 99 87 bf
       -0.35302982 0.021200115 -0.78641075 -1.0593781
000280 8e ef 77 bf a8 b5 2d bf df 24 3c 3f c3 c9 6f 3f
       -0.96849906 -0.6785531 0.7349376 0.9366724
000290 3c 3c 8f be 6f bd b4 bf 5e 62 91 bf 9a 17 b0 be
       -0.27975643 -1.412031 -1.1358144 -0.34393007
0002a0 e9 d6 a2 be e2 03 07 40 bf c5 06 40 88 ec 0e 3f
       -0.31804588 2.109612 2.1058195 0.5582967
0002b0 d4 3d 49 bd 25 65 a7 3f dd 81 87 bf 2e 22 05 c0
       -0.04913123 1.3077742 -1.0586506 -2.0802112
0002c0 37 71 10 be 82 b3 f9 3e 0d 48 3e 3f 50 86 c4 3f
       -0.14105688 0.48769766 0.7432869 1.5353489
0002d0 f9 3a fd be a5 2b 8e 3e 9a 0d c1 3f b3 cb 96 3f
       -0.49459055 0.27767673 1.5082276 1.1780914
0002e0 3d c8 4a be 66 ab c2 3f 6b 5b 3e be 0b 5e 18 be
       -0.19802947 1.5208557 -0.1858956 -0.14879625
0002f0 c1 2a 3e bf d9 6f 68 40 c7 ef 14 bf 1c 37 84 3f
       -0.7428399 3.6318266 -0.5817837 1.0329318

arith.constant6 f4 [20, 128]
000000 82 ce 07 3f 42 d7 e5 bf 31 93 c9 bf d1 d2 7d c0
       0.5304948 -1.7956316 -1.5748044 -3.9659922
000010 6f de c3 3d 4c f5 66 3e 02 49 ca bf 37 78 24 c0
       0.0956391 0.22554511 -1.580353 -2.5698373
000020 d5 09 66 3e c2 a4 49 3d df d9 1d bc d9 46 2b c0
       0.22464688 0.04922939 -0.009634464 -2.6761992
000030 27 7f c0 3f b0 20 cf bf de 3b 85 3d c7 6c 23 3e
       1.5038804 -1.618185 0.065055594 0.15959464
000040 a1 18 82 be 2c 3b 97 3e ad 56 9b bd b6 51 40 be
       -0.25409415 0.29537332 -0.075848915 -0.1878117
000050 ba 83 89 bd d4 86 36 3f 93 ce e0 bd dd d4 cd bf
       -0.06714578 0.7129948 -0.10976901 -1.6080586
000060 c0 3f 69 c0 fe 21 34 c0 9a f4 0f c0 25 3d a0 3e
       -3.644516 -2.8145747 -2.2493043 0.3129665
000070 b0 d0 0f c0 d8 58 ee be 05 f2 4a c0 c8 6c 4b be
       -2.2471123 -0.46552157 -3.1710217 -0.19865716
000080 6d dd df 3d 08 61 f6 bc 62 5a e3 3f 20 f1 22 3e
       0.109309055 -0.030075565 1.7761958 0.15912294
000090 74 0b 9b 3d a2 ea 35 be f8 27 b1 3c cf 27 07 3f
       0.07570544 -0.17765287 0.021625504 0.5279512
0000a0 30 d3 4c 3e fc 66 dc bf 16 cc fb bf 02 32 3a c0
       0.20002437 -1.7218928 -1.9671657 -2.9093022
0000b0 f8 2f 10 3e a6 2c d8 bf 14 d1 55 bd b7 8a 43 bf
       0.14080799 -1.6888626 -0.052201346 -0.7638354
0000c0 71 e4 16 3e b7 06 e5 bf ed fc 81 bf e3 a3 89 bb
       0.14735581 -1.7892674 -1.0155312 -0.004200445
0000d0 2d 20 2b be 2d 3e ce 3d 60 be 40 3e 20 8a ec bd
       -0.16711493 0.10070453 0.18822622 -0.11549783
0000e0 db b9 2a be 0b 91 c8 3e dc 84 5e bd 4d 93 f1 3d
       -0.1667246 0.3917316 -0.054325923 0.117956735
0000f0 09 61 ee 3e 1d ea 04 3e a1 3b 7a 3c a8 06 00 be
       0.46558407 0.12979932 0.015273006 -0.12502539
000100 df de 39 be c4 d8 cc 3e 00 3d 36 be e4 0d 11 3e
       -0.18151425 0.4000913 -0.17796707 0.14165455
000110 5a a6 03 c0 47 f5 e9 bf 2c a8 5c c0 d1 d8 58 be
       -2.0570283 -1.8277978 -3.4477644 -0.21176459
000120 b4 1a 4f be b5 32 86 bf b6 27 51 c0 04 a7 d4 be
       -0.2022503 -1.0484225 -3.2680488 -0.41533673
000130 f0 9c 73 3e 0a 5f e3 bf cd e7 3f 3d a5 e8 e1 bc
       0.23790336 -1.7763379 0.04685192 -0.027576754
000140 e9 37 80 bf d8 37 7b 3c 78 9d 39 c0 3c 28 8f bf
       -1.0017062 0.015333138 -2.9002361 -1.1184154
000150 77 a7 b3 3d a5 79 4d 3c a1 a7 33 bd 93 ca 10 be
       0.08772176 0.012541209 -0.043861035 -0.14139776
000160 b3 f5 bf 3e bc c9 13 bd 28 f7 28 be 32 ca 14 c0
       0.3749214 -0.03608106 -0.16500533 -2.324841
000170 5a 71 1b be 1a 1b 93 3d 26 6b 26 3e 02 85 a2 3c
       -0.15179959 0.071829036 0.16251811 0.019838814
000180 09 b7 65 bd d6 ad 7a bd e1 d2 4a be 13 aa 6f 3e
       -0.05608276 -0.06120094 -0.19807006 0.23404722
000190 39 f7 20 be 04 2e 00 be ec f7 98 bf c4 de 37 bd
       -0.15719308 -0.12517554 -1.195066 -0.04489018
0001a0 07 4c 4c bc 1a cf 20 c0 b1 99 14 c0 aa 3c fb 3e
       -0.012469298 -2.5126405 -2.3218806 0.4906972
0001b0 bc d3 b8 3d 49 92 2f 3e 57 7b 13 c0 61 fe 17 be
       0.0902476 0.17145647 -2.304403 -0.14843132
0001c0 fb cf 1c be ad e8 20 c0 b6 c6 0f be c9 4c 0d bd
       -0.15313713 -2.5142014 -0.14040646 -0.034497056
0001d0 85 dd c9 3f c8 d3 00 be 12 a8 04 bd 1b d5 03 c0
       1.5770727 -0.12580788 -0.032386847 -2.059882
0001e0 7a 96 bc 3d 24 e6 6f 3d eb dc 56 c0 59 10 92 3d
       0.092083886 0.05856909 -3.3572338 0.07132024
0001f0 aa db 92 3d c0 4b 88 bf 60 db 40 3f d2 91 47 be
       0.07170804 -1.0648117 0.7533474 -0.1948922
000200 71 4f c7 3e 66 3e 91 c0 0b e5 69 c0 3d 81 84 3d
       0.38927796 -4.538867 -3.6546047 0.06469963
000210 cc 77 09 3e e4 85 47 bf e8 00 76 bf b6 5d 72 c0
       0.13424605 -0.77938676 -0.9609513 -3.7869697
000220 b4 9b e9 bd 02 6e 8c bd 7c 28 de bd 90 db 57 3f
       -0.11406651 -0.0685692 -0.108475655 0.843194
000230 3e 47 c1 bf e8 f7 b8 bf b9 58 97 bd c2 c7 ec 3d
       -1.5099866 -1.4450655 -0.073899694 0.11561538
000240 ed 03 0e be 3a 59 03 bd c3 70 07 3e d4 50 f4 bd
       -0.13868685 -0.032067515 0.13226609 -0.11929479
000250 c6 c3 2f 3e e3 89 13 3f f4 69 f5 3c c6 e1 eb bd
       0.17164525 0.57632273 0.029957749 -0.11517672
000260 77 17 86 bf 60 e4 80 be ee 36 7e 3e 52 3f 12 bf
       -1.0475911 -0.25174236 0.24825642 -0.5712787
000270 2e c6 a8 be bc 4f 6d c0 cb c7 4b c0 2d b9 4a be
       -0.329637 -3.7079916 -3.1840694 -0.19797201
000280 da fe c8 3b d2 3d c9 c0 45 b1 76 bf 1c 68 95 bb
       0.0061338963 -6.2887964 -0.9636424 -0.00455953
000290 bb 53 25 be ad 56 15 bc 28 fe b4 bd 50 0e 4e c0
       -0.16145222 -0.009114903 -0.08837539 -3.2196236
0002a0 ec d6 21 be f4 5a 5d be bf 20 83 3f 2c 29 df bc
       -0.15804642 -0.21616727 1.0244368 -0.027241312
0002b0 43 f9 c8 3d dc 58 19 3f 42 26 40 3d 82 c7 d3 bf
       0.09813168 0.59901214 0.046911485 -1.654526
0002c0 1d 51 f6 3d f7 6c 2e c0 6d f8 e4 3c 6c 76 80 3c
       0.1202719 -2.7254007 0.02795049 0.015681468
0002d0 82 48 d4 3d e5 73 31 3d b0 89 18 3e 5a c6 89 3d
       0.10365392 0.043323416 0.14896274 0.06727286
0002e0 2d 10 d3 bd b4 5c 67 3e 93 76 9e 3a f6 fa 28 be
       -0.1030582 0.22593957 0.0012089781 -0.16501984
0002f0 c3 14 af 3e 22 7c 07 be 74 aa e1 3c 5d cf 87 3d
       0.34195527 -0.13230947 0.027547099 0.06631348
000300 fd 45 32 be 11 52 1b 3f 40 12 ce 3d 83 72 6a bd
       -0.17409511 0.606721 0.10062075 -0.057238113
000310 e9 5d 8f 3d 3f f7 19 3f 4d eb 24 be 01 70 1e be
       0.07000334 0.6014289 -0.16105385 -0.15472414
000320 b3 94 07 be fe 63 7b 3f 6f 8e 7e bf 14 6f 21 c0
       -0.13240318 0.9819945 -0.99436086 -2.5224047
000330 73 17 60 bf 2e 20 d6 bf fe 05 ab bd 13 33 b0 bd
       -0.8753578 -1.672857 -0.08350752 -0.08603492
000340 64 61 d7 c0 f0 51 15 be bd 25 67 3d ff 00 42 3f
       -6.7306385 -0.14582038 0.056432474 0.7578277
000350 46 5a 9a bc 37 92 63 be 32 d6 55 be 6a 31 66 3b
       -0.018841874 -0.22223745 -0.2088249 0.0035124668
000360 f1 e8 72 3e 44 1f 30 bf 99 63 90 bd e9 2a 82 c0
       0.23721673 -0.6879771 -0.07050247 -4.067738
000370 a8 46 b9 3c 98 94 42 3e 9c 55 8d 3c 9f 1b 2b 3e
       0.0226167 0.19001997 0.017252736 0.16709755
000380 e5 56 09 3e 27 ea f8 3d cf c9 ab bd 78 7d ef bf
       0.13412054 0.12154036 -0.08388101 -1.8710165
000390 f9 82 0e 3d 09 ac ab bd b9 69 c5 c0 a0 0d 9d bd
       0.034792874 -0.083824225 -6.1691556 -0.076686144
0003a0 ea 4f 4f 3d 81 fc 39 3e 32 48 d1 c0 f6 b3 d9 3e
       0.05061332 0.18162729 -6.540063 0.42520112
0003b0 db 2b 12 3f 3a d8 09 be bc 45 3c c0 6d b7 1b be
       0.5709817 -0.1346139 -2.9417562 -0.1520669
0003c0 80 48 59 be f0 cf 88 3d 3c 9c 30 3e 41 ae 85 3c
       -0.21219063 0.06680286 0.17247099 0.016318442
0003d0 35 85 8c c0 52 66 1e be dc 2f 5e bd 9e fb 22 c0
       -4.3912606 -0.1546872 -0.05424486 -2.5466075
0003e0 c3 29 ee bd ae d1 9d 3d 9f ea 76 3c cb 31 90 3e
       -0.11629059 0.07706009 0.015070586 0.2816299
0003f0 69 17 07 3d 59 e6 32 c0 69 0e 07 c0 88 f2 18 be
       0.03298131 -2.7953093 -2.1102545 -0.14936268

arith.constant7 f4 [128, 128]
000000 bc 14 0a bf ee 24 85 bd 0a 1b bf be e0 8f ef bd
       -0.5393789 -0.065011844 -0.37325317 -0.11697364
000010 ac 8c 6c be 03 01 bc 3d eb 73 01 be a1 cb 3e be
       -0.23100537 0.091798805 -0.12641875 -0.18632366
000020 46 c1 56 bd 17 4a 0a 3e 83 80 f3 3e b3 87 59 be
       -0.052430414 0.13504826 0.47558984 -0.21243171
000030 e5 a8 81 be 0f 06 e1 3e 0a fa 0a 3f 71 c4 03 bf
       -0.2532417 0.43949935 0.5428778 -0.5147162
000040 c5 05 83 3d 5a 5d 7c be ea d6 ac be 59 c6 90 be
       0.06397585 -0.24644986 -0.33757716 -0.28276327
000050 92 26 00 be d8 0a 4d be fa b5 d5 bd cb bc bd 3d
       -0.12514713 -0.20023668 -0.104351 0.09264525
000060 06 4a b1 bf f0 4c b7 be 18 3a ad be f4 cb 89 3e
       -1.3850715 -0.35800886 -0.33833385 0.26913416
000070 c6 ce 2a bd 5b af b4 be 05 b1 d8 be 0a 95 80 be
       -0.0417011 -0.35290036 -0.42322555 -0.25113708
000080 d1 fb fc be 29 e0 2a 3f 2f 5e b2 3e da 96 e5 bd
       -0.4941087 0.6674829 0.3483748 -0.11210413
000090 cb 75 94 bd 6f dc a9 be 0b 5b dd 3d 99 34 af bd
       -0.0724903 -0.3317599 0.10808381 -0.08554954
0000a0 65 49 24 3f f4 87 c5 bc 3e 0b 25 bd 29 22 c2 3d
       0.6417449 -0.024112679 -0.040293925 0.09479172
0000b0 cc 52 c2 3b 74 67 17 be 14 42 b0 3e d4 3c 51 bd
       0.0059302803 -0.14785558 0.34425414 -0.0510834
0000c0 4f 52 97 be c6 e8 5d bd 14 12 d2 3e 29 34 a5 3e
       -0.29554984 -0.05417707 0.41029418 0.32266358
0000d0 84 3e f4 be 85 27 b6 bd 94 21 56 3d 47 3f bf 3e
       -0.47703946 -0.088942565 0.052278116 0.37352964
0000e0 5a ea 1c be 62 cb 05 be 35 09 2c bd 6f 0c 3c bc
       -0.15323773 -0.13065866 -0.042000968 -0.011477574
0000f0 3f 2d f5 3c e9 24 85 3e 53 54 c9 bd 77 d9 d1 3e
       0.029928802 0.26004723 -0.09830537 0.40986225
000100 db f4 8c bc ed 91 83 bf e0 44 0e be 2a 5d 4a 3f
       -0.0172066 -1.0278908 -0.13893461 0.7904841
000110 d6 0e 08 3f ff 6a 8e be 6a b7 a9 3e a9 d8 b7 3d
       0.5314764 -0.27816007 0.33147746 0.089768715
000120 9f ac 9f 3d c0 7b ad 3d e2 15 26 bd 46 32 f4 3c
       0.07796597 0.08470869 -0.040548213 0.029809128
000130 d3 64 9e bd 6a f9 29 bf e5 c2 10 3f 7c fe 73 be
       -0.077340744 -0.663962 0.56547385 -0.23827547
000140 18 b5 f3 3e ad 7e 0c be 04 60 96 3d 25 89 8d 3e
       0.475991 -0.13720198 0.07342532 0.27643695
000150 c2 78 05 c0 7c ec ae 3e d1 48 9b 3d 48 6b 01 c0
       -2.0854955 0.34164798 0.07582248 -2.022173
000160 c1 56 23 3e dc f3 f1 be f6 0c 8f be b7 6a 6e bd
       0.15951063 -0.47256362 -0.27939576 -0.05820724
000170 46 ac de be a1 63 86 3d f5 05 9d 3d af 2d c0 3c
       -0.4349081 0.065619715 0.07667152 0.023459284
000180 12 1c 36 3d 45 04 02 3e fe ee fb 3e 91 75 ec 3e
       0.044460364 0.12696941 0.49205774 0.46183446
000190 d7 da 04 3e 55 b6 87 be 2d f7 03 3f ca 71 e1 3d
       0.12974106 -0.26506296 0.51549035 0.11008032
0001a0 e8 39 d4 bc db 2e 8f bd 9e e3 2b 3e 15 b7 d6 bd
       -0.025906518 -0.06991359 0.16786048 -0.10484139
0001b0 44 29 8e bc 99 c0 d3 be 18 8a 89 be de ee 07 bf
       -0.017353661 -0.41357878 -0.2686317 -0.5309886
0001c0 be e2 aa bd 45 06 b4 bc 14 4d b5 3d f0 39 70 3e
       -0.08344029 -0.021975646 0.08852592 0.23459601
0001d0 a2 bb b9 bd 93 69 e2 3e 49 45 87 bd a1 47 4f be
       -0.09068991 0.44221172 -0.06605012 -0.20242168
0001e0 c1 0d c6 bd fc 38 c1 3d a7 c2 82 be c8 e1 7e be
       -0.09670592 0.09434697 -0.25539133 -0.24890816
0001f0 c6 71 62 3d c2 e5 60 be ea eb 1b c0 01 44 4f 3f
       0.055284284 -0.21962646 -2.436274 0.8096314
000200 59 7a ca 3e da b7 4a bd 42 a5 b0 3e c9 cf 71 be
       0.3954647 -0.04949174 0.34501082 -0.2361442
000210 5e 7a cc 3d 9c 2b ee bd a9 2f 29 3e 3f 40 26 3e
       0.09984277 -0.116294116 0.16522087 0.16235445
000220 1a 85 08 be db 66 f0 3e 05 07 13 3f 52 0b 86 bf
       -0.13332024 0.46953472 0.57432586 -1.0472205
000230 cf 2e 71 3f 3d 45 94 3e 62 04 48 c0 f6 83 4a 3f
       0.9421205 0.28959075 -3.1252675 0.79107606
000240 08 af 1c c0 ba e8 bb 3e ee 89 b6 3e 9f 53 d2 3d
       -2.448183 0.36700994 0.35652107 0.10269856
000250 d1 79 5e 3d 72 25 ea 3d 33 9b 21 3e f7 ac f0 3c
       0.054315392 0.114329234 0.1578186 0.029379351
000260 36 8d a7 be 9e 61 3d bf 94 cb 85 3e 23 d7 9d 3e
       -0.32724923 -0.73977077 0.2613188 0.308282
000270 12 b0 92 3d 23 12 95 3e b6 07 d2 3d a8 7a 58 3f
       0.07162489 0.291154 0.10255377 0.8456216
000280 6f c6 85 3f c8 13 04 c0 29 a9 3d c0 e4 10 92 3d
       1.0451182 -2.0637074 -2.9634497 0.07132128
000290 d3 d2 00 3e d2 e5 a9 3e ba 47 82 3d 47 5d 17 3e
       0.12580423 0.3318315 0.06361337 0.14781676
0002a0 93 e3 56 be 48 22 15 bd 4f 7c d4 be d3 1c f7 3d
       -0.2098525 -0.036409646 -0.4150109 0.12066045
0002b0 f9 19 0c 3e 6c b9 06 3e 86 c6 8f 3e 4d 8d d4 3e
       0.13681783 0.1315667 0.2808115 0.41514054
0002c0 13 9c 3a bf ae 9d 39 3e 85 d5 c1 be 45 73 3c 3d
       -0.728944 0.18126556 -0.37858215 0.046008367
0002d0 07 a4 20 3f 72 2a 8e 3d 92 24 a6 3e 0a eb 11 bf
       0.62750286 0.069416896 0.32449776 -0.56999266
0002e0 15 9a 02 3f 40 fc 45 3c e1 a6 17 c0 a2 a9 f1 bf
       0.5101636 0.012084067 -2.3695605 -1.8879893
0002f0 bf 8f b9 3c 57 54 13 3d a3 7f 11 3f 43 1b c4 be
       0.022651551 0.035969105 0.56835383 -0.3830205
000300 d6 0b ec bb 05 24 61 bd b8 7e aa be ad 5f 73 3f
       -0.0072035594 -0.05496599 -0.33299804 0.95067865
000310 d4 52 5f bf 41 fe 3a bf f9 8a 9c bd 84 e0 20 3e
       -0.8723576 -0.7304421 -0.076436944 0.15710646
000320 cc b1 9e bd 3a 2e c8 3f 25 1b 00 be 02 c8 5e c0
       -0.07748756 1.5639107 -0.12510355 -3.4809575
000330 cf be a4 3f 04 74 bf bf 66 fb d6 3e 85 47 7b 3e
       1.287073 -1.495728 0.41988677 0.24539001
000340 31 42 8f bf c7 b5 92 be 40 47 89 3f 07 ee 2e 3f
       -1.1192075 -0.2865431 1.0724869 0.6833195
000350 10 38 0e 3f bd c6 4c bf af 89 02 be a7 79 97 bf
       0.55554295 -0.7999075 -0.12747835 -1.1834
000360 e5 cb 77 3e 17 de 17 3f 90 d1 c0 3e fe b9 a4 3d
       0.24198873 0.5932326 0.37659883 0.08043288
000370 8c 58 da 3e 95 d3 cf 3d 98 bf ad 3e b5 0f 92 3e
       0.4264568 0.10147778 0.33935237 0.2852761
000380 3e c1 14 be e3 d4 cd bc 4b 66 bc bf e8 2c df bd
       -0.14526841 -0.025125926 -1.4718717 -0.10897237
000390 f5 16 41 3d e6 9c 44 3e 99 4d 3a be 0e 14 10 3d
       0.047141034 0.19200477 -0.18193664 0.035175376
0003a0 cc 98 44 3d 72 21 ae 3d d3 ed f7 3d d2 f9 00 bf
       0.04799728 0.08502473 0.12105908 -0.50381196
0003b0 58 c6 b2 bc a3 23 a7 3f fa 5d 2b 3f 95 d0 20 3e
       -0.021823093 1.305775 0.6694027 0.15704568
0003c0 4a 27 0a be 5a 53 70 be fd 8c 05 3f 9f 3b 99 bd
       -0.1349155 -0.23469296 0.52168256 -0.07482075
0003d0 7a ab 9a be c5 ad b4 be cf 26 bc 3e 0a 40 d2 3c
       -0.3020895 -0.35288826 0.3674836 0.025665302
0003e0 73 3a fe bf fe 72 96 bd 68 66 56 3f 18 d2 54 3f
       -1.9861587 -0.07346152 0.8375001 0.8313308
0003f0 8c 89 93 bf 9e f6 4e bf dd e7 92 be fb 61 51 3f
       -1.1526351 -0.8084506 -0.28692523 0.8179013

arith.constant8 f4 [128]
000000 52 ed 72 3d e0 5d 10 be 26 c0 7b bd 3c 42 30 3c
       0.059308358 -0.1409831 -0.061462544 0.010757979
000010 5c c1 e8 bc da a9 90 3e ea 93 87 be fa 2f 3c 3e
       -0.028412513 0.28254586 -0.26480037 0.18377677
000020 38 5d cc bd 2d b0 2c bd c1 d5 00 bd 56 c6 4c 3e
       -0.099787176 -0.0421602 -0.03145385 0.19997534
000030 3f b4 c7 3e 50 84 2c bd ef f4 9c bc 3e 1c 1f bc
       0.39004704 -0.04211837 -0.019159762 -0.009711323
000040 f6 a2 48 bd cf c5 d3 bd 57 82 1a bd 85 71 7d bd
       -0.048983537 -0.10340463 -0.037721958 -0.06187584
000050 31 ae 8f bd d5 c3 32 3d 94 bc 35 bd 8b c4 62 3c
       -0.07015646 0.04364379 -0.044369295 0.013840805
000060 cd d5 5b bd 06 49 5a bd e1 40 33 3e 4b e3 60 be
       -0.053670693 -0.053292297 0.17505218 -0.21961705
000070 bf ac 2f bb 1c 23 72 3e c1 4b 2a 3c d3 c3 04 bd
       -0.0026805846 0.23646206 0.010394038 -0.032413315
000080 e7 eb e2 bc cb ff 65 3e 4f a6 c4 bd c6 de 16 bc
       -0.027700378 0.22460859 -0.09602033 -0.009208387
000090 70 97 1c bc 98 1a 3e bd 2a 91 0c bd c3 46 87 bc
       -0.00955759 -0.04641208 -0.034318127 -0.016513234
0000a0 89 5d 29 bc 4a c3 e2 3d dd 89 48 3e 2b 95 0d bc
       -0.010337242 0.11072405 0.1958384 -0.008641521
0000b0 25 88 01 bd e3 19 b5 3c 00 d1 db bc 66 bc 22 3e
       -0.03162398 0.02210707 -0.026833057 0.15892181
0000c0 9c 8f e9 bd 29 52 10 be 58 58 5c be 03 3d ba bc
       -0.114043444 -0.14093842 -0.21518075 -0.02273417
0000d0 67 5b af bc 49 94 6c bc d7 1a 46 bd 5c 68 7a bd
       -0.021405889 -0.014439651 -0.04836544 -0.06113468
0000e0 ba fc b0 bd 31 0d 5d 3d a0 44 30 bd a3 cc 2b bd
       -0.08641954 0.05396766 -0.043034196 -0.041943204
0000f0 7f 07 52 3e 4f ed 13 bc fe 62 d6 bb 9e 04 0c bd
       0.20510672 -0.009028747 -0.0065425625 -0.03418409
000100 93 d9 62 bc 0d a2 74 3e 33 4b 65 bb c7 06 e6 bc
       -0.013845819 0.23889942 -0.003498745 -0.028079404
000110 7b a1 25 3e fb 46 f8 3d 06 19 11 3d 8b b9 c6 bc
       0.16174881 0.121229135 0.035424255 -0.024258396
000120 1c bb 09 bd db 46 b0 3d 5f 34 f1 3e ed 6d d8 3b
       -0.033625707 0.086072646 0.47110268 0.006604901
000130 c0 25 86 bc 35 d3 77 3e fd 80 41 bd b8 70 8d bc
       -0.016375422 0.24201663 -0.047242153 -0.017265663
000140 6e 1f 13 be 90 06 86 bc 3f 82 bf 3d d4 b4 78 3d
       -0.14367458 -0.016360551 0.09351014 0.060719326
000150 0f 54 38 bd dc 99 28 bc 05 93 2a bd bf 74 87 bc
       -0.04500204 -0.010290589 -0.041644115 -0.016535161
000160 3d db 73 bd 28 ad af be 7a 05 0a bc f8 40 da 3b
       -0.059535254 -0.34311795 -0.008424157 0.006660577
000170 00 00 00 00 5e 98 60 bb fb 0e 64 bc 52 16 8b bd
       0.0 -0.0034270505 -0.013919587 -0.06791367
000180 49 d3 8a bd 34 35 62 bc ce 2f 55 bd f7 5a ad 3b
       -0.06778581 -0.01380663 -0.052047543 0.005290385
000190 fc cf 14 bd 34 ae 28 bd 37 5b 9a bd a7 d3 14 bd
       -0.03633116 -0.041181758 -0.07536929 -0.03633466
0001a0 89 3b 7d bd 82 72 8f 3d e7 3e 17 3d eb 8a 03 3e
       -0.061824355 0.070042625 0.036925223 0.12845962
0001b0 0b 9a 36 bc 4e 07 dd bc dc c7 89 3c 85 c5 03 bc
       -0.011145125 -0.026981022 0.016818933 -0.008042698
0001c0 6e 26 cf 3d 06 61 f8 bd 95 28 89 bc a1 90 19 bd
       0.10114752 -0.12127881 -0.016742984 -0.037491444
0001d0 2f 50 9e 3e bc f1 b9 bc 8f 5a 89 bc 50 c3 95 bd
       0.3092055 -0.022698276 -0.016766815 -0.073126435
0001e0 2d 15 2e bc 1f 90 e9 bb 13 d8 87 bd 76 98 f0 3d
       -0.010625166 -0.0071277763 -0.0663301 0.117478296
0001f0 21 a3 c4 bb 9b d1 40 3e 0a 3c 33 be 06 d2 26 bd
       -0.006000892 0.18829958 -0.17503372 -0.040727638

arith.constant9 f4 [20]
000000 32 d6 ed bd 06 a5 2a 3f 64 0c 01 c0 8b 2d 89 bf
       -0.1161312 0.66658056 -2.0163813 -1.0717024
000010 f3 29 6e bf 3b a4 2e 40 11 18 43 40 6c 87 99 3d
       -0.9303276 2.7287738 3.048344 0.07496533
000020 f2 03 2c 40 71 15 5f 3f 9e b5 13 3f 47 fd 6c bd
       2.6877408 0.8714209 0.57699 -0.05785873
000030 a7 4d 03 c0 d1 38 78 3f f8 24 94 bf c5 5b 7c be
       -2.0516145 0.96961695 -1.1573782 -0.24644382
000040 b7 88 f1 3c 9e f2 2f c0 c4 36 92 3e a1 b9 d2 bf
       0.029484136 -2.7491832 0.28557408 -1.64629
