AI/dynamic-gesture/app/models/static_gesture_mk4_v1_model.tflite (tflite, 180244 bytes, 8 tensors)

arith.constant f4 [128]
-0.05331357 0.2852681 0.28687778 -0.0069010034 0.37852052 -0.0027872017 -0.32847065 0.19181786
0.17800355 -0.12306924 0.04842695 -0.37692398 0.05584447 -0.21486823 -0.085699484 -0.0050262646
-0.25560576 -0.010029996 -0.0024819903 0.1394689 0.09146198 0.06875054 -0.007170927 -0.07563241
-0.068257004 -0.19337921 -0.12334836 -0.33146766 0.057074126 -0.17563288 -0.11448902 -0.18323213
0.05352401 -0.009594874 0.2519615 -0.15158942 0.200285 -0.1608939 0.010068637 -0.77265275
-0.09112272 -0.0042898604 0.0010851141 0.19144799 -0.09950526 -0.0035503292 -0.019818658 -0.0047834
0.04399232 -0.07325517 0.15197346 0.20933707 -0.024661189 -0.20477621 0.2514662 0.011624299
0.32011363 0.33954823 -0.0065094708 0.20955123 0.043737873 0.25733697 -0.10330111 -0.0063693174
0.40273064 -0.011691342 -0.23690449 -0.096202694 -0.022815803 -0.077599585 -0.11303759 -0.013254222
-0.08307741 -0.010688307 0.26862907 -0.2988763 -0.06546869 -0.0044963197 -0.18505764 -0.10247131
-0.5341421 -0.12915546 -0.059390604 -0.016165085 -0.032544922 -0.12039221 0.001807919 -0.33962208
-0.492811 -0.114036165 -0.19624771 0.08019508 -0.12023629 -0.16825849 -0.0110664675 -0.3784053
-0.06724715 -0.021483487 -0.21969758 -0.12468341 0.012410717 -0.13679393 -0.14044835 0.2559211
-0.02671018 -0.2755336 -0.034242097 -0.050608926 -0.09057345 0.13380331 -0.087161236 -0.084332086
0.17610647 -0.034081902 -0.004616026 -0.015734734 -0.11140911 -0.2684886 -0.46705636 -0.023649203
-0.2845489 -0.005639445 0.066181414 -0.0074411356 -0.004920986 -0.31349692 0.38408348 -0.45443463
00000000: 545f 5abd a90e 923e a5e1 923e d021 e2bb
00000010: 71cd c13e 7ca9 36bb 4e2d a8be e76b 443e
00000020: 9046 363e ba0b fcbd 565b 463d 2efc c0be
00000030: 2cbd 643d 6b06 5cbe 3683 afbd 5db3 a4bb
00000040: c2de 82be da54 24bc e3a8 22bb efd0 0e3e
00000050: 6b50 bb3d 15cd 8c3d 18fa eabb 2ae5 9abd
00000060: 54ca 8bbd 3305 46be 119e fcbd 21b6 a9be
00000070: 8fc6 693d 1bd9 33be 3879 eabd 34a1 3bbe
00000080: fe3b 5b3d d233 1dbc 1901 813e 423a 1bbe
00000090: 8317 4d3e 5fc1 24be edf6 243c 92cc 45bf
000000a0: 8c9e babd f591 8cbb 633a 8e3a f10a 443e
000000b0: 6ac9 cbbd a4ac 68bb bd5a a2bc 11be 9cbb
000000c0: 4a31 343d ce06 96bd ee9e 1b3e 755c 563e
000000d0: 4306 cabc dbb0 51be 2ec0 803e d873 3e3c
000000e0: efe5 a33e 44d9 ad3e 664d d5bb 9994 563e
000000f0: 7c26 333d acc1 833e 888f d3bd b5b5 d0bb
00000100: b632 ce3e 0b8d 3fbc 1797 72be eb05 c5bd
00000110: 35e8 babc 88ec 9ebd 4180 e7bd 3d28 59bc
00000120: 7d24 aabd 021e 2fbc c089 893e 5006 99be
00000130: 7314 86bd dd55 93bb c07f 3dbe 7adc d1bd
00000140: 89bd 08bf 5441 04be 9043 73bd a46c 84bc
00000150: d34d 05bd 3190 f6bd b2f7 ec3a f2e2 adbe
00000160: b951 fcbe cb8b e9bd 29f5 48be 513d a43d
00000170: 723e f6bd f44b 2cbe 2150 35bc 57be c1be
00000180: e0b8 89bd 23fe afbc 67f8 60be 045a ffbd
00000190: 5256 4b3c b513 0cbe b1d1 0fbe 1708 833e
000001a0: 4fcf dabc bd12 8dbe 7141 0cbd 4e4b 4fbd
000001b0: 937e b9bd bc03 093e 9781 b2bd 4db6 acbd
000001c0: 4155 343e 7799 0bbd 0842 97bb 21e6 80bc
000001d0: 762a e4bd 5677 89be 0322 efbe f9bb c1bc
000001e0: 65b0 91be 18cb b8bb 1f8a 873d c5d4 f3bb
000001f0: 3940 a1bb ab82 a0be 97a6 c43e a8ab e8be

arith.constant1 f4 [64]
0.098886855 0.25706625 0.1163948 0.2314377 0.20964761 0.11659001 0.2552814 0.21432915
0.03777061 -0.08650983 0.13364296 0.29048374 0.22056814 0.035723716 0.30534714 0.14207911
0.2232565 -0.09142873 -0.19735771 0.2271331 -0.02753727 0.28599697 0.34116518 0.15616772
0.13288975 0.12989879 0.14552411 -0.022987843 0.22527018 -0.0576002 -0.118119515 0.27289715
0.23764227 0.28872547 0.023714373 -0.030008769 0.033643205 0.2283967 0.2597847 -0.1904368
0.11234319 -0.14382662 0.22019036 0.27626815 0.23841304 0.26679772 0.048202697 0.2591666
0.22573195 0.22678101 0.08630844 0.13270454 0.23517418 0.14055985 -0.19498281 0.21997419
-0.13724096 -0.0388288 0.15540761 -0.03005034 0.13124894 -0.03059461 0.04774365 0.20151016
00000000: 3185 ca3d 309e 833e 6660 ee3d 01fe 6c3e
00000010: ddad 563e bec6 ee3d 3eb4 823e 1a79 5b3e
00000020: 5bb5 1a3d 112c b1bd b3d9 083e 49ba 943e
00000030: 9ddc 613e 0853 123d 7656 9c3e 307d 113e
00000040: 5a9d 643e fc3e bbbd 2418 4abe 9495 683e
00000050: d795 e1bc 326e 923e 34ad ae3e 6eea 1f3e
00000060: 4014 083e 3004 053e 4604 153e 0051 bcbc
00000070: 3aad 663e 30ee 6bbd a5e8 f1bd 2db9 8b3e
00000080: 7f58 733e d3d3 933e a544 c23c f3d4 f5bc
00000090: 75cd 093d d3e0 693e 8002 853e dd01 43be
000000a0: 3014 e63d 4947 13be 9579 613e 0573 8d3e
000000b0: 8c22 743e b699 883e 3170 453d 7cb1 843e
000000c0: 4726 673e 4839 683e 7bc2 b03d b3e3 073e
000000d0: 80d1 703e ecee 0f3e 93a9 47be ea40 613e
000000e0: e588 0cbe f30a 1fbd 2c23 1f3e 212c f6bc
000000f0: 1f66 063e 8ca1 fabc d88e 433d ae58 4e3e

arith.constant4 f4 [128, 1, 3, 64]
-0.54451966 0.16865727 0.48378414 -0.5270704 -0.27323714 -0.28099215 -0.15273881 -0.56131864
0.49382234 -0.08852372 0.48913252 -0.19265021 -0.6193477 -0.4173431 -0.3400435 -0.62724245
-0.78948915 0.034274668 0.31223345 0.5289517 0.48469535 -0.35864994 -0.15923232 -0.28512755
-0.33860675 -0.412471 0.19700813 0.6321349 -0.5673176 0.5224371 0.27521217 0.41829553
-0.9846416 -0.20965628 0.8495146 -0.38502017 0.46439347 -0.46535525 0.51174355 0.2741807
0.38145083 0.2461763 -0.6301983 -0.18910359 0.26355204 -0.087763816 -0.5947737 -0.2654835
-1.0313357 -0.2983724 0.10945975 0.102918655 0.78079593 0.2784339 0.07484001 -0.5412622
0.44647554 0.27787468 0.28448576 0.094687566 0.1898127 0.0861334 0.18738775 -0.4368285
0.25345218 0.03424409 -0.08045133 0.36529857 0.22195393 0.04809579 0.16851857 0.36022937
-0.16617858 -0.37881988 0.1361025 0.29426038 -0.07997422 -0.6275313 0.40866473 -0.55635124
-0.33755028 -0.39402178 -0.16095051 0.374661 -0.10254326 0.42398763 0.36927328 -0.030227376
-0.11335133 0.04168356 0.27651075 -0.16264248 0.058719613 0.563082 -0.3249957 0.23075983
-0.4595112 0.16424194 0.60401106 0.1546259 -0.38054183 0.33317465 0.24731213 -0.11238578
-0.21154265 -0.32935134 -0.2865023 0.2009784 0.032806136 0.2942225 -0.6361782 0.2841727
-0.38775745 0.24220559 -0.12588876 -0.080813326 0.06399263 -0.44348708 -0.44542304 -0.09693888
-0.1142117 -0.32368085 -0.029033262 -0.32855242 -0.071491234 -0.3269688 -0.2843349 0.19555265
-0.038429514 0.42816845 -0.39905956 0.13169767 0.11829228 -0.11741467 0.25230882 0.07811251
0.16253223 0.26707017 -0.024260517 0.3201865 -0.044075094 -0.596065 0.0073885834 -0.33060893
-0.31091884 0.25483084 -0.14114305 0.01544836 -0.10188341 0.037656244 -0.044130232 -0.09007389
-0.016650096 0.020787226 0.5131126 0.39265746 -0.24105078 0.80037254 -0.062658 0.013804745
-0.16311896 0.32782954 0.60433656 -0.118140996 -0.41477117 -0.026048733 0.12896334 0.0370998
-0.2780944 -0.38261023 -0.46830118 0.30178457 -0.052680336 0.31619176 -0.43029097 0.34610948
-0.14304987 0.1145653 0.07343334 0.047981687 -0.44324142 -0.38935772 0.5804694 -0.2956409
-0.2967985 -0.039674796 0.36229274 -0.054363307 -0.053670563 -0.046781156 -0.20221545 -0.0018707953
-1.2331108 0.64358056 -0.20768343 -0.28674963 -0.09976556 0.26082626 0.2160576 -0.28738165
0.021390053 0.32506374 0.46890676 0.15787019 0.03891983 -0.1437291 0.16274764 0.07942194
-0.038077485 0.5754289 -0.5761414 0.058758136 -0.2962745 -0.070726186 -0.07694332 0.036621742
0.2552101 0.06830307 0.38998944 -0.07074637 0.1255332 2.306913 -0.31546795 -0.05715638
-0.004643254 0.124243915 0.6472479 -0.31956276 -0.5562141 -0.1525698 0.025412502 -0.4613318
0.012849113 -0.6050835 0.14582935 0.16151755 -0.34238982 0.1011373 -0.018674035 -0.111355774
-0.05587835 -0.013843055 0.0980478 0.0956118 0.154777 -0.1053084 0.10026924 -0.058438204
-0.30972856 -0.09794381 0.4921269 -0.13803165 -0.01174133 -0.21914253 -0.22454844 0.062877364
00000000: a465 0bbf 7eb4 2c3e 8eb2 f73e 16ee 06bf
00000010: bde5 8bbe 34de 8fbe 9067 1cbe 94b2 0fbf
00000020: 48d6 fc3e ed4b b5bd 946f fa3e 1946 45be
00000030: 928d 1ebf ffad d5be 2e1a aebe f692 20bf
00000040: f61b 4abf 9863 0c3d 10dd 9f3e 6169 073f
00000050: fd29 f83e f7a0 b7be cc0d 23be 3dfc 91be
00000060: dd5d adbe 662f d3be 80bc 493e 98d3 213f
00000070: ba3b 11bf 70be 053f 9ce8 8c3e d52a d63e
00000080: 7911 7cbf 23b0 56be ca79 593f 5d21 c5be
00000090: fbc4 ed3e 0b43 eebe a001 033f 6a61 8c3e
000000a0: 864d c33e a415 7c3e ad54 21bf 5fa4 41be
000000b0: 4bf0 863e 84bd b3bd 1743 18bf 74ed 87be
000000c0: cf02 84bf 44c4 98be 6f2c e03d 04c7 d23d
000000d0: 3ee2 473f e38e 8e3e b845 993d 2990 0abf
000000e0: 7198 e43e 9745 8e3e 1ea8 913e 8eeb c13d
000000f0: 435e 423e b566 b03d 93e2 3f3e fca7 dfbe
00000100: 7cc4 813e 8843 0c3d abc3 a4bd 6a08 bb3e
00000110: e447 633e 1700 453d 2290 2c3e fc6f b83e
00000120: b82a 2abe aef4 c1be 745e 0b3e 4ca9 963e
00000130: 86c9 a3bd e4a5 20bf 813c d13e 096d 0ebf
00000140: 64d3 acbe 39bd c9be 36d0 24be 91d3 bf3e
00000150: 3302 d2bd e814 d93e 6311 bd3e 679f f7bc
00000160: be24 e8bd 61bc 2a3d d192 8d3e c08b 26be
00000170: fa83 703d 2426 103f d665 a6be 4e4c 6c3e
00000180: 0d45 ebbe 0a2f 283e 78a0 1a3f 4056 1e3e
00000190: 61d6 c2be de95 aa3e 643f 7d3e 842a e6bd
000001a0: a39e 58be bda0 a8be 6eb0 92be 48cd 4d3e
000001b0: ba5f 063d 55a4 963e 93dc 22bf 167f 913e
000001c0: 2588 c6be be04 783e fce8 00be 7581 a5bd
000001d0: 910e 833d bd10 e3be 7d0e e4be e487 c6bd
000001e0: d3e7 e9bd 7fb9 a5be 2ad7 edbc 0638 a8be
000001f0: ff69 92bd 7468 a7be 5894 91be f43e 483e
00000200: 4468 1dbd e538 db3e 8951 ccbe c1db 063e
00000210: 3943 f23d 1a77 f0bd 9f2e 813e 74f9 9f3d
00000220: d96e 263e 6cbd 883e febd c6bc 7cef a33e
00000230: 1688 34bd b797 18bf ee1b f23b 9345 a9be
00000240: c130 9fbe 3079 823e ce87 10be 1e1b 7d3c
00000250: 40a8 d0bd 6f3d 1a3d e7c1 34bd a978 b8bd
00000260: c865 88bc f949 aa3c 595b 033f 660a c93e
00000270: 04d6 76be 37e5 4c3f d652 80bd 4c2d 623c
00000280: a808 27be 46d9 a73e cdb5 1a3f e8f3 f1bd
00000290: e35c d4be 2764 d5bc f70e 043e f6f5 173d
000002a0: 6462 8ebe 7de5 c3be 2cc5 efbe 8283 9a3e
000002b0: 56c7 57bd e3e3 a13e 194f dcbe 4335 b13e
000002c0: aa7b 12be 36a1 ea3d 3864 963d 7288 443d
000002d0: 8af0 e2be e559 c7be a599 143f 3e5e 97be
000002e0: f9f5 97be 0a82 22bd 6f7e b93e 0fac 5ebd
000002f0: aad5 5bbd 999d 3fbd 9111 4fbe 7935 f5ba
00000300: 93d6 9dbf b2c1 243f f7aa 54be d9d0 92be
00000310: e351 ccbd 058b 853e 343e 5d3e b023 93be
00000320: 313a af3c c16e a63e 8c14 f03e b9a8 213e
00000330: 666a 1f3d b92d 13be 51a7 263e f8a7 a23d
00000340: 23f7 1bbd 4f4f 133f 017e 13bf 5fac 703d
00000350: 4bb1 97be e4d8 90bd 7694 9dbd ae00 163d
00000360: e6aa 823e 7be2 8b3d b2ac c73e 79e3 90bd
00000370: c68b 003e 76a4 1340 0485 a1be cf1c 6abd
00000380: 7026 98bb 9873 fe3d 0ab2 253f bb9d a3be
00000390: 0c64 0ebf 423b 1cbe e12d d03c af33 ecbe
000003a0: 1685 523c c1e6 1abf 4a54 153e db64 253e
000003b0: b84d afbe 1321 cf3d 4afa 98bc 7f0e e4bd
000003c0: b2e0 64bd fbcd 62bc 49cd c83d 1fd0 c33d
000003d0: dd7d 1e3e eeab d7bd f659 cd3d e65c 6fbd
000003e0: be94 9ebe c496 c8bd 0ff8 fb3e 2b58 0dbe
000003f0: b55e 40bc e666 60be 07f0 65be d9c5 803d

arith.constant5 f4 [64, 1, 3, 1]
2.53035 0.16622935 -1.0359623 0.15800741 0.8881579 0.05757513 -0.92862403 1.1755363
1.8746184 0.7470935 -0.43969935 1.3543761 0.76083845 -0.041008607 -0.23631191 0.5241767
-0.42223552 -0.6368188 0.6330213 0.893454 -0.2867415 0.6807861 -0.38550273 1.3032744
-0.88639843 1.4428182 -0.14427271 0.06945648 0.0055144257 -2.7226982 0.54537493 1.3628836
-0.5835854 0.6911641 0.94961333 -0.20719121 0.49336073 0.2142675 1.4703747 0.39171293
-0.54596 2.307473 0.6321166 -0.24271189 1.3262458 0.39980844 -0.093766265 1.5868411
0.40308806 0.11563973 1.5198221 0.47686833 0.41094178 -2.5092359 -0.9407745 -1.290548
-0.47327334 -0.88818944 0.9432371 1.5264338 -2.0589972 -0.59169626 0.42259967 0.63536775
-0.24568105 1.2531952 0.2387971 -0.041761145 1.4054359 0.28420356 -0.62567866 -0.35768408
0.3642996 -0.63426054 -0.42085397 0.60063046 -0.5010781 -0.66499686 0.7787602 0.81633043
-0.31376037 -1.2537355 0.84202576 -0.5547252 0.39202452 0.22233081 1.4737808 0.58989555
2.3250136 -0.8232679 -1.3920773 -0.82607806 -0.5686821 -0.9511785 1.0208949 1.3713682
0.6230524 0.31566313 1.6831914 0.73906064 0.9974338 -0.31713754 0.06448411 2.832336
-0.5302849 0.9231982 -1.5758817 1.3911027 -1.594536 -0.1407839 1.7137914 0.5115257
0.39010295 1.3944479 -0.78924036 0.9782518 1.3573273 -1.4135389 -1.0386302 -0.3482729
-0.8753803 1.0705354 1.8349265 -0.93701005 -1.5703627 -0.5319332 0.31780246 0.11622591
1.4955964 0.6534313 0.9459182 -0.30174068 -1.0549096 -0.16607414 1.3352675 0.6823574
0.91134804 -0.20429732 0.32979724 -0.46478415 2.217034 0.5751348 0.8225212 -0.17925659
0.61393756 0.3730709 1.6022619 0.77643657 0.08751813 -0.21297787 -0.28121576 0.023566974
-0.37858093 -0.19363411 0.08068203 -0.42696264 1.4140753 2.821229 0.7396859 -0.7955893
1.1277215 2.1528623 -0.4901671 0.25222132 -2.9638243 0.44645315 0.2071763 1.4934237
-1.5945807 -0.5896732 0.3804812 -1.269242 -0.37972087 -0.1599876 -0.11103625 0.66063094
-0.14262503 -1.1007118 -0.3188504 -0.18746263 -0.4150815 0.12446627 -0.42214414 -1.011208
-0.32257625 -0.2765904 -0.7506453 -0.53590184 -0.3215156 0.7255359 -0.070547655 -0.2622321
00000000: 41f1 2140 0738 2a3e 6a9a 84bf b2cc 213e
00000010: 515e 633f e6d3 6b3d 4eba 6dbf f977 963f
00000020: 7ff3 ef3f 8541 3f3f 4620 e1be 325c ad3f
00000030: 4fc6 423f a4f8 27bd c0fb 71be 7230 063f
00000040: 412f d8be 8f06 23bf af0d 223f 67b9 643f
00000050: c8cf 92be ff47 2e3f 9d60 c5be b2d1 a63f
00000060: 02eb 62bf 44ae b83f 3abc 13be 333f 8e3d
00000070: 5bb2 b43b b040 2ec0 b19d 0b3f f872 ae3f
00000080: da65 15bf 21f0 303f dc19 733f ef29 54be
00000090: c799 fc3e f168 5b3e 3d35 bc3f 998e c83e
000000a0: 09c4 0bbf a3ad 1340 65d2 213f 7789 78be
000000b0: 6cc2 a93f b1b3 cc3e 8708 c0bd 9c1d cb3f
000000c0: 8f61 ce3e 86d4 ec3d 8889 c23f 1628 f43e
000000d0: f666 d23e 5297 20c0 99d6 70bf ad30 a5bf
000000e0: e250 f2be 6260 63bf fd77 713f 2f62 c33f
000000f0: 9cc6 03c0 6879 17bf fc5e d83e 76a7 223f
00000100: d093 7bbe b368 a03f 3a87 743e bc0d 2bbd
00000110: 53e5 b33f 2183 913e 7a2c 20bf 5e22 b7be
00000120: 7a85 ba3e e65e 22bf 2c7a d7be ebc2 193f
00000130: a846 00bf 3c3d 2abf d45c 473f 08fb 503f
00000140: 33a5 a0be 687a a0bf 008f 573f 7902 0ebf
00000150: 70b7 c83e b0aa 633e d9a4 bc3f 6503 173f
00000160: 06cd 1440 afc1 52bf 972f b2bf da79 53bf
00000170: 2695 11bf 6f80 73bf afac 823f fe88 af3f
00000180: 5d80 1f3f 999e a13e d172 d73f 1433 3d3f
00000190: d257 7f3f da5f a2be 3f10 843d fe44 3540
000001a0: c0c0 07bf b856 6c3f 7eb6 c9bf a70f b23f
000001b0: c119 ccbf a829 10be 845d db3f 59f3 023f
000001c0: 93bb c73e 457d b23f a80b 4abf b66e 7a3f
000001d0: e7bc ad3f d8ee b4bf d6f1 84bf d350 b2be
000001e0: ec18 60bf 4e07 893f dfde ea3f e4df 6fbf
000001f0: a501 c9bf c62c 08bf 01b7 a23e da07 ee3d
00000200: b46f bf3f 4647 273f b227 723f c17d 9abe
00000210: 4707 87bf 570f 2abe 0cea aa3f f9ae 2e3f
00000220: 1b4e 693f 5133 51be 2fdb a83e 30f8 edbe
00000230: e3e3 0d40 093c 133f c090 523f 0a8f 37be
00000240: 032b 1d3f 2603 bf3e eb16 cd3f 8cc4 463f
00000250: b53c b33d df16 5abe 83fb 8fbe 870f c13c
00000260: 5cd5 c1be 0548 46be 9f3c a53d d99a dabe
00000270: 6b00 b53f 048f 3440 0e5c 3d3f beab 4bbf
00000280: 2e59 903f 7fc8 0940 2ff7 fabe 2723 813e
00000290: 4caf 3dc0 8295 e43e 0626 543e 8228 bf3f
000002a0: 381b ccbf d3f4 16bf 6fce c23e 8676 a2bf
000002b0: c66a c2be cad3 23be f966 e3bd 1c1f 293f
000002c0: 4c0c 12be 20e4 8cbf 5c40 a3be 34f6 3fbe
000002d0: 9085 d4be 2ce8 fe3d 4723 d8be 446f 81bf
000002e0: b728 a5be 429d 8dbe 4a2a 40bf dd30 09bf
000002f0: b19d a4be b9bc 393f 4a7b 90bd 4943 86be

arith.constant6 f4 [20, 128]
-0.26778173 0.6497933 -4.1851096 0.04768932 0.32005736 0.1025216 -0.05752787 -2.814468
0.39647037 -0.13608941 -1.6538389 0.25832602 0.067010574 -0.15394203 -0.08491671 0.4771703
0.32985213 -3.116572 0.45763397 -0.54763055 0.18496105 -1.726441 -0.00175767 0.558891
0.09337461 -0.60603374 0.7547592 -0.027904509 -6.5662236 0.057335876 -0.018762464 -0.012137599
0.023854423 -0.123637035 0.62675935 0.23855266 -0.17205587 0.006797047 0.46851838 -1.1997565
0.056564502 -2.3728523 0.113875486 0.07100707 0.02565281 0.14597544 -6.339105 -2.3672264
-0.17183724 0.32972145 -2.5788789 0.27006552 0.035985347 0.12033058 0.15355074 -1.4537473
0.3677076 0.018583236 0.28810495 -2.1482277 0.13657208 0.56020135 0.09162221 -0.021796644
-2.5571136 0.109360486 -0.08943705 0.10814226 0.94036496 -0.22011524 0.05374504 -0.008538801
-0.098722 0.32100278 0.3454957 -0.073476575 -0.16463979 -0.12374655 -0.31403142 0.115400195
-1.6082875 0.08456955 -0.0919453 0.017690018 -0.191798 0.41502622 0.23768845 0.11226359
0.0024265512 -0.09291862 0.08959899 0.35346308 0.7819831 0.5707775 0.90154326 0.12306314
0.31421602 -0.11616933 -0.2716466 0.087404765 -0.46097532 0.14890608 0.0014974294 0.079687156
-0.62934357 0.3929298 0.025936717 0.7103362 0.19249521 0.04859947 0.06531373 -0.63040274
0.4037034 -0.039654367 -0.120955355 0.71159387 -0.2413353 0.3863463 -0.11193387 -0.006656402
0.39018068 -0.08266376 -0.13804439 -0.057247248 0.036874916 0.18013601 0.15114766 -0.06651758
0.69593674 -4.3594904 -0.0850334 0.011919343 0.068058394 0.017269356 -0.1471043 -1.6051247
0.686773 -0.07537319 -3.409647 0.54044384 -0.047508128 -0.19298674 0.08392097 0.19158414
-4.0080643 0.2569337 -8.34382 0.08544909 -0.07430436 0.3295662 -0.12653546 -3.86208
0.032281965 0.35110575 -1.7642715 -0.016303407 -0.04454851 -0.2245901 -0.42098543 -0.046407703
0.10391784 -0.16892003 -2.1947916 -0.9373059 -0.04547274 -0.0675862 -3.0692587 -0.13765837
0.061326783 0.11116585 -0.180588 0.06684592 -0.12938264 -0.1089247 -0.27703083 0.32914287
-0.1310895 -1.1057659 -1.442135 -0.028108742 -0.03556905 -3.0156004 -0.11863438 0.57066137
-0.7315436 -0.02786432 0.4185443 0.28485638 0.2652667 0.9043307 0.06806 -0.0011292433
0.5122184 0.063852355 0.03571032 -0.041082762 -8.272758 0.035013042 -0.0057763555 -0.1861482
-0.20730706 0.4322927 -2.4760642 0.18265174 0.08864226 0.057607077 0.08037313 0.16420351
-0.30625996 -0.04109151 0.095544465 -0.019377023 0.093333066 0.50589114 0.49676108 0.094890594
0.08854625 -0.041216977 -2.486857 -0.4355183 -3.1555393 -1.66326 -4.6846642 0.087443784
0.06926597 -0.13242958 0.17666392 -0.32540765 -0.26005095 0.113459624 -0.0990578 0.019299153
-3.706293 -0.9341209 -0.14336836 0.060859457 -0.0448786 0.06759536 0.18342105 0.7440611
-2.2561362 0.16228446 -0.07907438 -0.82267725 -0.025837595 0.59167045 0.042248294 -0.16851139
-4.0062304 0.097938694 0.010610549 -0.10850861 -0.060490847 -0.017855072 -0.06666749 0.10371594
00000000: b01a 89be db58 263f 6bec 85c0 e055 433d
00000010: 8fde a33e d8f6 d13d 58a2 6bbd 3e20 34c0
00000020: 2afe ca3e 065b 0bbe feb0 d3bf 4f43 843e
00000030: d73c 893d fba2 1dbe d0e8 adbd aa4f f43e
00000040: 61e2 a83e ea75 47c0 004f ea3e 8431 0cbf
00000050: 6e66 3d3e 05fc dcbf 9e61 e6ba 7b13 0f3f
00000060: 303b bf3d 0725 1bbf e637 413f ff97 e4bc
00000070: 811e d2c0 06d9 6a3d bdb3 99bc c8dc 46bc
00000080: 5a6a c33c 6a35 fdbd 4d73 203f 2647 743e
00000090: 6a2f 30be c3b9 de3b a4e1 ef3e 9f91 99bf
000000a0: 2eb0 673d d0dc 17c0 8d37 e93d 286c 913d
000000b0: d825 d23c 967a 153e f3d9 cac0 a380 17c0
000000c0: 1af6 2fbe 40d1 a83e 5a0c 25c0 0746 8a3e
000000d0: 5f65 133d e16f f63d 683c 1d3e 6414 babf
000000e0: 2c44 bc3e df3b 983c 7e82 933e 907c 09c0
000000f0: 8dd9 0b3e 5b69 0f3f 6da4 bb3d e08e b2bc
00000100: c0a7 23c0 64f8 df3d c62a b7bd b079 dd3d
00000110: c2bb 703f e465 61be c223 5c3d 54e6 0bbc
00000120: c32e cabd 7a5a a43e d0e4 b03e e37a 96bd
00000130: 5597 28be d56e fdbd bac8 a0be f056 ec3d
00000140: 5ddc cdbf cd32 ad3d d14d bcbd a8ea 903c
00000150: b266 44be 517e d43e 9a64 733e 74ea e53d
00000160: c606 1f3b 1e4c bebd ad7f b73d 1df9 b43e
00000170: 0b30 483f 791e 123f 8acb 663f 8708 fc3d
00000180: ece0 a03e 30ea edbd 4315 8bbe 4501 b33d
00000190: f504 ecbe d67a 183e 6545 c43a 0533 a33d
000001a0: a91c 21bf 182e c93e 3d79 d43c 98d8 353f
000001b0: 771d 453e 3d10 473d 34c3 853d 1362 21bf
000001c0: 36b2 ce3e 9e6c 22bd 71b7 f7bd 042b 363f
000001d0: 9a20 77be 2fcf c53e 963d e5bd f21d dabb
000001e0: c3c5 c73e 9e4b a9bd 825b 0dbe 177c 6abd
000001f0: 270a 173d 9375 383e 74c6 1a3e 5e3a 88bd
00000200: e928 323f f280 8bc0 fe25 aebd 5949 433c
00000210: 3362 8b3d 7778 8d3c 82a2 16be ba74 cdbf
00000220: 5bd0 2f3f 425d 9abd a837 5ac0 875a 0a3f
00000230: e297 42bd 519e 45be c2de ab3d a22e 443e
00000240: 1042 80c0 d08c 833e 4980 05c1 efff ae3d
00000250: e22c 98bd e7bc a83e 8392 01be 522c 77c0
00000260: 183a 043d 22c4 b33e a6d3 e1bf b98e 85bc
00000270: 8078 36bd f2fa 65be 678b d7be 0116 3ebd
00000280: e0d2 d43d 5ff9 2cbe 7777 0cc0 48f3 6fbf
00000290: a041 3abd a26a 8abd bc6e 44c0 51f6 0cbe
000002a0: cb31 7b3d ecaa e33d 10ec 38be 84e6 883d
000002b0: e27c 04be ea13 dfbd fcd6 8dbe 6a85 a83e
000002c0: 533c 06be bd89 8dbf e197 b8bf 4e44 e6bc
000002d0: dab0 11bd 99ff 40c0 95f6 f2bd dd16 123f
000002e0: 7146 3bbf b743 e4bc 704b d63e b2d8 913e
000002f0: 09d1 873e 3782 673f 0b63 8b3d 1e03 94ba
00000300: bf20 033f 06c5 823d fc44 123d 6646 28bd
00000310: 375d 04c1 d669 0f3d 9547 bdbb a29d 3ebe
00000320: 4d48 54be 7855 dd3e d677 1ec0 0f09 3b3e
00000330: 138a b53d 66f5 6b3d ab9a a43d f724 283e
00000340: 1bce 9cbe 924f 28bd d1ac c33d 90bc 9ebc
00000350: 6825 bf3d 1582 013f 7857 fe3e 0056 c23d
00000360: bc57 b53d 22d3 28bd aa28 1fc0 41fc debe
00000370: 5bf4 49c0 b4e5 d4bf c5e8 95c0 ba15 b33d
00000380: 51db 8d3d 9f9b 07be 63e7 343e d59b a6be
00000390: 6625 85be 855d e83d d1de cabd 4219 9e3c
000003a0: e833 6dc0 8c22 6fbf 28cf 12be c447 793d
000003b0: 9fd2 37bd 706f 8a3d bad2 3b3e ca7a 3e3f
000003c0: 8964 10c0 e62d 263e c0f1 a1bd fa9a 52bf
000003d0: 5da9 d3bc b777 173f 8c0c 2d3d 408e 2cbe
000003e0: 0a33 80c0 1594 c83d ded7 2d3c c339 debd
000003f0: 40c5 77bd cd44 92bc f788 88bd 0669 d43d

arith.constant7 f4 [128, 128]
0.1629154 0.16036004 0.1955859 -0.15048178 0.9016817 0.071133584 -0.89589185 -0.19042364
0.11728654 0.25083554 0.1726608 -0.4567987 0.4735009 -0.24242677 -0.5319335 0.08800739
0.30806774 0.006522478 -0.014622004 0.43400732 -0.45157668 0.3949692 -0.043726303 0.5136379
-0.5655645 -0.027313082 0.15561868 -0.13539241 -0.4366477 0.19489029 0.15712379 -0.016463256
0.4646072 -0.15224752 0.1726137 0.21788518 0.17355287 -0.2943338 -1.0133339 2.033042
-0.5570457 0.07948579 -1.1344134 -1.063491 -0.33059037 -0.05581544 -0.57192445 -0.04547607
-0.4052533 -0.36173463 -1.473419 0.3454016 -1.4362618 -0.32466757 0.6809453 -0.018350448
-0.20641969 0.105695985 0.06278488 0.08401713 0.054684985 0.24060658 -0.101334475 -0.03157137
0.60955 0.1303705 -0.36912757 -0.5579142 -0.5304478 -0.3548879 -0.037435014 0.11105405
-0.2916425 0.017916575 0.8871985 0.10003008 -0.16720138 0.30305406 -0.08840871 -0.32948592
0.31928945 -0.15178454 0.20267272 -0.048659824 -0.056320526 -0.069921896 -0.12872769 -0.34537598
0.51533383 0.4638301 -0.438641 0.8139736 0.041512296 0.04936665 -0.023878928 -1.1126328
0.35477105 0.13555017 0.12646466 -0.099661775 -0.28279117 -0.008979884 -0.09498113 0.7567422
0.022817096 -0.55154383 0.028942022 -0.06222203 -0.07681298 -0.10011259 -0.24640417 0.003200278
0.26821026 -0.12437107 -0.02241339 0.11608414 -0.1114814 0.6991109 -0.30315307 0.40375865
0.011299078 -0.08793559 0.18201351 -0.13805202 -0.033814188 -1.0089896 0.41009572 -0.6901007
0.2512266 0.36470565 -0.16306563 0.12939085 0.26060516 -0.10468597 -1.6795368 -0.1337469
0.12858476 0.4278242 -0.42568946 -0.49518874 0.04652946 -2.6620111 0.14908986 0.087104365
-1.3281468 -0.14574923 0.119321756 0.41963014 0.07627831 1.2674174 0.0521608 -4.2520046
0.3535464 -1.9882698 -0.96226853 -2.282699 0.97731614 0.43141812 1.9667579 0.20227946
-0.86002606 0.12441119 0.036034144 -2.222353 0.594496 0.4255338 -0.4686121 -0.3851123
-0.023395387 -0.041367497 0.0029089563 -0.032452382 0.32766142 -0.092197604 0.20574613 0.10693106
0.27852947 -0.26255783 0.12039921 0.06989386 0.7340949 0.048725195 -1.203102 -0.41311127
0.3952227 -0.33950034 0.14886607 0.351867 0.4168204 -0.056327485 -0.23190764 0.014198787
-0.37491256 0.14550914 0.225584 0.04686376 -0.21343012 0.0061341715 -0.58753574 0.08961762
-0.066624 -0.05307226 -0.8202205 -1.2794226 -0.050961778 -1.8512671 0.24260592 0.3480646
-1.2116109 0.6544057 -0.66150564 0.9221799 0.15338644 -0.074113645 -0.119323924 -3.2013605
0.32235584 1.4298509 0.7326533 0.6351633 -0.011898061 -4.0909834 0.047710672 -0.40902486
0.106322415 -0.03736249 0.5932696 0.34244722 -0.24890953 -1.3899676 0.045734283 0.054883838
0.06363438 -4.1228237 -0.0736793 1.4580079 0.090974346 0.40033197 -0.07811792 -0.05203186
0.9853554 0.15082186 0.12569253 -0.08024394 0.5093012 -2.2304635 0.7585509 -1.1580695
-1.5532827 0.01349309 -2.9449708 0.11182958 0.073023595 -1.1659695 -0.42663577 -0.69030344
00000000: 4bd3 263e 6c35 243e ac47 483e e517 1abe
00000010: 9dd4 663f 7cae 913d 2b59 65bf 6afe 42be
00000020: ed33 f03d 846d 803e fecd 303e 85e1 e9be
00000030: b66e f23e b93e 78be cb2c 08bf 383d b43d
00000040: 0ebb 9d3e 83ba d53b 2191 6fbc 3536 de3e
00000050: 0f35 e7be 6739 ca3e 5a1a 33bd c67d 033f
00000060: d6c8 10bf afbf dfbc 815a 1f3e 4fa4 0abe
00000070: 4a90 dfbe 5291 473e 0fe5 203e f3dd 86bc
00000080: ffe0 ed3e c6e6 1bbe a5c1 303e 4b1d 5f3e
00000090: d8b7 313e ebb2 96be edb4 81bf 5c1d 0240
000000a0: 8c9a 0ebf 72c9 a23d 7534 91bf 7920 88bf
000000b0: 2443 a9be bb9e 64bd a469 12bf 1e45 3abd
000000c0: 5c7d cfbe 4835 b9be fe98 bcbf 7ad8 b03e
000000d0: 6dd7 b7bf d43a a6be 6e52 2e3f ae53 96bc
000000e0: af5f 53be 2377 d83d 5c95 803d 2c11 ac3d
000000f0: 5dfd 5f3d 9261 763e 7388 cfbd fb50 01bd
00000100: 780b 1c3f d87f 053e 4afe bcbe 77d3 0ebf
00000110: 6dcb 07bf deb3 b5be 7555 19bd 4e70 e33d
00000120: 2a52 95be c8c5 923c 711f 633f 92dc cc3d
00000130: d736 2bbe e729 9b3e a00f b5bd 61b2 a8be
00000140: e879 a33e 686d 1bbe 7089 4f3e 864f 47bd
00000150: 5ab0 66bd 3633 8fbd 31d1 03be 1fd5 b0be
00000160: ebec 033f 247b ed3e 8e95 e0be 9360 503f
00000170: cc08 2a3d af34 4a3d be9d c3bc c06a 8ebf
00000180: 8da4 b53e aacd 0a3e f47f 013e 791b ccbd
00000190: 01ca 90be 5d20 13bc 7785 c2bd dbb9 413f
000001a0: ebea ba3c fa31 0dbf d217 ed3c 87dc 7ebd
000001b0: 2050 9dbd d407 cdbd 6051 7cbe c1bb 513b
000001c0: db52 893e 42b6 febd 499c b7bc 86bd ed3d
000001d0: 5c50 e4bd eff8 323f e136 9bbe 74b9 ce3e
000001e0: c51f 393c 9317 b4bd c061 3a3e 825d 0dbe
000001f0: bf80 0abd 9226 81bf 11f8 d13e 71aa 30bf
00000200: c6a0 803e b3ba ba3e adfa 26be 097f 043e
00000210: 0a6e 853e 9965 d6bd 10fb d6bf f3f4 08be
00000220: b9ab 033e c60b db3e f8f3 d9be 6189 fdbe
00000230: ad95 3e3d 645e 2ac0 03ab 183e c663 b23d
00000240: b700 aabf 493f 15be f75e f43d c3d9 d63e
00000250: cd37 9c3d bc3a a23f 90a6 553d 6c10 88c0
00000260: 0904 b53e a07f febf 3b57 76bf be17 12c0
00000270: 6431 7a3f d6e2 dc3e b9be fb3f 5922 4f3e
00000280: ab2a 5cbf 4bcb fe3d 8a98 133d 083b 0ec0
00000290: e430 183f 91df d93e eded efbe 702d c5be
000002a0: afa7 bfbc f770 29bd 30a4 3e3b caec 04bd
000002b0: 3dc3 a73e 19d2 bcbd 1daf 523e acfe da3d
000002c0: 6a9b 8e3e fb6d 86be dc93 f63d 8324 8f3d
000002d0: a5ed 3b3f 1294 473d 3fff 99bf 5283 d3be
000002e0: a15a ca3e fdd2 adbe 5970 183e e927 b43e
000002f0: 7c69 d53e a6b7 66bd 3279 6dbe 07a2 683c
00000300: 8af4 bfbe 5900 153e 7eff 663e 37f4 3f3d
00000310: 6d8d 5abe 2901 c93b be68 16bf 7189 b73d
00000320: 2a72 88bd 4c62 59bd f8f9 51bf 1fc4 a3bf
00000330: 4cbd 50bd 52f6 ecbf b06d 783e 8635 b23e
00000340: 1116 9bbf 2287 273f 6f58 29bf fb13 6c3f
00000350: 5611 1d3e e5c8 97bd 1a60 f4bd 17e3 4cc0
00000360: d30b a53e 5b05 b73f 2b8f 3b3f 109a 223f
00000370: 16f0 42bc 56e9 82c0 446c 433d b56b d1be
00000380: 91bf d93d 6909 19bd 84e0 173f 3e55 af3e
00000390: 24e2 7ebe 75ea b1bf df53 3b3d e0cd 603d
000003a0: be52 823d 2cee 83c0 2ce5 96bd 01a0 ba3f
000003b0: c250 ba3d 50f8 cc3e 4afc 9fbd 5c1f 55bd
000003c0: 4040 7c3f 0c71 1a3e 8bb5 003e ef56 a4bd
000003d0: 9061 023f eabf 0ec0 6430 423f 9f3b 94bf
000003e0: f8d1 c6bf 1f12 5d3c 677a 3cc0 e806 e53d
000003f0: 658d 953d 7d3e 95bf 0170 dabe bab7 30bf

arith.constant8 f4 [128]
-0.017013455 -0.13378283 0.08972729 -0.0087573975 -0.05294057 -0.013477806 0.0 0.26945642
0.09651313 -0.0175553 0.18020453 -0.18105541 -0.04565014 -0.022821257 -0.031481635 -0.13160464
-0.07740927 0.11462883 -0.13443206 -0.05933224 0.0 0.035117652 -0.03945921 -0.17102528
-0.03408697 0.1858982 -0.006745345 -0.009028125 0.24857387 -0.02171741 0.06744704 -0.021649802
-0.023492219 -0.017540079 -0.0044818474 0.16104907 -0.017169852 -0.0061011505 -0.009418713 0.20999008
-0.013516605 0.27422306 -0.046968732 -0.03924038 0.0 -0.00597349 0.27194467 0.2563864
-0.013364251 -0.07395481 0.41463462 0.023211403 -0.056395017 0.17416692 -0.017619763 -0.09638358
-0.10441843 -0.007019849 0.03925348 0.17205669 -0.049061544 0.03133022 -0.014767075 -0.009864058
-0.1283298 -0.03728483 -0.021450514 -0.015043609 -0.030356042 -0.04262056 -0.008766728 -0.01830631
-0.0085067935 -0.00016530356 0.22804512 -0.036910113 -0.029308883 -0.015183442 0.059073355 -0.024417376
0.3106812 -0.012466995 -0.029352559 -0.048464254 -0.020780955 0.0679822 -0.06249671 -0.025495585
-0.013793349 -0.043156408 0.20243217 0.06265339 0.13918678 0.06445252 -0.17802492 -0.03172072
-0.06964023 -0.036566313 -0.13087998 -0.05644945 -0.09656816 -0.011677709 -0.019016093 -0.05699241
-0.01651449 -0.026339857 -0.0005346137 0.1451066 -0.018619655 -0.031717476 -0.31436548 -0.028066307
0.009430543 -0.006003353 -0.01850264 -0.15710683 -0.038018066 -0.12772842 -0.082101025 -0.031757448
0.16422577 -0.017815152 -0.032159135 -0.03273023 -0.022296388 -0.009535148 -0.009932366 -0.03490184
00000000: cd5f 8bbc 5efe 08be f1c2 b73d 307b 0fbc
00000010: 36d8 58bd 04d2 5cbc 0000 0000 31f6 893e
00000020: ada8 c53d 22d0 8fbc 8987 383e 9766 39be
00000030: a4fb 3abd a5f3 babc e3f2 00bd 5ec3 06be
00000040: c088 9ebd 85c2 ea3d 8fa8 09be 5d06 73bd
00000050: 0000 0000 87d7 0f3d fb9f 21bd 4021 2fbe
00000060: c79e 0bbd 195c 3e3e 0e08 ddbb b3ea 13bc
00000070: 268a 7e3e b6e8 b1bc ac21 8a3d ed5a b1bc
00000080: c172 c0bc 36b0 8fbc 76dc 92bb 0cea 243e
00000090: caa7 8cbc 29ec c7bb f250 1abc a407 573e
000000a0: c074 5dbc f766 8c3e 4962 40bd 85ba 20bd
000000b0: 0000 0000 44bd c3bb 553c 8b3e 1445 833e
000000c0: bbf5 5abc 9f75 97bd fd4a d43e d725 be3c
000000d0: 76fe 66bd d058 323e 5257 90bc c164 c5bd
000000e0: 54d9 d5bd c306 e6bb 42c8 203d a12f 303e
000000f0: c2f4 48bd 1e54 003d 9af1 71bc dc9c 21bc
00000100: e368 03be fab7 18bd fdb8 afbc 7879 76bc
00000110: 3cad f8bc e592 2ebd 53a2 0fbc 1df7 95bc
00000120: 1460 0bbc 5655 2db9 a984 693e 0f2f 17bd
00000130: 2f19 f0bc f9c3 78bc e7f6 713d f306 c8bc
00000140: 9b11 9f3e 5e42 4cbc c774 f0bc 7482 46bd
00000150: d23c aabc 403a 8b3d 8dfc 7fbd 1edc d0bc
00000160: 80fd 61bc c6c4 30bd 614a 4f3e 6c50 803d
00000170: fb86 0e3e afff 833d 2a4c 36be 96ed 01bd
00000180: 899f 8ebd 8fc6 15bd 6705 06be 8a37 67bd
00000190: 87c5 c5bd dd53 3fbc a3c7 9bbc e070 69bd
000001a0: 6549 87bc afc6 d7bc 5125 0cba d396 143e
000001b0: 3f88 98bc 2fea 01bd 83f4 a0be 50eb e5bc
000001c0: 9082 1a3c c6b7 c4bb d992 97bc 9de0 20be
000001d0: d5b8 1bbd 3dcb 02be 9524 a8bd 1914 02bd
000001e0: cd2a 283e 15f1 91bc 4cb9 03bd 2210 06bd
000001f0: eaa6 b6bc 4f39 1cbc 5dbb 22bc 3bf5 0ebd

arith.constant9 f4 [20]
-1.7349496 0.7148199 -1.9501042 -0.5314307 -0.6241685 1.6545094 1.6274552 -0.16668992
2.0971873 0.039435465 0.98931134 0.33224782 -1.5879364 1.6325057 -0.10080507 -0.15517007
-0.21448904 -1.4607855 0.0012057176 -0.47535428
00000000: d412 debf 70fe 363f 049d f9bf d80b 08bf
00000010: 82c9 1fbf f7c6 d33f 7450 d03f c3b0 2abe
00000020: 5138 0640 1587 213d 8243 7d3f 631c aa3e
00000030: 8041 cbbf f2f5 d03f e372 cebd e7e4 1ebe
00000040: 04a3 5bbe 05fb babf 2b09 9e3a a361 f3be
