AI/dynamic-gesture/app/models/static_gesture_mk2_model.tflite (tflite, 180244 bytes, 8 tensors)

arith.constant f4 [128]
000000 30 c9 5a 3d 43 fa d2 bc c8 54 cd bc 7d b3 ad 3b
       0.053414524 -0.0257541 -0.02506484 0.0053009377
000010 c4 b4 9a 3d 2e 61 9b 3c b6 6e 14 bd 8e 89 a3 3e
       0.075540096 0.018967237 -0.036238395 0.31940883
000020 53 09 6e be cf 86 21 bd 2d 0a e3 bd 11 b1 04 bf
       -0.23245744 -0.039435204 -0.11085925 -0.5183268
000030 17 81 53 bc 44 7f ca bd 3d 12 14 be 87 a5 55 3d
       -0.012909195 -0.09887555 -0.14460082 0.052159812
000040 b4 96 ea bc 63 6d e3 bc a2 5d ee 3d 37 40 5d bc
       -0.028636314 -0.02776212 0.11638953 -0.01350408
000050 d1 99 04 3e 6a 47 60 bb 55 28 a0 bd c1 42 73 bd
       0.12949301 -0.0034222254 -0.07820193 -0.059389833
000060 c3 b7 f9 bc f6 6a 00 bc b1 af 2a bc 82 29 3d 3e
       -0.030483132 -0.0078380015 -0.010417865 0.18472865
000070 ef 00 83 be b6 eb 32 3e 40 a5 19 3d 10 d6 09 bd
       -0.2558665 0.17472729 0.03751111 -0.03365141
000080 c5 e9 2b bd fe d2 53 bc c2 7e 23 be 68 a5 89 3c
       -0.041970987 -0.012928722 -0.15966323 0.016802505
000090 13 1a 5f bd b5 40 87 bb 28 0a ba bc e6 05 0d be
       -0.054468226 -0.0041275867 -0.022709921 -0.13771781
0000a0 60 7a 57 bd 79 9b 2b bc 11 8c e5 bb 4e 13 0e bc
       -0.05260694 -0.010474079 -0.0070052226 -0.008671595
0000b0 a8 88 d8 bd ba ed 70 3e c4 e3 3a be ae 0b bf 3d
       -0.1057294 0.23528185 -0.18250948 0.093283996
0000c0 8e 15 d5 3d c1 76 9b bb 6f 24 fd bd e4 af c1 bb
       0.10404502 -0.004744381 -0.12360465 -0.0059108604
0000d0 4b a8 0d bd 60 fe e2 bd 40 5a af 3c 6a e3 ad be
       -0.034584325 -0.110836744 0.02140534 -0.33962566
0000e0 53 ea 48 bc 36 a4 ff bc a4 21 19 bc f0 f0 13 bc
       -0.0122628985 -0.031206232 -0.009346399 -0.009029612
0000f0 43 0e 82 bc b2 de 13 bd 74 b0 db 3c af 4e 5a bc
       -0.015875941 -0.03610105 0.026817538 -0.013324424
000100 38 b5 35 bc a0 85 ff bc 62 86 de 3d fe d6 09 3e
       -0.011090569 -0.031191647 0.10865475 0.1346092
000110 ec 6b 4f be 7e 51 55 be 1c 9f 07 be f2 8c 0d 3e
       -0.20256013 -0.20831868 -0.13244289 0.13823298
000120 e0 29 18 bc 65 6e ad be 96 ee b2 bc 52 45 7b bc
       -0.0092873275 -0.33873287 -0.021842282 -0.0153363515
000130 d2 90 64 be 66 8f 3e be e8 61 1e bc 2a 97 0a 3e
       -0.2232087 -0.1860939 -0.009666897 0.13534227
000140 84 75 df be 66 d8 1e be b9 64 77 3c c2 fe 5e 3d
       -0.43644345 -0.15512237 0.015099698 0.054442175
000150 e8 77 af 3d 39 26 c2 bd a1 33 07 bd 38 52 c9 ba
       0.08567792 -0.09479947 -0.03300822 -0.0015359586
000160 1b fb 9b 3c 77 8c 3e bc ac 4d b9 3d a5 8d 06 3e
       0.019040635 -0.011630169 0.09048018 0.1313997
000170 a6 95 cf bd 20 74 a5 be 27 8e 89 bd df 63 02 3e
       -0.10135965 -0.3231516 -0.067165665 0.1273341
000180 b3 23 1b be 23 2f 20 3e d0 bd 8b 3e 03 be 16 bc
       -0.15150337 0.15642981 0.27293253 -0.009200576
000190 4b 26 46 bc b2 a3 87 bc 92 e5 92 bd e6 29 79 be
       -0.012094091 -0.016557548 -0.07172693 -0.24332389
0001a0 f7 a0 9d 3c 75 f4 d2 bd d2 d4 f2 3c b2 1c f1 bc
       0.019241793 -0.10300533 0.029642496 -0.029432628
0001b0 64 0e a3 be 38 2c f4 bc fe 90 96 bd 44 c4 b6 bd
       -0.31846917 -0.029806241 -0.07351874 -0.089241534
0001c0 4e 9f d5 bd 3a bb da bd 30 3d ab bc 4f c2 de bb
       -0.104307756 -0.10680242 -0.0209032 -0.0067980657
0001d0 c0 aa 88 bb 09 0f 8a be 81 41 c0 3d 86 e3 ea bd
       -0.0041707456 -0.26964596 0.09387494 -0.11469178
0001e0 bf e9 c5 bd 04 9a 01 be 47 bc 9d be 9c cc a8 bd
       -0.09663724 -0.12656409 -0.30807707 -0.08242151
0001f0 19 8b 5f bd bb e4 1a be 11 8c 74 be 68 11 87 be
       -0.054576013 -0.15126316 -0.23881556 -0.26380467

arith.constant1 f4 [64]
000000 d3 b2 b5 3e c3 4f 3a 3e 82 f3 d1 3e ef 58 58 3e
       0.35487995 0.18194489 0.41006094 0.21127675
000010 c4 15 85 3d 9b 85 9c bd cb 9b 85 3c 04 dc 6a 3e
       0.06498292 -0.07642671 0.01630964 0.22935492
000020 32 5e ab 3e ab 50 16 3e 1f 67 0e 3e 51 74 1c 3e
       0.33470303 0.1467921 0.13906525 0.15278746
000030 3c 61 f3 bc 4c cd 82 3e a0 a2 2f 3e 49 79 a7 3d
       -0.02970945 0.25547254 0.1715188 0.0817743
000040 55 bb a3 3e e3 40 3d 3c ae 62 46 3e 1d 2f 4f 3e
       0.3197886 0.011551115 0.19373581 0.20232816
000050 cc 68 2f 3d 20 57 22 3e 11 39 dc 3c f1 f2 92 3c
       0.04282455 0.15853548 0.02688268 0.01793811
000060 7c e1 48 3d 7e 17 59 bd 08 9c 86 3d 82 5d b3 3e
       0.049043164 -0.05300092 0.06572729 0.35032278
000070 4b 9a ee 3d eb 5c 63 3e 8e 32 bd 3e 08 65 88 3e
       0.11650523 0.22203414 0.36952633 0.2663958
000080 a3 6b 93 3d 40 13 10 3d a0 3a 94 3d 23 b7 77 bd
       0.071982644 0.03517461 0.07237744 -0.060477387
000090 6e d3 57 3d 54 94 84 3e 26 85 8e 3e a2 56 41 3e
       0.05269187 0.25894415 0.2783596 0.18880704
0000a0 0b d3 0c 3e 23 4b 3c 3d 77 13 27 3e 45 fd 37 3e
       0.13752382 0.045970093 0.16316019 0.17967708
0000b0 17 19 aa 3e d4 71 a9 3d 68 7e e0 bd a0 fa 82 3e
       0.33222267 0.08273664 -0.1096161 0.25581837
0000c0 1d 23 f5 3d 20 e5 53 3e 61 d8 81 3e a6 b8 61 bd
       0.11969588 0.20692873 0.25360397 -0.055107735
0000d0 85 58 92 3e f6 45 6e 3d cf e7 8f 3e 4f b4 3d 3e
       0.2858316 0.05817219 0.28106543 0.18525814
0000e0 d4 4e ad 3d d4 56 fc bd b7 3f 59 3e fc a6 94 3d
       0.08462301 -0.12321249 0.21215712 0.07258412
0000f0 1c 80 31 3d 06 09 60 bd 8f a5 2b 3e 27 9b f7 3d
       0.043335065 -0.054696105 0.16762374 0.1209014

arith.constant4 f4 [128, 1, 3, 64]
000000 b0 22 18 3e 66 b1 03 3e ce f3 b8 3d 70 b0 09 3e
       0.14856982 0.12860641 0.09030877 0.13446212
000010 56 a2 6d 3d ee 2b 44 be 50 b8 ca 3d 8e e8 f1 3e
       0.058016144 -0.19157383 0.09898436 0.47247738
000020 97 3f 61 3c 51 18 bc 3d d5 16 3b be fe b0 01 be
       0.013748071 0.091843255 -0.18270428 -0.12665173
000030 b7 ff 61 3c 95 29 89 3e 5b 67 dc 3d 80 59 ec bc
       0.013793877 0.26789537 0.10761901 -0.02885127
000040 4e 94 fe be f1 21 40 3c 0d 2b f5 3e 97 89 85 be
       -0.49722522 0.011726842 0.47884408 -0.26081535
000050 3b be 43 bd e0 0b 80 bc e0 63 fc bd 26 a6 62 be
       -0.04778884 -0.015630662 -0.12323737 -0.22133693
000060 4a 9a 91 3f f1 5f 21 3d 71 51 9e bc 81 1a 30 be
       1.137521 0.039398137 -0.019325944 -0.1719761
000070 33 b0 4e 3d 98 3b 7d 3d 56 1a c9 be d6 7c a7 be
       0.050461005 0.06182441 -0.39277905 -0.3271243
000080 ce 12 b3 3d fb 5a c3 bd ff b9 76 bc c2 d9 5e 3d
       0.08743821 -0.095388375 -0.015058993 0.05440689
000090 8b 0f 52 be 63 33 b2 3d 59 72 ef bc fa 9b e8 3c
       -0.20513742 0.087012075 -0.02922933 0.028394688
0000a0 05 94 cb bd 09 00 b2 bd 71 6f e5 3e d5 14 9d 3d
       -0.09940342 -0.08691413 0.44811586 0.07669989
0000b0 2e fd 00 bf 0a 32 af bc 90 75 9a 3d 92 76 a6 be
       -0.5038632 -0.021386165 0.075419545 -0.32512337
0000c0 67 7d 15 3f 9e 2a 9a 3d e5 ec ce be 6b fe 91 3e
       0.58394474 0.0752766 -0.4041511 0.28514418
0000d0 42 73 8b 3d 7b cb a5 bd ab 3c 2d be 5c 09 84 3e
       0.06809093 -0.080954514 -0.16917674 0.2578839
0000e0 95 b6 83 3c 9e ff ed 3d f1 fc c9 3e 78 0b 98 bd
       0.016078273 0.11621021 0.3945079 -0.074240625
0000f0 46 df 67 bd 99 30 76 3d 9d 3b 2f 3d 9e 8b e8 bd
       -0.056609415 0.06010494 0.04278146 -0.11354755
000100 58 f9 89 bd c2 e6 56 be 3c 73 af be c8 aa a7 bc
       -0.06737012 -0.20986465 -0.34267604 -0.020467177
000110 db ca 96 bc 58 18 91 3d 94 bc df 3d ab 56 51 be
       -0.018407276 0.07084721 0.1092464 -0.20443217
000120 4f 4c ac bd 32 87 4c bf ec e7 c3 3e 72 51 62 be
       -0.08412992 -0.7989379 0.3826288 -0.22101381
000130 7b e5 77 3d 07 c1 0d be ff 51 00 3d b6 8e 8f bd
       0.060521584 -0.13843165 0.031328198 -0.07009642
000140 19 d5 9b 3d b5 17 a0 3d 5b c6 65 bd d0 e9 8b 3d
       0.076090045 0.07817022 -0.05609737 0.068317056
000150 14 04 e7 bd 98 f0 72 bd c8 32 b4 3e ee 51 e3 bd
       -0.11280075 -0.05931148 0.35194993 -0.11099611
000160 9d eb 4d bf c6 29 2e 3d df 93 a3 bd ae b4 88 be
       -0.8043764 0.042520307 -0.079871885 -0.26700348
000170 8c 54 a7 bd 00 3e 25 be 37 69 35 be d2 90 39 3e
       -0.08170423 -0.16136932 -0.17715918 0.18121651
000180 71 5a 8c 3c 83 71 54 be 39 89 c0 3d 4c 90 a8 3d
       0.01713297 -0.20746426 0.09401173 0.082306474
000190 af fc 92 3d 5f a1 03 be cd c4 22 bf 20 c3 68 bf
       0.07177102 -0.12854527 -0.63581544 -0.9092274
0001a0 23 f7 7d be 01 52 e1 3e 6e 9a 8c bc 75 b0 0e be
       -0.24801306 0.44007877 -0.017163482 -0.139345
0001b0 9d 77 96 3d 55 1c ba 3c e3 48 96 be 5c 04 0e 3e
       0.07347033 0.022718588 -0.29352483 0.1386885
0001c0 fa d8 97 3d c8 ff 22 be 59 af 8d 3e 72 89 6e be
       0.07414432 -0.15917885 0.27672842 -0.23294619
0001d0 3b 49 53 bf 2a bc 19 3f 86 fe 95 bb 7e 4f cf bd
       -0.82533616 0.6005274 -0.0045774607 -0.10122584
0001e0 09 25 e7 3c 6d f4 89 be 21 a4 62 bd 4e c7 9a be
       0.028215902 -0.26944295 -0.055332307 -0.30230182
0001f0 61 67 e3 bd c7 fe 9c 3d 7d c6 01 3f cf 17 4a bd
       -0.11103702 0.076657824 0.50693494 -0.049339112
000200 7b 80 b3 3e 2a 48 c4 be bf e1 8d 3e 86 6a fb be
       0.3505896 -0.38336307 0.27711293 -0.49104708
000210 27 ff b8 3c 48 2d a5 3d 3c e2 89 bd 8f 59 e5 3e
       0.022582604 0.08065277 -0.06732604 0.4479489
000220 54 9a da 3e 6c 3e 87 be 65 0a 02 bf 1b 97 8f 3e
       0.42695868 -0.26414812 -0.5079711 0.28044972
000230 b5 45 a9 bd 9c fc 0a 3f 6a e0 14 3f 85 53 31 3d
       -0.08265249 0.542917 0.5815493 0.04329254
000240 1f 15 41 3d fa ad d4 bd 8f 57 19 3f c6 f6 0a 3f
       0.047139283 -0.10384746 0.5989923 0.54282796
000250 ca 80 9b bd 32 d4 39 3b 28 9b 83 bb 2e 79 c0 3e
       -0.07592924 0.0028355238 -0.004016299 0.37592453
000260 64 1b 48 3f 8d 45 01 3d d5 e6 09 bd 18 fc 20 3f
       0.78166795 0.03156047 -0.033667404 0.62884665
000270 d6 5c e0 3c 28 32 b4 be 93 ca 1e 3f 98 c2 2f bf
       0.027388018 -0.35194516 0.62027854 -0.686563
000280 e2 9f da 3d 88 1e 9b 3e 15 32 a6 bd bc 3c 8b 3d
       0.106750265 0.3029673 -0.08115021 0.067986935
000290 a6 bb fe 3e ac 8a 1a bc 97 77 61 be c3 3b 49 be
       0.4975254 -0.009432476 -0.22018276 -0.19651704
0002a0 22 25 d9 3d 5d f5 0a bd 24 81 9f 3e 2e b4 a5 be
       0.10602786 -0.033925403 0.31153214 -0.3236403
0002b0 aa 3c 35 3e 0f e8 16 bd cc b7 11 be 62 13 1f bf
       0.17698923 -0.036842402 -0.14230269 -0.6213895
0002c0 fe 1f dd 3e 9e 09 ee be db d1 02 bf ae 04 2f 3f
       0.4318847 -0.46491712 -0.51101464 0.68366516
0002d0 05 1b 4b be 77 de 53 bd 10 87 33 3f e5 c0 9b be
       -0.19834526 -0.05172583 0.70127964 -0.30420604
0002e0 73 bc b5 bc 4c 10 4a 3d df 30 08 3f 5a ee 8e 3e
       -0.022184586 0.04933195 0.5319957 0.27916223
0002f0 26 0d 89 3e ea be ee bb a7 17 9c 3e 80 d9 93 bd
       0.26767844 -0.0072859423 0.30486795 -0.07219219
000300 e7 06 0c bd 13 a8 df bd 39 83 86 bc d8 c1 3f 3c
       -0.03418627 -0.109207295 -0.016419994 0.011703931
000310 4f f3 19 3d dd d0 a3 bc 31 44 75 3d 4f b8 67 bc
       0.037585553 -0.019997055 0.059879486 -0.014143064
000320 a0 84 7d bd 65 45 0e bc 4f 09 37 bd b7 1f 78 bd
       -0.06189406 -0.008683537 -0.04468661 -0.06057712
000330 f9 5e b2 bd 3b e7 be bd 0d 1b 38 3c e3 1b 64 bc
       -0.08709521 -0.093214475 0.011236918 -0.013922664
000340 f7 93 74 bd e5 1f 5a bd 84 05 11 bd 91 c7 d7 bd
       -0.059711423 -0.053253073 -0.03540565 -0.10536111
000350 9a 1d 4e 3d 1f fc 72 bd 05 0b 76 3d 53 92 a9 bd
       0.0503212 -0.059322473 0.060069103 -0.08279862
000360 95 8b cf 3c b7 ce 9f bd 73 0e 1f bb 33 5c f1 bb
       0.025335113 -0.078030996 -0.0024270087 -0.0073657273
000370 eb 22 e7 bd 67 a7 2e 3d c8 cf d8 3c 1d ed 11 3c
       -0.11285957 0.042640116 0.026466265 0.00890663
000380 f5 cb 31 3d 3b e4 99 bd 65 16 34 3d 9a 90 1d 3d
       0.0434074 -0.07514235 0.04396667 0.03846798
000390 8d 80 69 3d 95 40 e6 bc 9d 4e 58 bd 88 28 51 bd
       0.05700736 -0.028106967 -0.052809346 -0.051064044
0003a0 c7 8b ca bd 5c d6 c6 bd 28 59 4e 3d de cb 8f bc
       -0.09889942 -0.097088546 0.050377995 -0.017553266
0003b0 f2 35 3e bc 40 2b 6a bc 3c ac 7c 3d 98 1a af 3d
       -0.011609541 -0.014292538 0.061687693 0.08549994
0003c0 25 1f e0 bd 09 10 1b bd ab 2c 80 3d 81 03 05 ba
       -0.1094344 -0.03785709 0.0625852 -0.00050740695
0003d0 07 78 67 bd 39 db 8d 3d 6e 11 06 be 3d 89 cc bd
       -0.05651095 0.06926579 -0.13092586 -0.099871136
0003e0 34 03 d5 bd f1 be ca 3c 97 bc e6 bd a5 a5 4f bd
       -0.104010016 0.024749251 -0.112664394 -0.05069508
0003f0 14 13 a4 3d 79 20 2e 3c 6d e3 d0 bd c4 16 1d bd
       0.08011451 0.010627859 -0.10199628 -0.03835179

arith.constant5 f4 [64, 1, 3, 1]
000000 65 83 12 3f 2b 33 b8 3d 44 37 89 3f be 90 46 3f
       0.5723174 0.089941345 1.0719991 0.7756461
000010 13 29 1b be b9 e1 8d be c9 c2 1b 3f bb eb 59 3e
       -0.15152387 -0.27711275 0.60844094 0.2128133
000020 67 42 9f 3f 2b ec 5f 3f 6a 5b c6 bd 36 7d a8 be
       1.2442139 0.8746974 -0.096854046 -0.32908028
000030 58 c9 2f bf c4 08 b2 be 41 59 07 bf 17 85 fe bf
       -0.686666 -0.34772313 -0.52870566 -1.9884366
000040 96 54 fd bd 0c 0d 9f be 50 11 92 bf d1 df 4e bf
       -0.12369649 -0.3106464 -1.1411533 -0.80810267
000050 91 76 e7 be 31 ba b4 3e 1a bc 1d 3d 4b 0e bd 3f
       -0.45207646 0.35298303 0.038509466 1.4769987
000060 15 18 0e 3f 5d 75 79 3d 24 24 84 3f dc 4e 82 bf
       0.55505496 0.060902942 1.0323529 -1.0180316
000070 87 f3 94 3f 14 dd d1 3f 61 47 98 3f a8 a7 ad 3e
       1.1636819 1.6395593 1.1896783 0.33916974
000080 0c 2f 39 bf 00 12 e7 bd 38 4d 56 3f 25 a3 e3 be
       -0.7233741 -0.1128273 0.83711576 -0.44460407
000090 97 51 a6 bf 2f c4 5f bf 96 82 e1 be 72 12 e5 3e
       -1.2993649 -0.8740873 -0.44044942 0.44740635
0000a0 93 75 a0 3b 87 9b a7 3f c4 64 ac 3e 33 7e 4c bf
       0.0048968284 1.3094338 0.33670628 -0.79880065
0000b0 09 38 a1 3f 46 50 13 3e 17 c0 8d bd d9 46 fc be
       1.2595226 0.1438609 -0.06921404 -0.49272802
0000c0 d7 31 90 be a8 ff 25 bd 04 0a a1 3f 5a 25 89 be
       -0.28163025 -0.040527016 1.2581182 -0.2678631
0000d0 e2 da 49 bf fe 27 a8 be c2 a7 ad 3e 60 46 87 bd
       -0.78849614 -0.32843012 0.33917052 -0.0660522
0000e0 92 00 ba 3f 12 9e ad 3e 2c 01 54 bf 24 d2 b5 3f
       1.4531424 0.3390966 -0.8281429 1.4204755
0000f0 df 95 58 be 7e 49 8a be 0c 37 de be ab eb 1d 3f
       -0.21150921 -0.27009195 -0.43401372 0.61687726
000100 98 13 cf be 09 8c 26 bf 3c 3d 88 bf 8b 93 4a bf
       -0.40444636 -0.65057427 -1.0643687 -0.7913138
000110 fd 37 ca 3f 57 ba 43 bf 1c 18 9a 3f d5 38 73 bf
       1.5798336 -0.7645621 1.2038608 -0.95008594
000120 1c ae 00 bf d0 a8 15 40 80 c1 c2 3f f6 36 a6 bf
       -0.5026567 2.3384285 1.5215302 -1.2985523
000130 05 73 5e bf 40 1a 98 be ee 1b 29 bf 3b ce 97 be
       -0.86894256 -0.29707527 -0.6605824 -0.2964953
000140 25 7e f6 be 9d d3 48 3f 38 c1 c5 be ae 39 a8 3f
       -0.48143116 0.78447896 -0.38623977 1.3142602
000150 d3 35 1a bf da d2 f7 be d6 fb fb be 88 4a 4e 3f
       -0.6023838 -0.48403054 -0.49215573 0.80582476
000160 67 72 a8 3b 1f 43 07 bf 79 e8 45 3f 42 c3 c5 be
       0.005140591 -0.52836794 0.7730785 -0.38625532
000170 e5 b4 b7 3f fc 9f 3f 3f a8 5c 6e 3f 8f f2 ac be
       1.435208 0.7485349 0.9311013 -0.33778808
000180 fd 73 2b 3e 0b 2a 64 bf f8 2f 37 bf 6f 24 11 be
       0.16743465 -0.8912665 -0.7155757 -0.14174055
000190 71 63 4a 3f e7 de 09 bf bc 8b 0f bf b5 ae ed be
       0.79057986 -0.53855747 -0.5607259 -0.46422353
0001a0 e9 3e e4 be b1 7c 82 bf 1d 3a 90 be 20 e3 d5 be
       -0.44579247 -1.0194303 -0.28169337 -0.41774845
0001b0 ed d0 43 bd 95 bd b5 3f 06 9f 93 bf 0c 9c 66 3f
       -0.04780667 1.4198481 -1.1532905 0.9008186
0001c0 99 20 27 3d 84 ec 68 bf 15 72 4e bf 88 aa 89 3f
       0.040802572 -0.90985894 -0.80642825 1.0755167
0001d0 92 15 aa 3f b9 3b 61 bf d9 5a 95 3f 71 e7 c9 3f
       1.3287833 -0.87981755 1.166835 1.5773755
0001e0 13 08 28 bc 50 66 3e 3f 47 07 dc be ba 74 93 bf
       -0.010255831 0.74374866 -0.42974302 -1.1519997
0001f0 02 27 d3 be f3 c2 01 40 d6 47 bc 3e 61 ce 39 3d
       -0.41240698 2.0275238 0.36773556 0.045362834
000200 6b 25 c0 3f cc 02 42 3f 1b f5 bc bd f3 5f a1 be
       1.5011419 0.7578552 -0.09226438 -0.31518516
000210 e4 ab ee bd f2 e6 38 bb 12 d4 a7 3f d9 81 46 bf
       -0.11653879 -0.0028213826 1.3111594 -0.7754188
000220 91 05 c0 be 28 52 0c bf 14 9c 9d bc 38 81 1a bf
       -0.37504247 -0.5481286 -0.019239463 -0.6035342
000230 76 b5 26 c0 4a bb 37 3f d9 f2 5c 3f af f2 89 be
       -2.6048255 0.71770155 0.86308056 -0.26942965
000240 40 95 d2 3e 0e 00 3d be 7d 41 fd 3f 2a d4 66 3f
       0.41129494 -0.18457052 1.978561 0.90167487
000250 28 13 46 be 45 35 b6 be 0a 14 37 3f 08 0e 5f 3f
       -0.19343245 -0.35587516 0.7151495 0.87130785
000260 71 4d a6 be 64 25 3e 40 2d 0a 8b bf 97 26 11 be
       -0.32480958 2.9710321 -1.086248 -0.14174877
000270 c7 2d 3f bf 74 93 83 3f 74 0a 9e 3f 4f 6c 9d bf
       -0.74679226 1.0279374 1.234694 -1.2298678
000280 75 45 a4 be 36 e6 fc 3f b8 61 e3 3e 60 1f 08 bf
       -0.32084242 1.9757755 0.4441049 -0.53172874
000290 e1 10 a9 3f ec da d8 3f c2 f6 07 bf 27 59 83 bf
       1.3208276 1.694181 -0.531109 -1.0261582
0002a0 88 77 ed 3e 2a 70 83 bf c3 46 24 bf a9 78 06 3d
       0.46380258 -1.0268605 -0.64170474 0.032829914
0002b0 84 a4 99 bf c5 cf dc bf 96 68 9e 3e 10 0b dc bc
       -1.2003331 -1.7250906 0.30939168 -0.026860744
0002c0 ac bd b9 3f a2 66 ed be 91 99 80 3f a9 6b 17 bf
       1.4511008 -0.46367365 1.0046865 -0.5914865
0002d0 c1 d6 b3 bf 61 a2 02 40 a3 f3 7c 3d ff 3e 6f bf
       -1.4049913 2.0411608 0.061755788 -0.934555
0002e0 42 68 4c be 47 1f 15 bf cd 6f 46 be 65 de 86 bd
       -0.19961646 -0.5825085 -0.19378586 -0.06585387
0002f0 c1 38 fc 3f 4e 3c 98 bf d3 c4 c1 be 1b 3f f5 be
       1.970482 -1.1893404 -0.37845477 -0.47899708

arith.constant6 f4 [20, 128]
000000 59 6b 0f be ea a3 d6 bf 4d 4a 43 c0 69 35 d2 bd
       -0.14005794 -1.6768773 -3.05141 -0.102640934
000010 03 48 e0 be f6 ce 76 bf 85 be 4b c0 09 67 33 3e
       -0.4380494 -0.9640955 -3.1835034 0.17519774
000020 92 7a 44 bf c7 82 ec 3d c3 8f a7 bf 29 9e 01 be
       -0.7674953 0.11548381 -1.3090748 -0.1265799
000030 8c 07 15 3d 3b 0c 01 c0 3c 23 d3 3e 10 58 89 3f
       0.03638415 -2.0163715 0.4123782 1.073
000040 7e 1a 42 3e ff 32 03 3e c7 a7 b7 3e d4 26 fc bf
       0.18955418 0.12812422 0.3587019 -1.9699349
000050 2a 20 a8 3e bb ec 0d 3e ae c7 16 be b9 99 59 3e
       0.3283704 0.13859837 -0.1472461 0.21250047
000060 f7 b8 f3 3d ee 8e a2 bf 22 b5 67 bf e0 d7 25 3e
       0.119005136 -1.2699869 -0.9051076 0.16195631
000070 b4 8d c4 bd b4 ec 78 3f 1e 6f 96 bf a0 81 fa 3c
       -0.0959734 0.9723618 -1.175266 0.030579388
000080 a1 06 a0 3e f3 98 7f be a4 51 68 bd df a6 d1 bd
       0.31255057 -0.24960689 -0.056718484 -0.10236906
000090 51 19 0c c0 fb 2d ca 3d 62 52 9a 3e ac e0 22 be
       -2.1890452 0.09872051 0.30140978 -0.15906018
0000a0 74 a6 36 bf de d8 33 bf 8f cb 59 be 3d 5b a5 3e
       -0.7134774 -0.7025279 -0.21269058 0.32296172
0000b0 77 00 a7 bd bf bf 52 3f 04 e0 f7 bf 37 4d f2 bf
       -0.081543855 0.8232383 -1.9365239 -1.8929814
0000c0 bd 58 e3 bc c4 ef 23 3f ce 92 8a 3e 19 68 ff bf
       -0.027752275 0.6403773 0.27065128 -1.9953643
0000d0 49 b0 a5 bf 75 82 80 3c 4e ed 3a bf 28 bb f2 bc
       -1.2944423 0.015687207 -0.7301835 -0.029630259
0000e0 6e 1c b1 bf 89 ea 57 be fc d6 f0 3d ff c6 33 3e
       -1.3836801 -0.21085562 0.11759755 0.1755638
0000f0 02 4e 16 be 1c 12 c5 3d 0e ac a2 bf ca 12 01 c0
       -0.14678195 0.09622595 -1.2708757 -2.0167718
000100 b9 e7 fa 3e 81 93 cc 3e 6e 0d 0c be 93 04 27 be
       0.49004915 0.39956287 -0.13676998 -0.16310339
000110 61 60 df bf fa f0 44 bd 68 96 45 3e 4a 43 0c be
       -1.7451288 -0.048081376 0.19295657 -0.13697544
000120 dd fc 84 3c 9a ec eb bf e5 10 4a be 68 81 8e bf
       0.016233856 -1.843158 -0.19733007 -1.1133242
000130 13 29 41 3e b8 18 4b 3e 43 56 c8 bf 14 19 70 3e
       0.18863325 0.19833648 -1.5651325 0.23447067
000140 bb 33 a8 bf 1a cb 89 3e 0a 68 0e c0 46 66 f8 bf
       -1.3140787 0.26912767 -2.2251 -1.9406211
000150 35 d9 c1 bf e8 e6 a0 3e ea 4e d6 3d 9c ba 0a 3e
       -1.5144411 0.31426167 0.104642704 0.13547748
000160 15 b6 33 3e b6 6c e9 bf db 4c c9 3f f2 55 16 bd
       0.17549928 -1.8236301 1.572658 -0.036703058
000170 ce 5e dc bd e1 8a 98 3e fa 1e 8f bf b8 87 a5 3e
       -0.1076027 0.29793456 -1.1181328 0.32330108
000180 13 2d 28 3f 72 ee 93 bd 96 f1 c1 bf e6 a5 31 c0
       0.6569378 -0.07223214 -1.5151851 -2.7757506
000190 de 5d ab be 6c 36 27 c0 42 0b d0 be 01 af a7 3c
       -0.33470052 -2.6126966 -0.4063359 0.02046919
0001a0 72 aa bd bf 88 37 45 bd 8b ea 90 bf 21 a9 36 3e
       -1.4817641 -0.04814866 -1.1321577 0.17837955
0001b0 11 c8 48 be 7c ae d1 bf 34 c8 c8 bf 93 68 b8 3b
       -0.1960757 -1.6381373 -1.5686097 0.0056277006
0001c0 26 ef 01 3e af 54 75 bc 19 6d 54 bd fa 67 5a bf
       0.12688884 -0.014973803 -0.051861856 -0.85314906
0001d0 47 20 c3 3e 87 69 01 c0 cc ef 00 3e ad 5b 28 3e
       0.38110563 -2.0220659 0.12591475 0.16441222
0001e0 a4 d9 3e 3d 7d fa 16 be ae c0 0d be 81 aa 88 3e
       0.046594277 -0.14743991 -0.13843033 0.26692584
0001f0 13 1c 01 be 48 d4 e6 bd 36 e7 cd bf 59 90 d8 bf
       -0.12608366 -0.11270958 -1.6086185 -1.6919051
000200 0e e6 c5 3d 42 d2 e9 be de 2d 26 be 8e 53 21 3d
       0.0966302 -0.45668226 -0.16228434 0.039386325
000210 86 1e 2d 3e ca f7 11 c0 e7 a9 d6 bc e8 ee 64 be
       0.16906175 -2.2807488 -0.026204063 -0.2235676
000220 86 8d 9a bf 4e ca 12 3e dd 19 0f c0 39 d3 2d be
       -1.207444 0.14334986 -2.2359536 -0.16975106
000230 a0 aa e3 3d a1 f6 27 bf c6 07 0a be f1 2c 04 c0
       0.111165285 -0.656107 -0.13479528 -2.065243
000240 a7 e3 12 bd fc cc 36 be 9d 85 03 3f 6c 7f 1c bf
       -0.035861637 -0.17851633 0.5137575 -0.6113193
000250 c1 c3 f4 bf af cd f0 3e 9a 56 f1 bd 8a 4a ab be
       -1.9122239 0.47031924 -0.11784096 -0.33455306
000260 52 87 fc 3d b6 63 b0 bf 95 0f 84 3f 92 29 df 3d
       0.12330498 -1.3780429 1.0317255 0.10896601
000270 ed 64 3c be 29 30 be bf b8 88 24 3e 4d 16 cc 3c
       -0.18397875 -1.4858447 0.16067779 0.024912978
000280 2a 3c b3 3d 54 d0 4b be fd 93 2c ba 53 31 fd bc
       0.0875171 -0.1990369 -0.0006583331 -0.030907309
000290 8d 3b a2 3e 82 d8 41 bd 26 90 3c be 00 5f e8 3d
       0.3168606 -0.04732562 -0.18414363 0.11346245
0002a0 95 ab cb bf 49 fa 84 3e a8 d7 92 3e ea 31 0c c0
       -1.5911738 0.25972202 0.28680158 -2.1905465
0002b0 0d 48 25 be 32 bb 88 bf 1e 4d 19 c0 4b 29 03 c0
       -0.16140766 -1.0682127 -2.3953319 -2.0493953
0002c0 2b 86 9f bc 27 bf 2e 3f 9e ee 69 3e a9 89 05 bf
       -0.019473156 0.68260425 0.22844931 -0.5216318
0002d0 44 d4 02 c0 3a 87 36 3e d0 80 26 c0 92 06 d2 bd
       -2.0442057 0.17825022 -2.601612 -0.102551594
0002e0 d5 9b 98 bf 83 0d 32 3f 75 96 80 bd ff 00 c8 be
       -1.1922556 0.6955187 -0.062786974 -0.3906326
0002f0 7f 3a 30 3e 2e ff 04 3e 3c fc 31 be e9 20 1e 3e
       0.17209814 0.12987968 -0.17381376 0.15442242
000300 cd f5 6c 3e 96 36 0d c0 9e e2 2e bf 19 ca ed 3d
       0.2314064 -2.2064567 -0.6831454 0.11610813
000310 e3 46 8c bf f0 27 99 bd 00 68 e4 3d 40 34 da bd
       -1.0959133 -0.074783206 0.11152649 -0.10654497
000320 74 e9 23 3e fd 3c 12 c0 f8 27 e0 3d 70 b2 16 bf
       0.16007024 -2.2849724 0.109451234 -0.58866024
000330 0a 3d a9 be 9f 69 9b bf b8 e1 91 3e e7 c8 16 3d
       -0.33054382 -1.2141608 0.28492522 0.03681269
000340 cb ad 33 3f 32 f0 02 3f 56 88 09 3e f9 a4 d4 3e
       0.7018706 0.5114776 0.13430914 0.41532114
000350 c6 5d 4e 3f 56 61 f4 bf 6b e0 2d 3e 30 ee 3b 3d
       0.80611837 -1.9092205 0.1698014 0.04588145
000360 03 c9 14 3e 1c 69 1d bf d1 6f 5b bf 06 0a 49 be
       0.14529805 -0.6148851 -0.85717493 -0.1963273
000370 2b ff 02 3b 48 4f 0b bd b1 ba 83 be 89 bc 64 3d
       0.0019988518 -0.034011155 -0.25728372 0.055843864
000380 83 92 1a be 76 52 2d 3e 22 30 59 bf a1 2e c1 bd
       -0.15094952 0.16925988 -0.8483907 -0.09432722
000390 74 97 04 3e 54 bb 2c 3d fa 0c 9c c0 a5 e5 46 be
       0.129484 0.042170838 -4.876584 -0.1942354
0003a0 ce d5 19 3f 09 e6 0b be d8 b6 8b bf c2 95 17 3e
       0.60091865 -0.1366197 -1.0915174 0.14803222
0003b0 a7 87 28 3e ab ce 02 c0 4b 0a 48 bf 8d 13 4f be
       0.16457997 -2.043864 -0.78140706 -0.20222302
0003c0 d1 3d 99 bb 2e 4f 24 be ef 0d 43 3e c2 e7 d4 bc
       -0.0046765585 -0.1604583 0.19048284 -0.025989417
0003d0 a5 f3 0e c0 12 ca 51 3e cf ed 5a 3c 9e db 14 3e
       -2.233621 0.2048724 0.013362362 0.14536902
0003e0 ea 88 0f 3e 09 9e 04 bd 59 25 d9 3d 65 9e 23 3e
       0.14017072 -0.032377277 0.106028266 0.15978391
0003f0 ce 62 89 bd ea fd 1e bc 3a 09 91 3e 29 42 dd bf
       -0.067082986 -0.0097040925 0.28327352 -1.7285815

arith.constant7 f4 [128, 128]
000000 8e e6 39 3d 9c 8a 94 3d 98 c5 0f be 44 4c 4e bd
       0.04538589 0.07253 -0.1404022 -0.0503657
000010 d6 9e 1e be 7c 62 5b 3d 41 5a ba 3d 23 24 21 be
       -0.15490279 0.05356072 0.09099246 -0.15736441
000020 ed e9 23 be 61 aa 89 bd 81 f1 9b bd 80 76 05 3d
       -0.16007204 -0.0672195 -0.076144226 0.032583714
000030 40 cc a0 3d fc bd 18 3d e8 64 b6 bc 37 f9 cd bc
       0.078514576 0.03729056 -0.022264913 -0.025143249
000040 a5 82 f5 3a 50 b7 31 bd 43 db 1b bd 5c a1 1a 3d
       0.0018730952 -0.04338771 -0.0380509 0.03775154
000050 47 7e 9e 3b 74 ed bf bd 73 62 3f 3c 25 fa 2d be
       0.004836831 -0.093714625 0.011681187 -0.16989954
000060 86 99 58 bd c4 4f 2d 3d 82 89 00 be 97 c7 29 be
       -0.052880786 0.0423124 -0.12552455 -0.16580044
000070 39 a9 b0 bd 96 7c 9e bc b6 82 07 3e 0b 9d 29 bd
       -0.08626027 -0.019346517 0.13233456 -0.041409533
000080 88 24 e1 3c b3 78 d1 bd 9c f4 97 bc 88 ad c7 3b
       0.02748324 -0.102281 -0.018549256 0.0060936846
000090 8d 6a d5 3d 37 fb 3d bc c2 bc ee bc a9 0f da bc
       0.104207136 -0.011595539 -0.029142741 -0.026618795
0000a0 72 67 22 bd e6 b6 ce 3d a5 55 14 3e fa a8 12 bd
       -0.039649434 0.10093479 0.14485796 -0.03580568
0000b0 0e 55 f8 bd 19 bd fa 3d dc 9c 4a 3d 12 a8 97 3d
       -0.12125598 0.12243099 0.049466 0.07405104
0000c0 5f 6a 95 3d 02 c9 b2 3d fd 3c 8b bc b9 aa 15 3e
       0.07295679 0.087297454 -0.016996855 0.14615907
0000d0 c6 84 6f bc 27 04 d0 bc 42 61 3a 3d 77 be e5 3d
       -0.014619058 -0.025392605 0.04550291 0.11217969
0000e0 d1 0f df bc 02 c9 a7 3b 48 a1 2d 3d f8 ab 6f 3d
       -0.027229222 0.0051203975 0.042390138 0.05851361
0000f0 bc 4a d0 bd d1 76 2a bb fe 18 f4 3c b7 2b 1a 3e
       -0.101705045 -0.0026010762 0.029797073 0.15055738
000100 26 ce 3d bd d6 08 a3 3a 31 c3 20 be fb 22 8b bd
       -0.046339177 0.0012438546 -0.1569946 -0.06793781
000110 86 8d bb bd 95 20 b6 bc 14 12 03 be fb d2 1d 3d
       -0.09157853 -0.022232333 -0.12799865 0.038531285
000120 a4 29 6c bd bd 21 62 3d d3 3f 95 bc 05 e1 99 bd
       -0.0576569 0.055207957 -0.01821891 -0.07513622
000130 4a af 9e 3d f6 98 a2 3d 00 46 48 bd e9 2c 9b bc
       0.077482775 0.07939331 -0.048894882 -0.018942313
000140 b6 1d 2c be 3e c6 d2 bd 85 31 30 be 47 1a 9a 3d
       -0.16808209 -0.10291718 -0.1720639 0.07524543
000150 ca d6 36 bd 5b cb 9f 3d f6 5a 0a be b1 05 e9 3d
       -0.044638433 0.07802459 -0.13511261 0.11378039
000160 4f 29 95 bd 30 e5 c2 3c 4e af 97 3d d3 58 d5 bd
       -0.072832696 0.023790926 0.074064836 -0.104173325
000170 49 5a 92 3c 97 8f ce 3d d6 5d 02 bb 60 75 0d be
       0.017865317 0.10085981 -0.0019892356 -0.13814306
000180 e0 58 53 3c 5d c2 91 bd 99 4a d3 3d 75 f4 06 be
       0.012899607 -0.0711715 0.10316963 -0.1317919
000190 fc 89 58 bd 25 8f f8 bd 76 92 23 be 7f 9d 1c 3d
       -0.052865967 -0.12136678 -0.15973839 0.038236137
0001a0 2c 71 2f be 58 4e dc bd 7f 5b 82 3d 8e a1 d7 bd
       -0.17133015 -0.107571304 0.06365108 -0.10528861
0001b0 67 8d 68 3c 16 6d c1 3d 5a 7b 4c 3d 73 74 7f bd
       0.014193869 0.094446346 0.049922325 -0.062366914
0001c0 9e 35 95 bd f8 56 04 3e 78 36 60 3d cd 2f 14 be
       -0.07285617 0.12923801 0.054739445 -0.1447136
0001d0 85 a1 87 bd 37 9c ea 3d 85 ab 2c be 72 c1 57 bd
       -0.06622604 0.11455577 -0.16862305 -0.05267472
0001e0 2d 18 e1 bd 48 74 b6 bd b0 f3 20 bd 43 08 a6 39
       -0.10990939 -0.08908898 -0.0392949 0.00031668143
0001f0 01 3c db bd c0 bf 20 be 65 a8 17 be e9 c9 11 be
       -0.10704804 -0.15698147 -0.14810331 -0.14237179
000200 f2 13 a2 be 39 e9 05 be ea 1a 4a bc 66 22 e0 3d
       -0.31655842 -0.13077249 -0.012335518 0.10944061
000210 ec 22 e4 be b4 07 06 be d5 32 7f be d0 50 dd 3d
       -0.44557893 -0.13088876 -0.24921735 0.108064294
000220 c3 11 cd be 02 a4 a2 3e e2 59 3e be 73 c8 76 3e
       -0.40052614 0.31765753 -0.18588975 0.24099903
000230 cd 7f 0b be 98 7c 08 bd a8 47 db bf 0e 3f 1a bf
       -0.13622971 -0.033321947 -1.7131243 -0.60252464
000240 a8 c1 57 3f a4 06 38 be 71 6c 7a 3f fa 2e 1e ba
       0.8427987 -0.17971283 0.9782172 -0.0006034222
000250 19 4c f5 bb ac 83 03 3e 58 5f 6f 3e d8 0f 07 3f
       -0.007485878 0.12843198 0.23376215 0.5275855
000260 09 76 7f 3e 6e cf 3b 3c 71 70 df bd 12 bf b1 3d
       0.2494737 0.011463029 -0.10910118 0.08679022
000270 f5 72 77 c0 24 20 98 bb 1e 53 e0 3e cd 66 53 bd
       -3.8663914 -0.0046425033 0.43813413 -0.05161171
000280 68 56 ad 3e 61 d1 ff 3e f9 e5 ae 3d 0a 26 09 3e
       0.33854985 0.4996443 0.085399576 0.13393417
000290 a5 67 13 bf ee a7 bb bd e3 ab de be 53 d1 c8 3e
       -0.57580024 -0.091628894 -0.43490514 0.39222202
0002a0 ff ff 34 bf f3 f3 68 3b c9 cb ed bd 74 c8 c3 bd
       -0.7070312 0.0035545796 -0.116111346 -0.09559718
0002b0 89 66 41 3d 20 55 7f be 75 e2 48 be 7f 11 ec be
       0.047216926 -0.24934816 -0.19617637 -0.46107098
0002c0 04 78 a8 3d 12 a8 24 3d c4 5e 07 3d 36 97 0b 3e
       0.08226016 0.040199347 0.03304936 0.13631901
0002d0 d3 e6 89 3f 6c a0 57 be 14 0b 5f 3e 1d 3c 3c 3f
       1.0773567 -0.2105729 0.2178157 0.73529226
0002e0 eb d6 d3 3e af 0a 2a be 37 67 00 be 31 51 13 bb
       0.41374907 -0.16605638 -0.12539373 -0.0022478814
0002f0 50 25 f2 3d ba f0 4f be 85 77 80 be f5 30 87 bd
       0.11823523 -0.20306674 -0.25091186 -0.06601135
000300 c4 03 10 bc 76 f4 a1 bc a1 cb 67 be fa 4c d7 3e
       -0.00878996 -0.019769888 -0.22636272 0.42050916
000310 22 46 29 bd f9 d3 e5 3e 32 78 21 3f 05 0e c7 3d
       -0.04132665 0.44888285 0.6307403 0.09719471
000320 34 b5 6b 3f 9e ff 10 3f 14 dc 0f 3f b6 62 72 3e
       0.9207337 0.5664004 0.5619519 0.23670468
000330 95 51 8d bf 13 1e f5 bf fc f5 ec 3d 4c e1 e3 3e
       -1.1040522 -1.9149803 0.11570355 0.44507825
000340 1d 2c 8c 3f d3 9a 94 bc 5d e3 c3 3d 70 80 e1 bd
       1.0950962 -0.018140232 0.095648505 -0.11010826
000350 fb c2 8f be 83 e4 67 3d bf 03 58 3e 63 10 9e 3e
       -0.28078446 0.05661441 0.21095179 0.30871877
000360 ba 14 ac 3e 80 aa 0b be 26 32 b9 3c 10 40 ec be
       0.33609563 -0.1363926 0.02260692 -0.46142626
000370 7e ca 3f 3e 8a d1 ae 3f e6 d3 ce bd 60 93 16 bb
       0.18729588 1.3657696 -0.1009901 -0.0022976026
000380 44 98 17 3f 68 30 e3 3e bf 97 8d 3b 1b 0b 01 3d
       0.59216714 0.4437287 0.004321068 0.03150473
000390 31 93 4f 3b 75 c1 b3 bd 0c ae 36 3d 82 91 16 c0
       0.0031673426 -0.087771334 0.044599578 -2.352631
0003a0 fc d1 00 3f 3c 13 23 bf 11 e9 23 c0 30 44 d1 3e
       0.5032041 -0.63701224 -2.5611002 0.40872335
0003b0 55 e7 96 bc b8 0b d9 3e cc 75 8f be b8 bd d3 3d
       -0.018420855 0.42391753 -0.2801956 0.1033892
0003c0 b9 86 5e 3d bf 67 19 3f 8c ed 3e be 62 de 08 3f
       0.0543277 0.5992393 -0.18645304 0.5346433
0003d0 d9 64 0a be b1 65 6d 3f e3 ba b9 3d c3 20 11 3d
       -0.13515033 0.92733294 0.09068849 0.035431635
0003e0 a3 58 53 3d 8f bd bd bf 4e a8 36 3f 18 d5 87 3d
       0.051598202 -1.4823474 0.7135056 0.06632441
0003f0 0c 1a 8f 3e 74 8b 1e 3d 54 2f 34 be 9c cb 39 3f
       0.2794956 0.03870721 -0.17596179 0.7257631

arith.constant8 f4 [128]
000000 06 bf 9f bc 73 95 43 3d e9 e1 3f 3d c6 07 3a bd
       -0.019500267 0.047749948 0.046846304 -0.04541757
000010 df 4c 42 bd 65 df 25 3e cf 77 cb bd bf b4 c9 bc
       -0.04743659 0.161985 -0.09934961 -0.02462232
000020 e7 8a f7 bd 61 79 d4 bd 94 7a 77 bd 03 4c a9 bc
       -0.120870404 -0.10374714 -0.060419634 -0.020666128
000030 00 00 00 00 3c c0 b6 3c 3d 98 f7 3d ca 59 59 be
       0.0 0.022308461 0.12089584 -0.21225658
000040 c5 69 0f bd 27 b7 7f bc a5 76 87 3e ad f0 0c 3e
       -0.03501298 -0.015607632 0.26457706 0.13763686
000050 18 f3 b8 bd b2 e9 04 3e 4c 1c a4 bc 8a 1b 21 be
       -0.090307415 0.12979773 -0.020033024 -0.15733162
000060 2b 66 0c bd c1 8e 89 3d 44 56 4e 3d ba e0 01 bd
       -0.034277122 0.06716681 0.050375238 -0.031708457
000070 d8 a0 1d bd 4a 07 14 be 9f ab c0 bd 7f cb 81 bd
       -0.03848347 -0.14455906 -0.09407734 -0.06337642
000080 8a fc 85 bd 03 da d7 3d 4d 72 6c bc da 14 de bc
       -0.06542309 0.10539629 -0.014431548 -0.027109552
000090 5d 20 5d 3d a7 7f 32 bd 06 4f 16 bc d9 4b 3e bd
       0.053985942 -0.04357877 -0.009174114 -0.046459053
0000a0 b2 52 93 3d ec 55 6f 3c 01 dc 6a 3e c8 83 9d bd
       0.07193507 0.014607888 0.22935487 -0.07691151
0000b0 1f f6 1d bd 30 a9 c6 3d af be 00 3e a8 a8 89 3c
       -0.038564797 0.09700239 0.1257274 0.016804054
0000c0 d3 fc 01 bd 10 fb 08 3d 45 e4 99 bd 68 42 79 3d
       -0.031735253 0.033442557 -0.07514242 0.060854346
0000d0 5e 5c fd 3c bf 77 02 bc 22 2d 25 3e 00 00 00 00
       0.030927833 -0.00796312 0.16130498 0.0
0000e0 f2 0f ba 3e e5 cd 1a 3d ed ab f5 bb cf f1 3d 3e
       0.3634029 0.037794013 -0.007497302 0.18549274
0000f0 ba 90 0a bd 11 e4 13 be 4a 6b ac 3c ff 2e 84 3d
       -0.03382943 -0.14442469 0.021047253 0.06454276
000100 87 e1 56 be 97 2b 9e bd d2 f4 44 3c dc a9 6f bc
       -0.2098447 -0.07723158 0.01202126 -0.0146279
000110 ad 91 18 3e 55 15 2c bd 2c 64 20 be f5 9e dc bb
       0.14899321 -0.04201253 -0.15663213 -0.0067328163
000120 ef 3a 0f bc 8f ec 8c 3d 7e d4 61 bd 69 3c 9f 3e
       -0.008742078 0.068810575 -0.05513429 0.31100777
000130 af f5 0f be 84 4e 3a be 5e c7 73 be 42 c0 22 bd
       -0.14058565 -0.18194014 -0.23806521 -0.039734133
000140 7e b2 b5 bd 63 b2 26 bd a2 de 00 3d f2 69 89 be
       -0.08871935 -0.040697467 0.03146232 -0.26838642
000150 3c 0f 0b be cd 83 8e bc 8c bd 09 bd f4 ac d7 bd
       -0.1358003 -0.017396832 -0.03362803 -0.10531035
000160 0a d5 04 bd a8 03 48 3d d1 ea 05 3e 29 fa 00 bc
       -0.032429732 0.048831612 0.13077857 -0.007872143
000170 b7 e2 13 bd c9 c0 ec 3d 9b 29 1d 3e 40 45 a3 bd
       -0.036104884 0.11560208 0.15347902 -0.07972193
000180 d4 03 34 3d 00 00 00 00 3e c2 2f 3d 92 75 02 3d
       0.043948963 0.0 0.042909853 0.031850405
000190 e1 b9 ea bd 79 18 d2 3d 3b 67 fc 3b f2 25 5a bd
       -0.11461235 0.10258574 0.0077027357 -0.053258844
0001a0 84 79 4b bd c9 76 db bc 70 27 ee 3b 72 6c 45 bd
       -0.049676433 -0.02679004 0.007267885 -0.048199125
0001b0 e3 11 f7 ba c4 53 82 3e 90 c6 c2 3e 68 d0 aa bc
       -0.0018849935 0.25454533 0.38042116 -0.020851329
0001c0 b3 bb 18 bc ad 13 ea bc 7a dd cf bb 30 17 38 bd
       -0.009322095 -0.028573835 -0.0063435407 -0.04494399
0001d0 5b 78 1c be 89 2c 44 3d 7f a8 4e bd aa a1 1c 3d
       -0.15280287 0.047894035 -0.05045366 0.038240112
0001e0 5a e1 23 bd 75 5c 1a bd b0 8e 46 bd be f4 52 be
       -0.040009834 -0.03768583 -0.04847592 -0.20601174
0001f0 55 a6 6d bc f5 ce 93 ba 1e 48 0d be 8a 69 8d 3e
       -0.014504989 -0.0011276888 -0.13797042 0.27619582

arith.constant9 f4 [20]
000000 88 13 00 bf 9f 8f 29 3f 00 e1 88 bf 42 90 9f bf
       -0.500298 0.66234773 -1.0693665 -1.2465899
000010 80 b4 8d be d0 46 f1 3f d6 a6 7f 3f b3 1a b7 3e
       -0.27676773 1.8849735 0.99863946 0.35762557
000020 9e 30 d7 3f eb 9a be 3e 6a bd 98 3f a2 9e 72 3c
       1.6811712 0.37227568 1.1932805 0.014808329
000030 c9 de 8a bf b0 18 13 3f b9 f4 97 bf 4b d3 12 3e
       -1.0849239 0.57459545 -1.1871558 0.14338414
000040 a6 60 84 be 4e a0 a7 bf 46 07 f4 bd 9a 73 5c bf
       -0.25854987 -1.3095796 -0.1191545 -0.86113894
